saved_models/GCN2_clus-false_BN_GELU.pt (torch, 223195 bytes, 40 tensors)

fc_in.weight f4 [64, 1]
0.29664427 -0.16519082 0.63117 0.29337347 -0.85217315 -0.4273301 -0.0069531943 0.80742437
-0.9356619 0.22564112 0.1805367 0.35721657 -0.081449404 -0.87017226 -0.046601884 -0.9120984
0.15609767 0.9750572 0.14166929 -0.59242743 0.8944218 0.79060805 0.2991396 -0.05109332
0.19182119 -0.3929756 0.23802382 -0.5303471 -0.7028474 -0.2450944 -0.5797366 -0.11271908
-0.3365346 0.090427436 0.8146137 -0.513837 -0.8764171 0.87354004 0.96565366 0.9116375
-0.31429023 -0.9815323 0.09327675 0.66707635 0.40162024 -0.5476541 -0.24987628 0.80020475
0.92075664 0.5629973 -0.44676447 0.7935599 -0.5645056 0.54688525 0.98830837 -0.95365983
0.7174289 -0.71941775 -0.9896284 0.80033785 -0.572979 0.6847036 0.034482814 0.26780468
00000000: c2e1 973e c827 29be 5b94 213f 0c35 963e
00000010: 0528 5abf 03cb dabe 9fd7 e3bb 5db3 4e3f
00000020: 8a87 6fbf 770e 673e 9dde 383e 17e5 b63e
00000030: f2ce a6bd 9cc3 5ebf 9ee1 3ebd 487f 69bf
00000040: 11d8 1f3e 599d 793f c111 113e 53a9 17bf
00000050: d4f8 643f 4a65 4a3f d328 993e 3b47 51bd
00000060: c66c 443e 1934 c9be 84bc 733e d4c4 07bf
00000070: cfed 33bf 07fa 7abe 9e69 14bf 43d9 e6bd
00000080: 434e acbe 0532 b93d 868a 503f d28a 03bf
00000090: df5c 60bf 52a0 5f3f 1435 773f 1361 693f
000000a0: a6ea a0be b345 7bbf e107 bf3d 84c5 2a3f
000000b0: 2ba1 cd3e 0f33 0cbf 91df 7fbe 38da 4c3f
000000c0: b5b6 6b3f 9720 103f 50be e4be be26 4b3f
000000d0: 7083 10bf ac00 0c3f c701 7d3f 0d23 74bf
000000e0: 6ca9 373f c32b 38bf 4958 7dbf f1e2 4c3f
000000f0: c0ae 12bf bc48 2f3f da3d 0d3d b21d 893e

fc_in.bias f4 [64]
-0.26309517 0.8921368 0.45300558 -0.19680037 0.4553622 0.7179221 0.23154433 0.9753845
0.47837666 0.9293803 -0.30867624 0.1640474 0.8775212 0.11980847 -0.50454986 0.474047
0.9324649 -0.82985693 -0.79410493 0.95661485 1.0039396 0.9257977 0.16788778 -0.5878888
-0.614123 0.33836144 0.45418978 -0.4999986 0.30479681 -0.12258682 -0.23570652 -0.9171662
0.18971425 -0.9130598 0.0775395 -0.11670039 -0.16245595 0.35382077 0.5024512 -0.19631362
-0.6612728 -0.6202318 0.15619953 0.8244686 0.6047173 0.108021855 0.38542598 -0.5644682
0.26929334 -0.41357762 -0.18710561 -0.041764665 -0.9330581 -0.602354 0.024108715 -0.79971373
-0.079824574 0.18017517 0.87662435 -0.0017886923 -0.9005341 -0.14585626 0.032735262 -0.16407384
00000000: 69b4 86be 1463 643f 59f0 e73e 0986 49be
00000010: 3c25 e93e bec9 373f f519 6d3e ccb2 793f
00000020: c9ed f43e deeb 6d3f d00a 9ebe 0bfc 273e
00000030: 3ba5 603f 255e f53d 2e2a 01bf 4ab6 f23e
00000040: 05b6 6e3f 8171 54bf 764a 4bbf b6e4 743f
00000050: 1881 803f 1401 6d3f c6ea 2b3e e17f 16bf
00000060: 2a37 1dbf b63d ad3e 908b e83e d1ff ffbe
00000070: 540e 9c3e cc0e fbbd 0d5d 71be 67cb 6abf
00000080: 7444 423e 49be 69bf 08cd 9e3d 9d00 efbd
00000090: da5a 26be ff27 b53e a4a0 003f 7006 49be
000000a0: 2d49 29bf 83c7 1ebf c5f2 1f3e 6010 533f
000000b0: c1ce 1a3f 903a dd3d 8e56 c53e fd80 10bf
000000c0: d1e0 893e 72c0 d3be 9d98 3fbe 6d11 2bbd
000000d0: e5dc 6ebf df33 1abf a47f c53c 0aba 4cbf
000000e0: 117b a3bd d77f 383e 746a 603f 8e72 eaba
000000f0: 6789 66bf 585b 15be 6915 063d f902 28be

fc_hidden.lin_in.weight f4 [128, 64]
-0.055390757 -0.005986016 -0.059255753 -0.12269285 0.015116367 0.011027846 -0.073129706 0.12905285
-0.070661455 -0.039729994 0.064119205 -0.14376196 0.102890216 0.1292091 -0.053382285 -0.0031593458
-0.024715519 -0.11244452 0.011476899 0.023323277 0.094409324 -0.086219855 0.00038576982 -0.041534163
-0.10073887 0.12547646 0.13471247 0.017977158 -0.059530493 0.037423246 0.16820328 0.068683825
-0.14262073 0.053405102 0.040343825 0.0635192 0.15639426 -0.06441669 0.07261487 -0.00320815
-0.03476275 0.09664815 0.006004223 0.013765539 -0.0782014 -0.00861902 -0.08234885 -0.0885841
-0.08157695 0.024032466 -0.088493265 -0.10165385 -0.015179124 -0.11227657 0.077203974 0.06199462
-0.066137895 0.15354279 -0.018601127 0.013438957 -0.22230595 0.017438514 0.088348486 -0.036373537
0.051272083 0.046066 -0.14058174 0.06857301 -0.09817139 -0.04537136 -0.1261351 -0.0104983905
0.008442255 -0.014802006 0.044298634 -0.08241078 0.027862152 -0.0038739701 -0.100632556 0.013990982
-0.08239503 -0.13879438 0.05253959 -0.069126174 0.076330744 0.052143257 0.079791486 0.12517387
-0.036871582 -0.028102899 0.051892675 -0.09171883 0.026112217 0.114657335 0.04619694 -0.10892117
-0.017377151 0.08579846 -0.13763183 0.004925273 -0.04964711 0.033395212 -0.08815423 -0.008586086
-0.15483297 -0.16007571 -0.02220712 -0.08967899 -0.04792427 -0.050856035 0.08235521 -0.11957877
0.07853832 -0.020527625 0.08559018 -0.070296206 -0.052582595 0.036691576 -0.01938771 -0.14995423
0.006561427 -0.01985084 0.0023996823 -0.023694638 0.14737633 -0.016688658 -0.0048371283 -0.06506109
-0.12565632 -0.02727407 -0.011764268 0.051113587 0.06456872 -0.08009627 0.106042184 0.12126692
0.11385181 -0.06530972 0.03785519 0.011843287 0.008728234 -0.077680044 -0.11174497 -0.021688242
0.11711412 0.00055223465 0.097039424 0.008709794 0.044026345 0.12037136 0.04148041 0.08365776
-0.013177331 -0.1020712 -0.108615264 -0.010202026 -0.07144495 -0.08418885 0.09435405 -0.066284984
-0.050154287 -0.12295738 -0.075980246 -0.016339848 -0.11568429 0.021667866 0.11466932 0.05946996
0.03689326 0.08912829 -0.024647878 -0.058526166 0.11037909 -0.11079845 -0.028089179 0.09835459
-0.05921759 -0.05941429 0.08950285 -0.06773255 0.098155506 -0.05284823 -0.00850947 -0.10968357
-0.11535534 0.06745288 0.11142015 -0.05766374 0.021359727 -0.028446456 0.107676595 0.021360422
-0.070594765 -0.043794166 -0.042965382 -0.0058595855 -0.066328555 0.001103347 -0.0059581855 -0.05309769
0.037015006 -0.007940986 -0.09377986 -0.0032996295 -0.11655859 -0.015745942 -0.010786595 -0.045513034
0.10607569 -0.120865904 -0.10617873 0.1326586 0.028976062 -0.08174558 0.038525626 0.0042597577
0.0520414 0.06953268 -0.10238385 -0.116565675 0.023181932 -0.1496612 -0.14406644 0.024658227
-0.09598523 0.069131315 0.105916865 -0.048836987 0.116733655 -0.116563365 -0.14476375 -0.03621106
0.1043686 -0.09884315 -0.07852592 0.100617364 -0.019722534 -0.008991431 0.07921615 0.06028665
-0.009539237 -0.0118732685 0.08878137 -0.09896597 0.017362846 -0.101073116 -0.13303757 -0.08882919
0.041484196 -0.1786743 0.031250056 0.09082565 -0.115199365 -0.078639336 -0.04800792 0.059296608
00000000: 6be1 62bd 5726 c4bb 29b6 72bd 6446 fbbd
00000010: a3aa 773c 23ae 343c 07c5 95bd 6e26 043e
00000020: f4b6 90bd ebbb 22bd ee50 833d 5636 13be
00000030: 1bb8 d23d 644f 043e 62a7 5abd 070d 4fbb
00000040: 3378 cabc 5049 e6bd 9a09 3c3c 7510 bf3c
00000050: ad59 c13d 0994 b0bd 2641 ca39 ba1f 2abd
00000060: 2e50 cebd e77c 003e 11f2 093e d544 933c
00000070: 3fd6 73bd 1e49 193d 7b3d 2c3e 1baa 8c3d
00000080: 2b0b 12be 4fbf 5a3d 913f 253d 5b16 823d
00000090: d125 203e e6ec 83bd 1bb7 943d d33f 52bb
000000a0: 6363 0ebd 77ef c53d 13bf c43b db88 613c
000000b0: 0e28 a0bd ca36 0dbc 84a6 a8bd 956b b5bd
000000c0: d111 a7bd bcdf c43c f53b b5bd e52f d0bd
000000d0: dcb1 78bc 42f1 e5bd 1e1d 9e3d 12ee 7d3d
000000e0: 4e73 87bd 523a 1d3e 6461 98bc 122f 5c3c
000000f0: 2ca4 63be 37db 8e3c 0df0 b43d 6bfc 14bd
00000100: ad02 523d b4af 3c3d a9f4 0fbe 0270 8c3d
00000110: 150e c9bd 52d7 39bd 8f29 01be 7101 2cbc
00000120: 6251 0a3c 1d84 72bc 7c72 353d fcc6 a8bd
00000130: 2b3f e43c 6fe2 7dbb 7118 cebd 6f3a 653c
00000140: babe a8bd 1d20 0ebe c133 573d 0692 8dbd
00000150: 4b53 9c3d 2b94 553d b869 a33d 942d 003e
00000160: a806 17bd 0d38 e6bc 6a8d 543d 15d7 bbbd
00000170: 4ae9 d53c 77d1 ea3d 0139 3d3d 1012 dfbd
00000180: 875a 8ebc 1ab7 af3d 5cef 0cbe 2f64 a13b
00000190: c55a 4bbd 6bc9 083d 348a b4bd a8ac 0cbc
000001a0: 898c 1ebe e3ea 23be b5eb b5bc 9ea9 b7bd
000001b0: 3d4c 44bd 6b4e 50bd d9a9 a83d b7e5 f4bd
000001c0: b3d8 a03d 8d29 a8bc e749 af3d 75f7 8fbd
000001d0: d960 57bd e849 163d fad2 9ebc 9a8d 19be
000001e0: 3d01 d73b 3b9e a2bc fd43 1d3b 421b c2bc
000001f0: d2e9 163e a7b6 88bc c680 9ebb c03e 85bd
00000200: 0dac 00be df6d dfbc ebbe 40bc 7b5c 513d
00000210: 9b3c 843d 8309 a4bd a52c d93d ca5a f83d
00000220: 232b e93d 1ac1 85bd 0b0e 1b3d 590a 423c
00000230: de00 0f3c b716 9fbd 8cda e4bd 8aab b1bc
00000240: 87d9 ef3d d7c3 103a 9bbc c63d 86b3 0e3c
00000250: f854 343d 4285 f63d 5de7 293d c254 ab3d
00000260: bbe5 57bc b50a d1bd ae71 debd 6626 27bc
00000270: bb51 92bd 346b acbd b23c c13d 6cc0 87bd
00000280: 956e 4dbd 14d1 fbbd 889b 9bbd 25db 85bc
00000290: e3eb ecbd cf80 b13c c0d7 ea3d c696 733d
000002a0: 631d 173d e588 b63d 59ea c9bc 22b9 6fbd
000002b0: 6f0e e23d 4cea e2bd 471b e6bc 226e c93d
000002c0: 258e 72bd 665c 73bd 454d b73d 5db7 8abd
000002d0: c105 c93d 6377 58bd 4e6b 0bbc c8a1 e0bd
000002e0: 6c3f ecbd bc24 8a3d 3f30 e43d d030 6cbd
000002f0: 98fa ae3c 8b08 e9bc 8c85 dc3d 0dfc ae3c
00000300: fd93 90bd 8361 33bd 78fc 2fbd c401 c0bb
00000310: 44d7 87bd 2f9e 903a e23c c3bb f77c 59bd
00000320: 0c9d 173d e91a 02bc a80f c0bd 993e 58bb
00000330: 45b6 eebd a2fd 80bc 42ba 30bc e06b 3abd
00000340: 363e d93d 8b88 f7bd 3c74 d9bd a8d7 073e
00000350: 355f ed3c 3a6a a7bd 0ccd 1d3d 7095 8b3b
00000360: 5d29 553d 2667 8e3d a0ae d1bd fcb9 eebd
00000370: 09e8 bd3c c940 19be 2786 13be 0d00 ca3c
00000380: e793 c4bd b894 8d3d f1ea d83d 4b09 48bd
00000390: 0e12 ef3d c6b8 eebd f33c 14be 0c52 14bd
000003a0: 34bf d53d 476e cabd 33d2 a0bd 7a10 ce3d
000003b0: 2791 a1bc cc50 13bc 143c a23d 22ef 763d
000003c0: 764a 1cbc 1988 42bc 02d3 b53d acae cabd
000003d0: 873c 8e3c 6cff cebd 003b 08be 14ec b5bd
000003e0: 55eb 293d 65f6 36be 0f00 003d cc02 ba3d
000003f0: a5ed ebbd a90d a1bd f4a3 44bd 00e1 723d

fc_hidden.lin_in.bias f4 [128]
-0.044987 -0.10421378 0.049616773 -0.06941391 -0.077696666 0.08754042 -0.044869117 -0.05869789
0.102689184 0.013144517 -0.026236227 -0.022212299 0.10761874 -0.08682143 -0.070849605 -0.0808946
-0.121227935 -0.053421345 0.10665816 -0.080356374 -0.05273297 0.066315725 -0.08970469 -0.07092062
-0.0777985 -0.08739613 -0.12150341 0.07652651 -0.061623838 -0.10852457 -0.009491963 0.0072139218
-0.028127356 -0.121459395 0.045347676 0.040320188 -0.00694321 -0.083894655 0.033409968 0.104065865
0.060104363 0.09104476 -0.015092837 -0.014662843 -0.039108682 -0.007844346 -0.0049049486 -0.019031607
-0.08989388 0.040385094 0.088978186 0.08653532 -0.08845327 0.10024242 -0.1035904 -0.08226926
-0.013707079 -0.00055605266 -0.07979608 -0.10949219 -0.0672005 -0.04436812 -0.10803946 -0.021397246
0.07946021 -0.07934894 0.08243425 0.05995311 0.05747657 -0.011237163 0.014421447 0.055932138
0.10178658 -0.0073278863 0.004676714 0.1182704 -0.068061665 0.09737282 0.057770163 0.08026823
-0.0024750035 0.04974769 0.019533437 -0.097181216 0.0529338 -0.034706544 0.10526537 0.024528082
0.026519949 -0.06725312 0.018166158 0.05191526 -0.02765686 -0.10333132 -0.06344944 0.040396504
-0.06870517 -0.010633104 -0.084468246 0.001397323 0.012952242 0.13243851 0.08309694 -0.05050572
0.040243387 -0.0988142 -0.081455566 0.018190555 0.023511171 -0.050483428 -0.0049941083 -0.010087109
-0.09812632 0.08324308 0.05605155 -0.097707465 -0.006929541 -0.05562192 -0.11204296 0.015142722
0.095935136 -0.070861876 -0.081151836 -0.06503661 -0.046242528 -0.03932525 -0.1137064 0.08765266
00000000: 4a44 38bd 096e d5bd f53a 4b3d e128 8ebd
00000010: 6e1f 9fbd 6448 b33d aec8 37bd 336d 70bd
00000020: b54e d23d 1a5c 573c 5bed d6bc 91f6 b5bc
00000030: 3767 dc3d 6fcf b1bd 9919 91bd 11ac a5bd
00000040: 5a46 f8bd 57d0 5abd 986f da3d e291 a4bd
00000050: 87fe 57bd 8ad0 873d 18b7 b7bd d43e 91bd
00000060: d254 9fbd befc b2bd c8d6 f8bd eeb9 9c3d
00000070: 4769 7cbd 2142 debd 2e84 1bbc c362 ec3b
00000080: 576b e6bc b4bf f8bd 7cbe 393d c826 253d
00000090: de83 e3bb f6d0 abbd e4d8 083d 7c20 d53d
000000a0: fe2f 763d ad75 ba3d f247 77bc 6c3c 70bc
000000b0: 6d30 20bd 9285 00bc b1b9 a0bb 2ce8 9bbc
000000c0: 481a b8bd d76a 253d 323a b63d 6e39 b13d
000000d0: fd26 b5bd e64b cd3d 3427 d4bd c97c a8bd
000000e0: a893 60bc 10c4 11ba 216c a3bd 713d e0bd
000000f0: 6aa0 89bd 59bb 35bd cb43 ddbd 4749 afbc
00000100: 09bc a23d b281 a2bd 4ad3 a83d 6491 753d
00000110: 8d6c 6b3d 141c 38bc ef47 6c3c 1919 653d
00000120: 7c75 d03d c41e f0bb 1f3f 993b c037 f23d
00000130: ea63 8bbd 676b c73d 68a0 6c3d ab63 a43d
00000140: ab33 22bb 3cc4 4b3d 9604 a03c f206 c7bd
00000150: 1dd1 583d 7328 0ebd 5f95 d73d 1eef c83c
00000160: 5d40 d93c 01bc 89bd 32d1 943c 18a5 543d
00000170: a490 e2bc 5f9f d3bd c8f1 81bd ce76 253d
00000180: 4cb5 8cbd 7836 2ebc b0fd acbd 6126 b73a
00000190: a435 543c f69d 073e ba2e aa3d 16df 4ebd
000001a0: 40d6 243d 195f cabd 2dd2 a6bd 5c04 953c
000001b0: 809a c03c b6c7 4ebd 9ea5 a3bb 6744 25bc
000001c0: 74f6 c8bd 597b aa3d 4f96 653d da1a c8bd
000001d0: 3411 e3bb cfd3 63bd c876 e5bd 2e19 783c
000001e0: a479 c43d 0820 91bd ef32 a6bd ea31 85bd
000001f0: ce68 3dbd 8313 21bd e7de e8bd 3d83 b33d

fc_hidden.lin_out.weight f4 [64, 128]
-0.031747974 -0.013236944 0.057673614 -0.07754822 -0.036460396 -0.06526585 0.08979425 -0.0004482653
0.03912169 0.110496216 -0.023187427 -0.12751216 -0.10493035 0.08977087 0.025603823 -0.010858763
-0.0061397753 -0.08349513 0.018158412 -0.055728998 0.017516624 -0.015476959 0.002737861 -0.013637932
0.015005034 -0.038405415 -0.030558307 -0.12112883 0.07370571 -0.07278267 -0.02068956 0.03814083
0.039050855 0.019961622 -0.028162884 -0.12076947 0.02453068 0.02345413 -0.053647347 -0.07021703
0.045345504 -0.071189225 -0.04700991 0.013945913 -0.055460323 0.08082334 -0.025397804 0.088950336
-0.032176 0.0103532635 0.03813661 0.0021084982 -0.10398339 -0.087624766 -0.14923318 -0.10630027
-0.02118616 0.020889923 -0.016060768 -0.009791515 0.0506156 0.021725556 0.051490575 -0.042608943
-0.007487831 -0.08979286 -0.07541071 0.062483214 -0.005355683 -0.008098814 -0.123928234 0.040582996
0.06076527 0.027504724 -0.012243906 0.051297165 0.02224824 -0.045861393 -0.017099392 -0.0017795904
0.047113724 0.030766845 -0.013424164 0.077831686 -0.0596733 -0.02049795 -0.067807496 0.0078116804
-0.07079056 0.050060596 -0.011193168 0.059149325 -0.04110864 -0.05552372 -0.024118148 -0.07657023
-0.01883955 -0.014314727 -0.067377694 -0.039921943 -0.053308107 0.0034624129 -0.0145816775 0.035414606
-0.066091366 -0.054373622 0.033357393 -0.098918185 0.025550017 -0.023077566 -0.03511435 0.005521654
-0.13502322 -0.12738962 -0.05024004 -0.004532314 -0.09445451 0.038254358 -0.04715373 -0.089322016
0.03931818 -0.098595835 -0.050947756 0.04114471 0.042300455 0.027124926 -0.014461972 0.10389253
0.075135194 0.04428773 0.04941129 -0.02280949 0.04127284 -0.08987914 -0.020877495 0.034707967
0.0044747875 -0.03430955 -0.072136804 0.012700937 -0.03817828 -0.039626405 -0.05334208 0.059575815
-0.09366892 0.034648344 -0.049996387 0.042662323 -0.07142352 0.023555094 -0.004034829 0.024912333
-0.1146527 -0.0044377362 0.06493618 -0.0022188646 0.13693027 -0.07852354 0.051727824 -0.065000944
-0.062175825 -0.03477211 -0.055382956 -0.03013664 -0.10066269 -0.03674759 0.076751314 -0.014726369
-0.048710726 0.00156199 -0.03660316 0.082204394 -0.025671996 -0.0058043 -0.10964486 0.16370632
-0.004704846 -0.09117908 -0.056895994 0.16542976 -0.1017987 0.07124124 -0.00081129663 0.08952823
-0.08487816 0.035467997 -0.047954187 -0.069192275 -0.004328851 -0.0024803935 -0.09656615 0.03817434
-0.09003676 0.03464874 0.011193359 -0.07897237 0.053581946 -0.021754138 0.051437438 0.018248847
0.09252725 -0.011062631 0.09558854 0.006839363 -0.00904183 -0.090264045 0.0103662005 0.005779211
-0.03251243 -0.008307248 -0.13475427 -0.03285089 -0.014295509 0.08937323 -0.028637359 -0.029647768
0.116890006 0.05498803 0.04845944 -0.09994018 0.07421611 -0.050778568 0.03518969 -0.011447024
-0.09025662 -0.040313307 0.10581247 0.009793112 -0.0145454435 -0.0024685338 0.0070155747 -0.04071666
0.02633726 0.011648304 -0.021942336 0.015350162 0.08975379 0.17424572 0.052510854 0.0052388078
-0.11457494 0.054700937 0.015469942 -0.05352789 -0.0032534911 -0.11836337 -0.026931832 0.00900544
0.048526242 -0.005992711 -0.0824342 -0.015888494 -0.038635332 -0.034128405 0.037069935 -0.0799961
00000000: 2a0a 02bd c4df 58bc 2b3b 6c3d 9ad1 9ebd
00000010: 7f57 15bd 1aaa 85bd 0ce6 b73d 2605 ebb9
00000020: 113e 203d d74b e23d 8ff3 bdbc 8c92 02be
00000030: b9e5 d6bd cad9 b73d 1cbf d13c f4e8 31bc
00000040: 2b30 c9bb 7fff aabd f3c0 943c 1744 64bd
00000050: 067f 8f3c 1293 7dbc af6d 333b a271 5fbc
00000060: add7 753c ff4e 1dbd 6a55 fabc 6412 f8bd
00000070: 05f3 963d 150f 95bd 277d a9bc 8f39 1c3d
00000080: caf3 1f3d 8e86 a33c d9b5 e6bc fc55 f7bd
00000090: 91f4 c83c e022 c03c 52bd 5bbd f2cd 8fbd
000000a0: 35bc 393d a8cb 91bd 778d 40bd 667d 643c
000000b0: 5d2a 63bd b586 a53d 0e0f d0bc 982b b63d
000000c0: fbca 03bd bca0 293c 2235 1c3d bb2e 0a3b
000000d0: 3ef5 d4bd 9d74 b3bd 95d0 18be f5b3 d9bd
000000e0: 998e adbc 5821 ab3c df91 83bc 976c 20bc
000000f0: 4e52 4f3d cbf9 b13c c8e7 523d b786 2ebd
00000100: 7b5c f5bb 52e5 b7bd ee70 9abd 66ee 7f3d
00000110: ba7e afbb e3b0 04bc 16ce fdbd 5b3a 263d
00000120: 01e5 783d 9651 e13c aa9a 48bc fa1c 523d
00000130: f141 b63c 28d9 3bbd 0614 8cbc 2541 e9ba
00000140: 52fa 403d c00a fc3c 06f1 5bbc 3866 9f3d
00000150: fd6b 74bd 51eb a7bc a8de 8abd 20f9 ff3b
00000160: a4fa 90bd 570c 4d3d 8d63 37bc 9046 723d
00000170: 8961 28bd d76c 63bd 6c93 c5bc dad0 9cbd
00000180: 6655 9abc 5188 6abc 51fd 89bd 3185 23bd
00000190: 9a59 5abd a6e9 623b fde7 6ebc e80e 113d
000001a0: e95a 87bd e0b6 5ebd c3a1 083d 9e95 cabd
000001b0: 454e d13c 2a0d bdbc 11d4 0fbd feee b43b
000001c0: 8743 0abe 6d72 02be 80c8 4dbd ce83 94bb
000001d0: 5e71 c1bd 9ab0 1c3d 4524 41bd 76ee b6bd
000001e0: 1a0c 213d 9dec c9bd 98ae 50bd 5b87 283d
000001f0: 3e43 2d3d 1835 de3c e8f1 6cbc 9bc5 d43d
00000200: 7be0 993d 0d67 353d 7e63 4a3d f8da babc
00000210: b60d 293d 8e12 b8bd 4807 abbc f129 0e3d
00000220: 3da1 923b 2c88 0cbd 76bc 93bd 9717 503c
00000230: d460 1cbd 4c4f 22bd 3a7d 5abd c505 743d
00000240: 7ed5 bfbd 6ceb 0d3d 03c9 4cbd b0be 2e3d
00000250: 7f46 92bd 9df6 c03c 9936 84bb f314 cc3c
00000260: 09cf eabd 6e6a 91bb 43fd 843d 5f6a 11bb
00000270: 7337 0c3e f3d0 a0bd 8ee0 533d 371f 85bd
00000280: 14ac 7ebd 336d 0ebd 3dd9 62bd 1de1 f6bc
00000290: 3e28 cebd a484 16bd cb2f 9d3d de46 71bc
000002a0: e684 47bd b0bb cc3a 32ed 15bd c75a a83d
000002b0: 144e d2bc ff31 bebb 7c8d e0bd a1a2 273e
000002c0: 1c2b 9abb 19bc babd c60b 69bd 6b66 293e
000002d0: d67b d0bd ede6 913d 32ad 54ba 945a b73d
000002e0: 9ad4 adbd e446 113d 9c6b 44bd aeb4 8dbd
000002f0: 09d9 8dbb 198e 22bb 79c4 c5bd b25c 1c3d
00000300: 3165 b8bd d6eb 0d3d 5a64 373c 44bc a1bd
00000310: be78 5b3d bc35 b2bc 10b0 523d 9b7e 953c
00000320: ed7e bd3d 0a40 35bc edc3 c33d bc1c e03b
00000330: 2f24 14bc 5bdc b8bd ffd6 293c 895f bd3b
00000340: c12b 05bd 201b 08bc 06fd 09be a88e 06bd
00000350: b637 6abc 5009 b73d e598 eabc e0df f2bc
00000360: 0764 ef3d 213b 613d 687d 463d 70ad ccbd
00000370: 9efe 973d 30fd 4fbd 1023 103d 4c8c 3bbc
00000380: 76d8 b8bd 911f 25bd 35b4 d83d 4a73 203c
00000390: 0350 6ebc 20c7 21bb e8e2 e53b 83c6 26bd
000003a0: 3dc1 d73c 87d8 3e3c 6ac0 b3bc 3f7f 7b3c
000003b0: d6d0 b73d 786d 323e 9f15 573d 4eaa ab3b
000003c0: 44a6 eabd 170e 603d a475 7d3c 1040 5bbd
000003d0: 8638 55bb 7f68 f2bd 25a0 dcbc 8e8b 133c
000003e0: 74c3 463d 815e c4bb 43d3 a8bd 9628 82bc
000003f0: 1540 1ebd 3aca 0bbd a5d6 173d ffd4 a3bd

fc_hidden.lin_out.bias f4 [64]
0.06101637 -0.056647703 -0.00965613 -0.0767769 0.047419358 0.047396973 0.036446802 0.014891724
-0.050807983 -0.012544092 -0.030080667 -0.07707982 -0.0042941496 0.07612449 -0.029861135 0.043376636
0.017433375 -0.008653271 -0.07299595 0.015261274 -0.019421948 -0.011015164 -0.034516092 0.067815974
-0.06976339 0.091639675 0.08506482 -0.002315425 -0.030196782 -0.060678225 0.073971644 -0.057246566
0.029249 -0.04452818 0.06454025 -0.015693838 -0.045979656 -0.04303991 -0.035009786 0.021713788
-0.07282273 -0.04763263 -0.08376753 -0.033293795 -0.08325308 0.055175643 0.031803835 -0.054357518
0.009735918 0.031303227 -0.09111496 0.008652537 -0.03214838 -0.019447772 0.018215833 0.04820717
-0.010603073 -0.06233467 -0.075759955 -0.05468576 -0.06555941 -0.072244406 -0.07394978 0.032964926
00000000: 4dec 793d 6c07 68bd bf34 1ebc 353d 9dbd
00000010: cd3a 423d 5423 423d 3e49 153d 6bfc 733c
00000020: 081c 50bd bc85 4dbc bb6b f6bc 06dc 9dbd
00000030: f0b5 8cbb 28e7 9b3d 579f f4bc b3ab 313d
00000040: 70d0 8e3c 73c6 0dbc e77e 95bd 6c0a 7a3c
00000050: c71a 9fbc f278 34bc bf60 0dbd 1ae3 8a3d
00000060: 1ce0 8ebd 95ad bb3d 7736 ae3d 63be 17bb
00000070: 3e5f f7bc bb89 78bd 727e 973d 607b 6abd
00000080: 999b ef3c 2e63 36bd ae2d 843d 5d90 80bc
00000090: 2a55 3cbd 9e4a 30bd 6c66 0fbd 1de1 b13c
000000a0: 1524 95bd 6f1a 43bd 508e abbd 135f 08bd
000000b0: 9780 aabd dbff 613d bd44 023d fda5 5ebd
000000c0: 6683 1f3c d037 003d 7b9a babd 5fc3 0d3c
000000d0: 05ae 03bd ef50 9fbc 5f39 953c e274 453d
000000e0: 83b8 2dbc a452 7fbd 0928 9bbd 2dfe 5fbd
000000f0: 0344 86bd e0f4 93bd fb72 97bd 3b06 073d

fc_hidden.norms.0.weight f4 [128]
1.0386595 0.9475542 1.0474231 0.978944 1.062811 1.0181115 1.026443 0.9784945
1.0512862 1.0261382 0.997459 0.9581143 1.0167955 0.9944638 0.95006007 0.95726144
0.9470955 0.9962168 0.9384854 1.022973 0.9662724 0.94299906 0.99679714 1.0149882
0.98518527 1.0452137 0.9580158 1.0252405 1.0499089 0.9496644 1.0138453 0.9652686
0.9562362 0.9644884 1.0284598 1.0048385 1.0623167 1.0783948 0.9833725 0.93306905
0.984489 1.0020994 0.93172437 0.9436117 0.9692553 1.0130194 0.995716 1.1061103
1.0006993 0.97523534 1.0260358 1.0881623 0.9813615 1.032049 1.0625373 1.009927
1.0160865 1.054856 1.087621 0.951759 0.9919657 0.9467277 0.97141516 0.97365093
1.0023962 0.96054095 1.0030391 0.9824711 0.9647363 0.99006915 1.020654 0.9980177
0.99674183 1.0043846 0.9430827 0.9280338 0.9447388 1.0517637 1.0142151 1.0466063
1.0206696 0.93505293 1.0819222 0.9527156 0.9974343 1.0763918 0.96633285 0.9586609
1.0109649 0.98179466 0.9477917 0.97749823 0.9935561 0.9449676 0.9716986 1.038516
1.0000943 0.94359094 1.0269265 0.927444 1.0169417 1.0176734 1.0322659 1.0364401
1.01364 1.0058291 0.93660975 1.0114423 0.9555806 1.0780269 0.9552224 1.0293231
1.1066858 1.0233457 0.96969825 0.99788624 0.98266894 1.0040977 0.94908994 0.9567485
1.003308 0.9573311 1.0229521 1.0169953 0.96833235 0.99577534 0.9944051 1.0084
00000000: cbf2 843f e992 723f f611 863f 139c 7a3f
00000010: 310a 883f 7a51 823f 7c62 833f 9e7e 7a3f
00000020: 8c90 863f 7f58 833f 7959 7f3f fb46 753f
00000030: 5b26 823f 2e95 7e3f 2337 733f 160f 753f
00000040: da74 723f 1008 7f3f 9440 703f c7f0 823f
00000050: a15d 773f 6368 713f 192e 7f3f 22eb 813f
00000060: 1a35 7c3f 90c9 853f 8640 753f 153b 833f
00000070: 6a63 863f 351d 733f afc5 813f d81b 773f
00000080: e5cb 743f b6e8 763f 92a4 833f 8c9e 803f
00000090: fef9 873f d708 8a3f 4dbe 7b3f 9ddd 6e3f
000000a0: 7907 7c3f cb44 803f 7d85 6e3f 8990 713f
000000b0: 1e21 783f 9faa 813f 3ee7 7e3f 0695 8d3f
000000c0: ea16 803f 06a9 793f 2455 833f e748 8b3f
000000d0: 823a 7b3f 2e1a 843f 3901 883f 4a45 813f
000000e0: 1f0f 823f 8505 873f 2a37 8b3f 7aa6 733f
000000f0: 77f1 7d3f bf5c 723f aaae 783f 3041 793f
00000100: 854e 803f 03e6 753f 9663 803f 3a83 7b3f
00000110: f5f8 763f 2c75 7d3f caa4 823f 177e 7f3f
00000120: 792a 7f3f ad8f 803f de6d 713f a093 6d3f
00000130: 67da 713f 31a0 863f cdd1 813f 32f7 853f
00000140: 4da5 823f a15f 6f3f 6d7c 8a3f 2be5 733f
00000150: db57 7f3f 35c7 893f 9761 773f cd6a 753f
00000160: 4c67 813f e556 7b3f 7aa2 723f 533d 7a3f
00000170: b159 7e3f 66e9 713f 3dc1 783f 18ee 843f
00000180: 1703 803f 2d8f 713f 5472 833f f86c 6d3f
00000190: 252b 823f 1f43 823f 4a21 843f 12aa 843f
000001a0: f5be 813f 02bf 803f a8c5 6f3f f176 813f
000001b0: eea0 743f c9fc 893f 7589 743f dcc0 833f
000001c0: e1a7 8d3f fefc 823f 253e 783f 7975 7f3f
000001d0: 3190 7b3f 4686 803f 8ff7 723f 78ed 743f
000001e0: 666c 803f a713 753f 18f0 823f e72c 823f
000001f0: a1e4 773f 22eb 7e3f 5591 7e3f 4013 813f

fc_hidden.norms.0.bias f4 [128]
0.024721527 -0.024387823 0.1304582 -0.014196652 0.083940305 -0.038295012 0.04173195 0.008735717
0.05879178 0.033282857 -0.004487737 -0.0065054474 0.051178366 -0.041126274 -0.005366696 -0.020407153
-0.03890377 -0.0064438167 -0.02032487 0.025190687 0.028475234 -0.026762951 0.016160881 0.02270669
0.03549202 0.014816103 -0.06649035 0.0046477476 0.11797458 -0.023991138 -0.020884901 -0.014649526
-0.04186549 -0.018698912 0.010151839 -0.018604804 0.08476976 0.046516135 -0.023369785 -0.04937671
-0.00976438 0.0021592954 -0.03135975 -0.06213843 -0.062203676 0.08273955 -0.041366633 0.13059877
-0.03660367 0.008638665 -0.008006325 0.06520959 0.025418777 0.06070824 0.0068461015 0.021927055
0.05689494 0.07265608 0.014670415 -0.025864275 -0.04558491 0.0022461147 -0.026295178 -0.0064671086
-0.040072605 -0.0027685692 0.03236403 -0.0415806 0.021628475 -0.011581991 -0.031819608 0.043299604
-0.0040960037 -0.0019256828 -0.023235273 -0.04539464 0.00079438544 0.094119385 -0.014616842 0.05231441
-0.020887576 -0.0077940435 0.069190525 0.024769453 0.02778564 0.088883094 -0.024076562 -0.07413235
0.1543214 -0.043285687 -0.025162255 -0.028727245 -0.013134353 0.0005117691 -0.034731444 0.04741529
0.00729051 -0.090452544 0.027153388 -0.048174728 0.020287624 0.07174676 -0.00045159485 0.014815575
-0.012761176 0.016339071 -0.02425912 0.037800197 -0.043079104 0.07656983 -0.074403554 0.027208958
0.044052985 -0.0076404545 0.013004746 -0.059662838 8.692489e-05 -0.0039583617 -0.08857601 -0.06325161
0.01282593 -0.027605671 -0.017165773 0.06660944 -0.013626572 -0.0137324985 0.003977201 0.06828442
00000000: cd84 ca3c f9c8 c7bc d696 053e 1399 68bc
00000010: e5e8 ab3d 3bdb 1cbd 1fef 2a3d 4120 0f3c
00000020: a6cf 703d 9b53 083d de0d 93bb a62b d5bb
00000030: 68a0 513d 0674 28bd 1cdb afbb e72c a7bc
00000040: 8f59 1fbd a726 d3bb 5780 a6bc b35c ce3c
00000050: e544 e93c fa3d dbbc d363 843c 6103 ba3c
00000060: 1560 113d 3dbf 723c 182c 88bd 224c 983b
00000070: a89c f13d 1089 c4bc d016 abbc 9104 70bc
00000080: 267b 2bbd 762e 99bc e653 263c 1a69 98bc
00000090: c59b ad3d b487 3e3d fe71 bfbc 3c3f 4abd
000000a0: c7fa 1fbc f782 0d3b 1573 00bd de84 7ebd
000000b0: 48c9 7ebd 5a73 a93d 0f70 29bd afbb 053e
000000c0: bbed 15bd 3089 0d3c f62c 03bc 9b8c 853d
000000d0: 0a3b d03c 34a9 783d 4355 e03b 5ea0 b33c
000000e0: ab0a 693d b6cc 943d 2e5c 703c 51e1 d3bc
000000f0: 3eb7 3abd 8d33 133b fc68 d7bc 0aea d3bb
00000100: 2c23 24bd e270 35bb 2590 043d 6b50 2abd
00000110: 332e b13c 64c2 3dbc 4755 02bd ed5a 313d
00000120: c537 86bb 3167 fcba e657 bebc bbef 39bd
00000130: 4e3e 503a aac1 c03d 7b7b 6fbc a347 563d
00000140: 6c1c abbc 2d65 ffbb c3b3 8d3d 4fe9 ca3c
00000150: b69e e33c 5708 b63d 363c c5bc b4d2 97bd
00000160: 6e06 1e3e 554c 31bd 1321 cebc 6655 ebbc
00000170: 7831 57bc 3e28 063a 8f42 0ebd 8936 423d
00000180: 3be5 ee3b 2f3f b9bd c870 de3c dd52 45bd
00000190: 3b32 a63c f7ef 923d 09c4 ecb9 07bd 723c
000001a0: 4014 51bc 84d9 853c 10bb c6bc 61d4 1a3d
000001b0: b773 30bd a5d0 9c3d e460 98bd 52e5 de3c
000001c0: e770 343d c75c fabb dc11 553c 0561 74bd
000001d0: 724b b638 25b5 81bb 5767 b5bd 0f8a 81bd
000001e0: d923 523c 4a25 e2bc 3c9f 8cbc 886a 883d
000001f0: fc41 5fbc 46fe 60bc 2e53 823b b4d8 8b3d

fc_hidden.norms.0.running_mean f4 [128]
-0.065256335 -0.41970152 0.2847223 -0.4546276 -0.41115382 -0.056483682 0.3021092 -0.44186983
0.034603857 0.13810563 -0.32798776 0.73532736 0.09461033 -0.8916166 0.28311032 0.47755378
0.0062714764 -0.41054446 0.34002373 -0.35965547 0.5283168 0.77050674 0.07642278 -0.23464741
-0.262859 -0.52181154 -0.3228084 0.088457584 -0.2613066 -0.627438 0.28729504 0.26050082
0.059024006 -0.11819527 0.12222653 -0.09636294 -0.4345044 -0.39260003 -0.30123085 0.44832557
-0.25564706 -0.23036994 0.554175 0.16439286 0.13024874 0.06463315 -0.6007586 -0.17498271
-0.5157907 0.1979699 -0.2097587 -0.1498057 0.16138963 0.42659542 -0.3436518 -0.20603277
0.29001442 -0.48210117 -0.8058529 0.4921583 -0.3475931 0.08257843 -0.44692808 0.20754172
-0.4842466 -0.20315987 -0.38710752 0.4231809 0.0051718336 -0.040166337 -0.81426466 0.037447713
-0.4442429 -0.23058482 0.325121 0.76199776 0.119936205 0.13901848 -0.61825913 -0.2738056
0.34408447 0.20653619 -0.06696082 0.1407188 -0.13150671 -0.32986045 0.7778127 -0.10912751
0.15239036 -0.8301015 -0.51809233 -0.14220338 0.021679822 0.48811266 -0.44260767 -0.68220943
-0.01539916 -0.50653964 -0.009588698 0.16239949 -0.5555714 -0.13332291 0.21424079 -0.44525176
-0.12526257 -0.13983399 0.08815569 -0.3727885 -0.9101217 -0.1807628 0.2974712 -0.19726256
-0.012440389 -0.3340171 -0.4316407 -0.13704576 0.005176181 -0.42218462 0.015500227 -0.25490886
0.10808181 -0.23886679 0.22753392 0.035417322 -0.13997754 0.12164083 0.4275519 -0.058436774
00000000: 1da5 85bd 1ee3 d6be 1fc7 913e f3c4 e8be
00000010: c182 d2be 6f5b 67bd 0fae 9a3e c33c e2be
00000020: c6bc 0d3d 906b 0d3e 03ee a7be 6a3e 3c3f
00000030: 10c3 c13d fc40 64bf d6f3 903e ee81 f43e
00000040: f580 cd3b e232 d2be 9717 ae3e c324 b8be
00000050: c53f 073f ee3f 453f 8c83 9c3d 6947 70be
00000060: 7495 86be 7195 05bf 2547 a5be 4029 b53d
00000070: fbc9 85be c79f 20bf 5618 933e 5d60 853e
00000080: 28c3 713d 5d10 f2bd e751 fa3d ef59 c5bd
00000090: 5c77 debe df02 c9be ee3a 9abe ee8a e53e
000000a0: 2ce4 82be 19e6 6bbe 6ade 0d3f 9a56 283e
000000b0: ed5f 053e 635e 843d 51cb 19bf ab2e 33be
000000c0: dc0a 04bf 9fb8 4a3e fcca 56be aa66 19be
000000d0: 5343 253e b76a da3e 21f3 afbe 41fa 52be
000000e0: c57c 943e f7d5 f6be 604c 4ebf 2cfc fb3e
000000f0: b9f7 b1be e11e a93d c2d3 e4be d185 543e
00000100: 2cef f7be 2409 50be f532 c6be 2bab d83e
00000110: 7c78 a93b 7585 24bd a673 50bf c662 193d
00000120: ce73 e3be 6d1e 6cbe 4276 a63e 4912 433f
00000130: 1da1 f53d dc5a 0e3e 3b46 1ebf 3f30 8cbe
00000140: d72b b03e 397e 533e c122 89bd 9718 103e
00000150: b2a9 06be 78e3 a8be bc1e 473f 3e7e dfbd
00000160: 380c 1c3e 8881 54bf b3a1 04bf c39d 11be
00000170: e299 b13c e7e9 f93e 799d e2be 47a5 2ebf
00000180: c24c 7cbc 95ac 01bf ea19 1dbc 0d4c 263e
00000190: ed39 0ebf cd85 08be f061 5b3e 0af8 e3be
000001a0: d544 00be a430 0fbe f88a b43d 22de bebe
000001b0: bcfd 68bf e219 39be 254e 983e 32ff 49be
000001c0: c6d2 4bbc 4a04 abbe 0300 ddbe b955 0cbe
000001d0: f49c a93b 9528 d8be aaf4 7d3c 6a83 82be
000001e0: ff59 dd3d 7f99 74be a7fe 683e c111 113d
000001f0: 4656 0fbe d41e f93d 15e8 da3e 665b 6fbd

fc_hidden.norms.0.running_var f4 [128]
0.07547011 0.23782751 0.018985491 0.20559785 0.051182084 0.064899035 0.10270364 0.047582965
0.056494206 0.041831017 0.14270204 0.09241228 0.024599018 0.037166674 0.10255033 0.12237215
0.24106698 0.034364738 0.27050626 0.06126121 0.047693238 0.14731985 0.062344823 0.050913893
0.06322295 0.043785013 0.12190915 0.02907139 0.03240816 0.2029 0.03948593 0.029671913
0.11223661 0.1396738 0.033206835 0.033096567 0.048187263 0.010582207 0.05652385 0.084912896
0.05590571 0.032754097 0.1247281 0.30814713 0.20119435 0.05907414 0.096330486 0.057351902
0.039339602 0.10165703 0.0706679 0.031105034 0.10149514 0.029382054 0.031332564 0.053746667
0.012893558 0.04626483 0.046303377 0.069664605 0.014080349 0.1297861 0.07957283 0.105595745
0.1485505 0.12520176 0.045545142 0.16996616 0.05188288 0.03032942 0.08451418 0.07007678
0.052776705 0.06750026 0.08863625 0.18267705 0.12851991 0.036377635 0.06127552 0.034068026
0.031169018 0.04408702 0.034452327 0.10744343 0.03107106 0.028880218 0.054531477 0.071493275
0.10132176 0.045465596 0.2301864 0.07140353 0.043334767 0.054855384 0.1914108 0.027489979
0.018933326 0.09690276 0.043844372 0.30920637 0.049886268 0.018036792 0.0390326 0.047938216
0.02576824 0.009842668 0.12739721 0.03120038 0.37916157 0.014946261 0.15331917 0.024863679
0.018868608 0.04521696 0.051917877 0.06424536 0.0570533 0.030916773 0.17593196 0.13887988
0.058916967 0.026119761 0.07525769 0.06938543 0.11896305 0.061889388 0.13151704 0.012172061
00000000: 1390 9a3d 0e89 733e 7687 9b3c 3e88 523e
00000010: 4ea4 513d c9e9 843d 4956 d23d 5be6 423d
00000020: 7866 673d 0057 2b3d 7c20 123e a642 bd3d
00000030: e183 c93c 153c 183d e805 d23d 409e fa3d
00000040: 43da 763e 0ac2 0c3d cc7f 8a3e 09ed 7a3d
00000050: fc59 433d 04db 163e 495d 7f3d 168b 503d
00000060: 097b 813d ea57 333d 81ab f93d 2027 ee3c
00000070: 6bbe 043d 05c5 4f3e 00bc 213d 8312 f33c
00000080: 4fdc e53d a606 0f3e e403 083d 4490 073d
00000090: 0260 453d fe60 2d3c 8d85 673d d0e6 ad3d
000000a0: 63fd 643d 2929 063d 7271 ff3d 76c5 9d3e
000000b0: e405 4e3e baf7 713d eb48 c53d d4e9 6a3d
000000c0: 9022 213d 9031 d03d 55ba 903d fccf fe3c
000000d0: afdc cf3d a2b2 f03c 9356 003d 7725 5c3d
000000e0: 803f 533c 3180 3d3d 9ca8 3d3d 51ac 8e3d
000000f0: 44b1 663c a6e6 043e 14f7 a23d 9542 d83d
00000100: 9f1d 183e e434 003e 8b8d 3a3d 9c0b 2e3e
00000110: 2583 543d 6775 f83c c515 ad3d 6a84 8f3d
00000120: 632c 583d 943d 8a3d ec86 b53d b10f 3b3e
00000130: b99a 033e b700 153d 0afc 7a3d ea8a 0b3d
00000140: 2b56 ff3c 9794 343d e21d 0d3d 4d0b dc3d
00000150: bc88 fe3c 3596 ec3c 665c 5f3d 116b 923d
00000160: c881 cf3d 223a 3a3d fcb5 6b3e 043c 923d
00000170: cc7f 313d 0ab0 603d 3101 443e aa32 e13c
00000180: 101a 9b3c f474 c63d 2896 333d 4c50 9e3e
00000190: 8b55 4c3d e5c1 933c a6e0 1f3d dd5a 443d
000001a0: eb17 d33c 2443 213c 6a74 023e f097 ff3c
000001b0: 7721 c23e 2ae1 743c b3ff 1c3e eaae cb3c
000001c0: 5792 9a3c 6b35 393d d7a7 543d 1293 833d
000001d0: b9b0 693d 2c45 fd3c 8227 343e 8736 0e3e
000001e0: eb52 713d 1cf9 d53c b420 9a3d f319 8e3d
000001f0: e6a2 f33d ba7f 7d3d 67ac 063e 536d 473c

fc_hidden.norms.1.weight f4 [64]
1.1287274 1.1161193 1.0493501 1.1800821 1.0516573 1.0941194 1.1383464 1.0772427
1.1359651 1.0762945 1.060794 1.0470471 1.1072658 1.0825865 1.051736 1.0422446
1.0014522 1.0470942 1.2195121 1.2117443 1.1453149 1.0815305 1.1131411 1.023194
1.1453876 1.0834582 1.0453902 1.0810847 1.0412706 1.1017115 1.1011407 1.0651662
1.1412684 1.0626887 1.0481408 1.0284407 1.0764567 1.0636648 0.989336 1.0713125
1.1195368 1.0279137 1.0613637 1.1209968 1.2083201 1.0570976 1.0220646 1.1263689
1.0404687 1.044078 1.0622325 1.0719851 1.058565 1.041226 1.0183744 1.121465
1.0811778 1.0654424 1.146055 1.0411762 1.0188619 1.020091 1.1468015 1.1473519
00000000: 247a 903f ffdc 8e3f 1b51 863f ee0c 973f
00000010: b59c 863f 1b0c 8c3f 56b5 913f 17e3 893f
00000020: 4e67 913f 05c4 893f 19c8 873f a405 863f
00000030: e3ba 8d3f 3292 8a3f 499f 863f 4568 853f
00000040: 962f 803f 2f07 863f f918 9c3f 701a 9b3f
00000050: ae99 923f 976f 8a3f 687b 8e3f 05f8 823f
00000060: 109c 923f c2ae 8a3f 59cf 853f fc60 8a3f
00000070: 5b48 853f e204 8d3f 2ef2 8c3f 5e57 883f
00000080: 1515 923f 2f06 883f 7a29 863f f2a3 833f
00000090: 55c9 893f 2b26 883f 2045 7d3f c520 893f
000000a0: fb4c 8f3f ad92 833f c4da 873f d37c 8f3f
000000b0: 3caa 9a3f f94e 873f 03d3 823f db2c 903f
000000c0: 142e 853f 59a4 853f 3cf7 873f cf36 893f
000000d0: 0f7f 873f e546 853f 185a 823f 2a8c 8f3f
000000e0: 0964 8a3f 6b60 883f eeb1 923f 4345 853f
000000f0: 116a 823f 5892 823f 64ca 923f 6ddc 923f

fc_hidden.norms.1.bias f4 [64]
0.1361577 0.05456128 0.033434708 0.06848771 0.040338065 0.08540169 0.03133554 0.058368612
0.12621869 -0.03325147 0.10277609 0.03200914 0.0072069196 0.07264383 -0.036057875 -0.01674589
0.0046057017 0.044400282 0.13624331 0.10269578 0.06390271 -0.03575748 0.043129187 -0.014162097
0.12209745 0.10594049 -0.01946284 0.04924565 0.009275941 0.09058821 0.07059485 0.022938255
0.068352565 0.08756536 0.007738036 0.044495028 0.06094932 0.018051935 -0.009295507 0.0050289733
0.07990108 0.0750389 -0.030617574 0.15324642 0.098405086 0.047181707 0.056278914 0.017990336
0.009640198 0.018434564 0.03584232 -0.013017626 0.04970841 0.043124337 0.054987174 0.11237214
0.022616278 0.010808044 0.058537684 0.010774015 0.0049316552 -0.026409173 0.13647605 0.08042944
00000000: ed6c 0b3e a67b 5f3d d5f2 083d 4943 8c3d
00000010: 8739 253d 15e7 ae3d b259 003d ed13 6f3d
00000020: 793f 013e b232 08bd 457c d23d 041c 033d
00000030: 0628 ec3b 4ac6 943d 6cb1 13bd ad2e 89bc
00000040: 6deb 963b 12dd 353d 5e83 0b3e 2a52 d23d
00000050: 6ddf 823d 6f76 12bd 3ba8 303d 2408 68bc
00000060: 3a0e fa3d 54f7 d83d 8970 9fbc cfb5 493d
00000070: 1efa 173c 5086 b93d 0894 903d 02e9 bb3c
00000080: 6efc 8b3d 7855 b33d 5a8f fd3b 6b40 363d
00000090: ffa5 793d a7e1 933c 2f4c 18bc 16ca a43b
000000a0: 2da3 a33d ffad 993d b5d1 fabc a1ec 1c3e
000000b0: 9b88 c93d 9b41 413d b884 663d 7860 933c
000000c0: ecf1 1d3c 1504 973c 66cf 123d e147 55bc
000000d0: 0c9b 4b3d 25a3 303d 3b3a 613d 5d23 e63d
000000e0: c645 b93c 3914 313c 36c5 6f3d 7f85 303c
000000f0: b999 a13b 0d58 d8bc 61c0 0b3e 31b8 a43d

fc_hidden.norms.1.running_mean f4 [64]
-0.4557166 -0.18398055 -0.37773383 -0.2648399 -0.5454119 -0.38641658 0.15064155 -0.6531571
0.16922946 -0.18741237 -0.35542187 0.004122113 -0.4844266 0.13564958 0.044936653 0.43692443
-0.2915689 -0.4034927 -0.48843887 0.23248982 0.032163367 -0.24072792 0.5184844 0.59333545
-0.7927738 0.1457447 0.53564173 0.34585562 -0.22296195 0.47864798 -0.15466277 0.25563258
0.10089416 -0.17849576 0.09823436 -0.332877 -0.6306598 -0.124071985 -0.27388492 -0.3164117
0.40773556 -0.6728664 -0.12669715 -0.54073083 -0.53474504 0.31496868 0.035013888 -0.35601047
-0.3079667 -0.1385572 -0.77013654 0.49514842 -0.46614838 -0.6207799 0.21382786 -0.19379336
0.47915602 0.025936844 -0.33691972 -0.17073984 0.26376876 0.13636278 -0.3977963 -0.28826085
00000000: b053 e9be 6665 3cbe 5466 c1be 1899 87be
00000010: 1da0 0bbf 65d8 c5be c741 1a3e 4e35 27bf
00000020: 7d4a 2d3e 07e9 3fbe dbf9 b5be ca12 873b
00000030: c306 f8be b9e7 0a3e 7f0f 383d 8fb4 df3e
00000040: 8548 95be 9896 cebe a914 fabe d011 6e3e
00000050: bcbd 033d 6181 76be 65bb 043f d5e4 173f
00000060: 39f3 4abf 193e 153e d11f 093f fd13 b13e
00000070: 2350 64be 5911 f53e eb5f 1ebe 46e2 823e
00000080: 99a1 ce3d 98c7 36be 192f c93d db6e aabe
00000090: ec72 21bf 7419 febd a53a 8cbe b700 a2be
000000a0: b7c2 d03e f940 2cbf e6bc 01be 566d 0abf
000000b0: 0de5 08bf 9343 a13e b96a 0f3d 0147 b6be
000000c0: d0ad 9dbe f0e1 0dbe ab27 45bf 1884 fd3e
000000d0: 00ab eebe 6eeb 1ebf b1f5 5a3e c471 46be
000000e0: f053 f53e 8179 d43c be80 acbe 6dd6 2ebe
000000f0: b30c 873e afa2 0b3e f5ab cbbe ed96 93be

fc_hidden.norms.1.running_var f4 [64]
0.3472111 0.26524228 0.29445982 0.34056598 0.20353599 0.5353368 0.1956227 0.32494888
0.30667153 0.31489024 0.50653124 0.33127138 0.37971863 0.26754737 0.38909218 0.3113568
0.29102075 0.3006099 0.375626 0.23453785 0.15198627 0.3004658 0.19565262 0.2795558
0.18020444 0.21683507 0.2643182 0.4739187 0.35046875 0.7344148 0.33041194 0.30618206
0.13919652 0.370339 0.6682056 0.32728553 0.4247476 0.14474542 0.25393912 0.3925944
0.4568805 0.40881023 0.4270763 0.73969734 0.45154405 0.19288267 0.34438017 0.5036318
0.26148462 0.3093218 0.47729662 0.26001146 0.3458207 0.20304395 0.5679179 0.28926188
0.32381535 0.36110187 0.23978141 0.5925281 0.25691658 0.45742664 0.43887365 0.29167727
00000000: a7c5 b13e d6cd 873e 70c3 963e aa5e ae3e
00000010: bd6b 503e d50b 093f 5151 483e b35f a63e
00000020: 0d04 9d3e 4b39 a13e 08ac 013f 679c a93e
00000030: 7b6a c23e f8fb 883e 1737 c73e 296a 9f3e
00000040: ac00 953e 8ae9 993e 0d52 c03e b12a 703e
00000050: 4aa2 1b3e a7d6 993e 2959 483e f021 8f3e
00000060: 8387 383e 030a 5e3e b754 873e 79a5 f23e
00000070: a470 b33e 9c02 3c3f c12b a93e e5c3 9c3e
00000080: 8889 0e3e 139d bd3e 860f 2b3f f891 a73e
00000090: 8478 d93e 2538 143e 4f04 823e 2202 c93e
000000a0: 3eec e93e 934f d13e bfa9 da3e ce5c 3d3f
000000b0: c830 e73e 0983 453e 9952 b03e 03ee 003f
000000c0: 50e1 853e 6d5f 9e3e 3960 f43e 3920 853e
000000d0: 690f b13e c1ea 4f3e 1163 113f 221a 943e
000000e0: 20cb a53e 58e2 b83e 4289 753e ecaf 173f
000000f0: 928a 833e d333 ea3e 0cb4 e03e b956 953e

fc_out.weight f4 [10, 64]
0.010279752 0.12631989 -0.12821336 -0.22857217 -0.098637015 -0.033182595 0.1350502 -0.20253184
0.10311539 -0.10448155 -0.19427794 -0.08585724 -0.052323185 0.17646244 -0.016319718 0.20262396
-0.050599426 -0.022860134 -0.16388081 0.11826205 0.12791246 -0.038771305 0.091293156 0.023034744
-0.098525904 0.048321366 0.104382716 0.17280169 0.098873496 0.10449367 -0.05853176 0.20778981
0.17585626 0.02524634 -0.124835886 -0.0865596 -0.11411723 -0.17976557 -0.0053204196 0.0038318257
0.1793472 -0.11666769 -0.12551847 -0.034370493 -0.23378493 0.047858126 0.030424027 -0.2334472
-0.18473074 -0.08096404 -0.040507022 0.13864152 -0.13126218 -0.029215593 0.029389488 -0.07797749
0.21962939 0.12401815 -0.22914913 -0.1519537 0.0661002 -0.063226074 -0.18450089 -0.07633677
-0.20129414 0.06903206 0.15272671 -0.099040434 -0.029167222 -0.22603188 0.09168505 -0.010753411
-0.17365503 0.11797067 -0.083067745 -0.085703306 0.17513855 -0.16641119 0.18568322 0.07035495
0.055349626 0.09248639 -0.03500036 -0.228408 -0.21710494 0.14252046 -0.06622088 0.16566637
-0.032572217 -0.16015357 -0.06908222 0.17718501 -0.14914326 -0.24665248 -0.33700612 0.038699664
-0.20124535 -0.14768614 0.14596641 -0.22709243 -0.17023054 0.08805137 -0.012195277 0.10188712
-0.16119666 -0.14908685 0.1398711 -0.34865203 -0.26378483 -0.16594288 -0.18673463 0.19419867
0.04056173 0.06136244 0.03862356 0.08006566 0.09966928 0.08844411 -0.27972844 -0.14854643
-0.06434022 0.08496953 -0.06579331 0.12456273 -0.08753526 0.15363021 -0.2175103 -0.13364737
0.119327724 0.012066358 0.045886472 0.08079736 0.03265003 0.042138882 0.078828074 -0.12084301
0.11371211 -0.10173106 0.10158414 -0.030032989 -0.046088375 0.05643087 -0.14926597 -0.12128747
-0.103334405 -0.16238545 0.15929317 0.0870774 -0.03691037 -0.029109297 0.113257565 0.013733151
0.12448284 -0.12719813 0.13321428 -0.005400536 0.033353075 -0.028816637 -0.11173401 0.040064614
0.019026367 0.051990174 -0.09756635 0.06790463 0.051174715 -0.09469701 -0.039719716 -0.08010939
0.15256423 0.11604399 0.0385602 0.07783593 -0.07510676 -0.106036305 0.1028431 -0.017376559
0.16363774 -0.153944 0.09181159 -0.08466116 -0.06981009 0.035485785 0.039326295 0.04202444
0.009958485 -0.15755364 -0.044950474 -0.08746252 -0.145516 0.019368457 -0.080550276 -0.1311965
0.0293196 0.046754833 -0.06882139 0.13536537 -0.019600429 -0.043936204 0.15069662 -0.045603715
0.1625717 0.029507423 0.13510934 -0.114952356 -0.054593615 0.0042076204 0.0363388 -0.1164991
0.06123851 -0.0859129 0.10363143 0.1920134 -0.076587945 0.030286463 0.098238915 -0.08749996
0.02193924 0.0555837 -0.07081606 -0.027331885 0.0026739142 -0.059434533 -0.11008161 0.016458016
-0.13548613 0.0771844 -0.022180267 -0.032576505 0.07563804 0.083241 -0.054699797 -0.17799547
0.08108454 0.015320777 0.02474019 0.15813951 0.04060886 -0.0548097 -0.04869497 -0.110046126
0.12118012 -0.1511448 0.064289555 -0.1183102 0.020911029 -0.15819073 0.064352304 -0.017076558
0.014215161 -0.14171648 0.026352488 -0.05096423 0.009206409 0.026506092 -0.10399352 -0.16414165
00000000: 686c 283c 005a 013e 5d4a 03be d30e 6abe
00000010: 3402 cabd 79ea 07bd 9a4a 0a3e 8264 4fbe
00000020: 292e d33d 6cfa d5bd ccf0 46be ecd5 afbd
00000030: d650 56bd 92b2 343e eeb0 85bc a87c 4f3e
00000040: 5841 4fbd 2d45 bbbc 5fd0 27be 6033 f23d
00000050: 7cfb 023e a9ce 1ebd e8f7 ba3d 5cb3 bc3c
00000060: f3c7 c9bd a0ec 453d 9bc6 d53d edf2 303e
00000070: 307e ca3d c700 d63d 00bf 6fbd dac6 543e
00000080: aa13 343e 6ad1 ce3c f5a9 ffbd 2946 b1bd
00000090: 4bb6 e9bd 7714 38be ea56 aebb 5e1f 7b3b
000000a0: cba6 373e 78ef eebd ea87 00be 13c8 0cbd
000000b0: 5165 6fbe e206 443d cf3b f93c c80c 6fbe
000000c0: 0e2a 3dbe 79d0 a5bd b1ea 25bd 0bf8 0d3e
000000d0: 9869 06be 8a55 efbc 39c2 f03c aab2 9fbd
000000e0: 87e6 603e 3afd fd3d 12a6 6abe c099 1bbe
000000f0: 8b5f 873d ac7c 81bd cded 3cbe 7456 9cbd
00000100: 0d20 4ebe ae60 8d3d 6464 1c3e b6d5 cabd
00000110: 19f0 eebc e774 67be 5fc5 bb3d 132f 30bc
00000120: a0d2 31be 9b9a f13d 6c1f aabd 3785 afbd
00000130: 8557 333e b267 2abe be23 3e3e 4216 903d
00000140: 4ab6 623d 8169 bd3d 8a5c 0fbd c9e3 69be
00000150: c250 5ebe e2f0 113e d09e 87bd 72a4 293e
00000160: 726a 05bd 4cff 23be fb7a 8dbd fd6f 353e
00000170: 03b9 18be 7892 7cbe 118c acbe 8a83 1e3d
00000180: 4313 4ebe 093b 17be 3878 153e eb8a 68be
00000190: ea50 2ebe 4754 b43d b3ce 47bc 32aa d03d
000001a0: bd10 25be 39aa 18be 5f3a 0f3e 8582 b2be
000001b0: ce0e 87be eeec 29be 5d37 3fbe 04dc 463e
000001c0: 0e24 263d 2f57 7b3d bd33 1e3d 77f9 a33d
000001d0: 681f cc3d 2f22 b53d 9138 8fbe 8e1c 18be
000001e0: cec4 83bd 8104 ae3d a5be 86bd bf1a ff3d
000001f0: b045 b3bd 3d51 1d3e 05bb 5ebe dbda 08be
00000200: 1862 f43d f9b1 453c 74f3 3b3d 1679 a53d
00000210: 0abc 053d d299 2c3d 9d70 a13d 8a7c f7bd
00000220: e5e1 e83d 6058 d0bd 580b d03d be07 f6bc
00000230: 2ac7 3cbd 0e24 673d 2ed9 18be 9165 f8bd
00000240: fda0 d3bd 5f48 26be c01d 233e a355 b23d
00000250: 542f 17bd 9f76 eebc 95f3 e73d 0301 613c
00000260: dcf0 fe3d 3a40 02be 5369 083e fbf6 b0bb
00000270: 3c9d 083d de10 ecbc cdd4 e4bd cb1a 243d
00000280: 2fdd 9b3c a6f3 543d ded0 c7bd 9511 8b3d
00000290: 949c 513d 82f0 c1bd 24b1 22bd 6410 a4bd
000002a0: cc39 1c3e 79a8 ed3d 4df1 1d3d 7268 9f3d
000002b0: 93d1 99bd 9029 d9bd 679f d23d 4959 8ebc
000002c0: a790 273e 7fa3 1dbe b707 bc3d d562 adbd
000002d0: 98f8 8ebd 8b59 113d 9c14 213d d221 2c3d
000002e0: ea28 233c be55 21be fd1d 38bd 8d1f b3bd
000002f0: 2502 15be 99aa 9e3c 8bf7 a4bd 6058 06be
00000300: a82f f03c ff81 3f3d 3bf2 8cbd 389d 0a3e
00000310: 1491 a0bc 73f6 33bd 3750 1a3e f6ca 3abd
00000320: 3279 263e 8db9 f13c 1a5a 0a3e 246c ebbd
00000330: 8e9d 5fbd 14e0 893b fed7 143d 1597 eebd
00000340: 3bd5 7a3d 1af3 afbd b73c d43d 299f 443e
00000350: 24da 9cbd 511b f83c 7c31 c93d 2e33 b3bd
00000360: ecb9 b33c bcab 633d 0308 91bd 1ee7 dfbc
00000370: d63c 2f3b a071 73bd 7872 e1bd f6d2 863c
00000380: e0bc 0abe db12 9e3d 64b3 b5bc f16e 05bd
00000390: 1ee8 9a3d 427a aa3d e50c 60bd 7244 36be
000003a0: a70f a63d ff03 7b3c f0ab ca3c 53ef 213e
000003b0: 7a55 263d 2380 60bd 6074 47bd dd5f e1bd
000003c0: 482d f83d b4c5 1abe 3eaa 833d 9e4c f2bd
000003d0: 9b4d ab3c c0fc 21be 24cb 833d 23e4 8bbc
000003e0: b5e6 683c 201e 11be 2ce1 d73c debf 50bd
000003f0: 7ad6 163c 4e23 d93c 8efa d4bd c014 28be

fc_out.bias f4 [10]
-0.046278264 -0.064587526 -0.017949082 -0.08542052 -0.018961795 -0.05407552 0.05326089 0.0326633
0.042369682 0.07374333
00000000: 478e 3dbd 7746 84bd f409 93bc f4f0 aebd
00000010: c455 9bbc 4b7e 5dbd 1728 5a3d f4c9 053d
00000020: d58b 2d3d be06 973d
