saved_models/GCN2_clus-false_BN_RELU.pt (torch, 223195 bytes, 40 tensors)

fc_in.weight f4 [64, 1]
000000 d3 09 02 3f 5a 5d 13 bf f0 67 99 bf c1 a3 01 bd
       0.5079624 -0.5756432 -1.1984844 -0.03165031
000010 00 81 c5 3d 6a b9 5e bf e2 02 51 bf ab bf be bd
       0.096437454 -0.8700167 -0.81645024 -0.093139015
000020 7c 9b 31 3f 94 dd 7a bf 23 00 3f 3d fa 3b 7a bf
       0.69377875 -0.9799435 0.04663099 -0.97747767
000030 26 25 ab 3e 21 6e 28 be 1b 04 9e bd 2c 32 d0 bf
       0.3342678 -0.16448261 -0.07715627 -1.6265311
000040 c8 02 ee be d4 82 0c 3e 8e 3e 8d be e7 d0 53 3e
       -0.46486497 0.13721782 -0.27586788 0.20685159
000050 df ba 0e 3f 2d 5c 97 be 3f 2f 01 3f a5 9f 56 bf
       0.5575389 -0.29562512 0.50462717 -0.8383735
000060 28 88 41 3f ab dd a7 3f 61 ff da be a7 a2 de bd
       0.7559838 1.3114523 -0.42772964 -0.10870867
000070 2c e3 02 3d f0 4a 5b 3f cd 2f 0a 3f df db 29 3f
       0.03195493 0.8566122 0.5397919 0.6635112
000080 0c 22 b2 3f e2 dc da 3d 86 e2 a6 3e eb 60 ef bc
       1.391664 0.10686661 0.325947 -0.029221019
000090 84 07 6a 3c 7e c6 ef 3a 79 94 92 3d e1 a4 b1 bf
       0.014284018 0.0018293408 0.07157225 -1.3878442
0000a0 a9 f4 3b 3e 74 ac ad 3d 82 15 83 bd 3a f3 0a 3e
       0.18355049 0.084801584 -0.06400587 0.13569346
0000b0 83 d0 32 3f 25 5e 86 bf 98 51 94 bf d4 83 56 bf
       0.69849414 -1.0497481 -1.15874 -0.83794904
0000c0 ae 08 fb 39 f0 ab eb be 84 df 0d bf 53 89 07 bf
       0.00047880918 -0.46029615 -0.5541918 -0.52943915
0000d0 a9 ed ff 3c d1 75 16 bf 33 bf b3 bf 00 73 e8 be
       0.031241255 -0.58773524 -1.4042724 -0.45400238
0000e0 94 fe 01 bf 16 d3 e1 be d8 9b 0d bf 3c c0 88 bf
       -0.5077908 -0.44106358 -0.55315924 -1.0683665
0000f0 67 a8 11 bf f5 82 ab 3e e4 c3 93 bf b9 1f 09 bf
       -0.56897587 0.3349835 -1.1544156 -0.5356403

fc_in.bias f4 [64]
000000 04 c4 51 bf 49 c5 fa be 4a ba 30 bf b9 18 17 3f
       -0.8193972 -0.48978642 -0.69034255 0.590221
000010 87 d6 07 3f f2 2c 9d 3e 19 1d 45 3f db 77 32 3d
       0.5306172 0.30698353 0.76997524 0.043571334
000020 b5 b9 0b 3e 5b b0 a7 bc d8 50 03 3f 8d ba 66 3e
       0.1364506 -0.020469835 0.5129523 0.22532101
000030 28 ea 39 3f 6e 45 ba 3e d4 a4 7b bf 38 30 a0 be
       0.7262292 0.36381096 -0.9829838 -0.31286788
000040 6f 2e 45 bf d6 69 60 3f 86 51 22 bf d3 05 17 3f
       -0.7702398 0.8766149 -0.63405645 0.5899326
000050 65 41 96 be 93 86 e5 3d 58 98 80 3e 37 25 06 3f
       -0.29346767 0.112073086 0.2511623 0.52400535
000060 a5 4e d5 3e b0 2c a7 bd b5 6b c6 3d 1f 91 67 3e
       0.41661564 -0.0816282 0.09688512 0.22613953
000070 04 03 0b 3f 71 db ef be 4d f6 2b be a4 b6 9c 3b
       0.54301476 -0.46847108 -0.16793175 0.0047825146
000080 ec 53 d0 bd 4f 55 4d bf 65 ce 57 3d ef 2a 33 be
       -0.10172257 -0.80208296 0.052687068 -0.17496847
000090 8c f6 b4 3e cc bf 17 3f 09 38 e7 be 0b 81 16 be
       0.3534435 0.59277034 -0.4515994 -0.14697663
0000a0 17 7b cf 3e a5 d2 25 3f 8f 00 58 be 08 39 cc bc
       0.40523598 0.64774543 -0.21093963 -0.024929538
0000b0 70 a2 4f bf 2c 09 b7 3e 57 53 d3 3e aa 94 a7 3e
       -0.81107235 0.35749185 0.4127452 0.3273061
0000c0 11 5f bc 3a 8f 51 29 3f 10 e3 15 be 33 a6 06 bd
       0.0014371594 0.66140074 -0.14637399 -0.032873344
0000d0 a1 26 25 bf 07 23 f1 3e fa 23 be 3e 4c 2d 39 3e
       -0.6451207 0.47097036 0.37136823 0.18083686
0000e0 ca 7d b8 3e 34 72 03 be 06 b8 25 3f c4 b4 54 bd
       0.3603347 -0.12836534 0.6473392 -0.051930204
0000f0 29 8c 3a 3e 07 cd 36 3f 51 04 0b 3e 90 70 17 bf
       0.1821753 0.71406597 0.13575865 -0.5915613

fc_hidden.lin_in.weight f4 [128, 64]
000000 ba 8c 7a bd 7d 55 93 3d 10 87 83 3e c8 59 da 3d
       -0.061169364 0.0719404 0.25688982 0.10661656
000010 0e c9 3c bd 7d 79 de bd f0 e3 1e 3b 82 e4 a1 3d
       -0.04609018 -0.10863016 0.0024244748 0.079049125
000020 64 08 21 3d 0c 2c a6 bd 38 63 b1 be 55 d1 d4 3d
       0.039314643 -0.0811387 -0.3464601 0.103914894
000030 ab b3 44 3e b9 be 6d be bd 05 b7 bd cc 7b 2d be
       0.19209163 -0.23217286 -0.08936641 -0.16941756
000040 37 0d ad bd cd 8e 1c 3e 18 80 b5 be 54 24 fa 3d
       -0.08449786 0.15288849 -0.3544929 0.1221396
000050 48 46 85 3e 6b b6 5f bd 1c c0 9d 3d 3a 52 49 be
       0.26030183 -0.054617327 0.077026576 -0.19660273
000060 26 56 c5 3c 2e c1 a6 be 94 75 d2 3e aa c3 51 3e
       0.02408893 -0.3256926 0.4110533 0.20484796
000070 10 6a 63 3e 2b e2 58 3d 11 5c f2 3c b7 61 54 be
       0.22208428 0.052950066 0.029584916 -0.207404
000080 6c 1f 25 be 09 0b a1 3d fd c1 ab bc 53 30 6b 3d
       -0.16125268 0.07863433 -0.020966524 0.057419132
000090 08 07 03 bf e3 65 50 be e3 c6 04 be 1c c8 54 bd
       -0.51182604 -0.20351367 -0.12966494 -0.05194865
0000a0 95 ea c0 3e a6 7a 05 3d 76 80 8b 3e a7 0e e6 3e
       0.37678972 0.03258767 0.27246445 0.44933054
0000b0 d7 45 2d bd 26 df 10 3e 8c 7a f0 bd af ef bf bd
       -0.042302933 0.14147624 -0.11742124 -0.09371888
0000c0 1c 94 b5 3d 20 c6 6b 3e 11 b6 04 be 13 e6 e5 3c
       0.0886614 0.23024797 -0.12960078 0.02806381
0000d0 cd 22 27 bd 82 fc f0 be 84 7d 67 be 8f 6b 88 3d
       -0.040804673 -0.47067648 -0.22606474 0.0666114
0000e0 8b ff 40 be 64 da 35 3e 26 29 16 be a5 27 9f bd
       -0.18847482 0.1775909 -0.14664134 -0.077712335
0000f0 87 2b 9f be c2 51 0a 3d f9 49 74 be 97 2d 0f 3e
       -0.31087896 0.033769377 -0.23856343 0.13982235
000100 48 49 a6 3d 57 ff 97 bd 35 d6 20 3d d2 1e 3e be
       0.08119446 -0.07421749 0.039266784 -0.18566445
000110 e2 bc 5f be 17 b7 28 3c 30 0b da 3e a9 9f 23 3e
       -0.21849397 0.010297558 0.4258666 0.15978874
000120 e8 3a 40 be c5 63 d4 3e 50 fb a0 bd 4c 39 f9 bd
       -0.18772471 0.41482368 -0.07860434 -0.12169132
000130 ec 47 54 be c6 2c 3d 3e 95 ea 64 bd 28 e9 68 3c
       -0.20730561 0.18474111 -0.055887777 0.014215745
000140 03 20 1a 3d 08 2d 25 bd ab 28 85 bc 75 13 bf 3d
       0.037628185 -0.04032615 -0.016254744 0.09329883
000150 07 97 02 3e f4 6b ea 3d 6b 61 06 bd 72 aa 02 be
       0.12752925 0.11446372 -0.03280775 -0.12760332
000160 85 97 d0 3d a6 23 5f be 37 dc 7a bd 5d bd 25 3d
       0.1018515 -0.21790943 -0.06124517 0.040463794
000170 8b d3 cd 3d 49 0b 68 bd 87 5f 04 3e 77 35 06 be
       0.10050114 -0.056651387 0.12927066 -0.13106333
000180 11 7b 95 3d 76 ca e4 be 50 a7 08 bf b6 8a 47 3e
       0.07298864 -0.44685715 -0.533803 0.19486508
000190 71 8a 8b 3e 76 8b 76 be 12 67 9e be 7a 37 4e be
       0.2725406 -0.24076638 -0.3093801 -0.2013835
0001a0 0f ff 23 3b 76 89 f6 3d a0 a6 1b 3e b0 de 60 bd
       0.0025023853 0.12037937 0.15200281 -0.05489987
0001b0 d8 24 fa be c4 d7 e0 3e be f5 21 3e ee 10 8d bd
       -0.48856235 0.43914616 0.158164 -0.06887995
0001c0 d3 92 71 3e e8 db 72 3d 04 ba e6 be f8 c2 5b bc
       0.23591165 0.05929175 -0.45063794 -0.013413183
0001d0 f5 b7 01 3e bb 37 52 bd 1f 45 c5 bd cc cc 8a bd
       0.1266783 -0.05132268 -0.096323244 -0.06777343
0001e0 2c 6c af 3e 5f 32 91 3c db 61 fe 3c 72 e4 cd 3e
       0.34262216 0.017724214 0.03105252 0.40213352
0001f0 b0 a7 7c be bb 4d 15 bf d5 1e 06 3f 6f 42 5a bd
       -0.24673343 -0.5832173 0.52390796 -0.053286012
000200 65 c4 b7 3e d7 81 a9 bd 6c fc 9b be dc a7 20 3e
       0.35892025 -0.08276718 -0.3046602 0.15689033
000210 3f 52 2d 3d 05 d4 84 3d bd fd 57 3e cc db 8e bd
       0.042314764 0.06485752 0.21092887 -0.06975517
000220 9e 53 05 3e 04 47 93 3e c7 c2 e9 3e c7 9b 8a 3e
       0.13020179 0.28765118 0.45656416 0.27071974
000230 ed ca 85 bd b6 3f c6 bc 07 19 0a 3e 43 14 3e be
       -0.06532846 -0.024200302 0.1348611 -0.18562417
000240 24 e1 93 3d 06 79 75 be bb 63 c0 3e 1e c9 8b be
       0.072206765 -0.23971948 0.37576088 -0.27301878
000250 b1 b5 43 3e d0 a9 4e bc 7d 81 22 3c 89 c2 cf 3d
       0.19112279 -0.012613729 0.009918568 0.101445265
000260 a4 bd 4f 3e c8 fc f2 be 63 d1 d6 3d 94 9a 78 3c
       0.20287186 -0.47458482 0.10489156 0.015173573
000270 e1 40 57 be 3d 4f c4 bd eb 6a a2 bd d6 06 b4 bc
       -0.21020843 -0.09585426 -0.07930549 -0.021975916
000280 69 06 74 bd 73 83 b4 bd c0 f8 35 3e 21 89 a5 3d
       -0.059576426 -0.088141344 0.17770672 0.08082796
000290 0f 2f 24 be 46 2a 1b 3e 29 f6 9c 3e 14 41 55 bd
       -0.16033576 0.15152845 0.30656555 -0.052064016
0002a0 31 9b c8 3e cd fc 8e 3a a0 0d fc bd 53 83 45 be
       0.39180902 0.0010909081 -0.12307286 -0.19288377
0002b0 82 d5 0f 3f 74 7c 76 bd 48 bd 9a 3e c7 e4 66 3c
       0.5618516 -0.06017728 0.30222535 0.014092631
0002c0 19 b5 42 3e a2 4b 7d 3d 5c 2e bc 3e c6 a3 b5 3c
       0.19014396 0.061839707 0.3675412 0.02217282
0002d0 53 4d fa 3e be 68 1e 3f e4 9c a3 3d c4 b0 e0 3d
       0.4888712 0.61878574 0.07988909 0.10971215
0002e0 8c d2 6a be cc 0e 9c be 98 7b 24 be 40 02 75 3e
       -0.2293188 -0.3048004 -0.16062772 0.2392664
0002f0 ac 52 13 3e 45 9f 77 be 91 76 90 bd cf e5 ec bc
       0.14387006 -0.2418185 -0.07053865 -0.028918175
000300 7d 45 f6 3d dc c8 2d 3d 0c 70 0f 3d 30 a4 24 bd
       0.120249726 0.042427883 0.035018966 -0.040195644
000310 1a f3 ca 3b 7f c1 00 bd de cf 10 3e 6c 5e ca 3d
       0.0061935307 -0.031434532 0.14141795 0.09881291
000320 9d ae c7 3b 3d 90 94 3e 47 91 da 3d 88 3b a1 be
       0.0060938136 0.29016295 0.10672241 -0.3149073
000330 ea 59 09 be a7 4d e3 3d fb 81 d0 bd 76 a3 13 be
       -0.13413206 0.110987954 -0.10181042 -0.14417824
000340 63 81 9e be a5 85 d6 39 71 b8 30 3e 43 e5 82 3e
       -0.3095809 0.00040916834 0.17257859 0.25565538
000350 2b 53 f1 bc c8 8d 16 be 0a e2 e8 3e e0 ea 56 3e
       -0.029458603 -0.14702523 0.45484954 0.20988035
000360 f3 c9 4e 3e 09 45 b0 be 2b 39 87 bd 57 c0 55 3e
       0.20194225 -0.3442767 -0.06602701 0.20874153
000370 e5 bb c1 bd 28 af c0 bd 0d ab 22 be 05 c1 81 3d
       -0.09459666 -0.094084084 -0.15885563 0.06335644
000380 91 51 3d be 07 b9 ce bb 3a 4d 2c 3e 41 33 18 be
       -0.18488146 -0.006308678 0.16826335 -0.14863302
000390 ae c0 88 3e 3d 28 b7 3d be 2a 05 bd 98 02 0e 3e
       0.26709503 0.08943222 -0.032511465 0.13868177
0003a0 5b 82 1d bd f3 9a d2 be 9c 35 be 3d 8d 9d 95 3e
       -0.038454395 -0.41133842 0.09287569 0.29221764
0003b0 97 c0 87 be dd 26 ee bc d5 ce 65 be bb e0 10 be
       -0.26514122 -0.029071266 -0.22442181 -0.14148228
0003c0 38 2b 8b 3d 9f 96 bb be 55 2d 4f bd 72 97 b6 3e
       0.06795353 -0.36638352 -0.05058034 0.3566242
0003d0 e0 c9 88 3d fc 79 bc 3e 26 1b 04 3e 3e c6 9e 3d
       0.066791296 0.36811817 0.12900981 0.077526554
0003e0 16 5c 26 3e 17 b8 56 bf af fc 8b 3c 84 d3 41 be
       0.16246065 -0.8387465 0.017088262 -0.18928343
0003f0 7b 0f 26 be 0f d3 26 bd f0 2a 73 3b f9 ce db bd
       -0.16216843 -0.040728625 0.003710445 -0.10732836

fc_hidden.lin_in.bias f4 [128]
000000 07 64 4f 3d 6f 40 46 3d 9c 8f 56 bc 60 25 b1 bc
       0.050632503 0.048401292 -0.013095763 -0.021624267
000010 13 85 c9 3d db 1d 1d 3e 0e 04 7e bd 9d 5a 02 bd
       0.09839835 0.1534342 -0.062015586 -0.031824697
000020 2e 96 e8 3d a5 7a 2e 3d ac 41 c0 bd 0c 24 2e 3e
       0.113567695 0.04259743 -0.09387526 0.17005938
000030 a5 b1 46 3d 97 85 65 be 2b 45 e7 bd 20 25 c4 3d
       0.04850926 -0.22414242 -0.112924896 0.095773935
000040 f7 96 87 be cd 6c 2c bd 23 3b 37 3e 29 81 78 3d
       -0.26482365 -0.042095948 0.17893653 0.06067005
000050 5d 47 03 be 39 9a b7 bd 7a 4b 9c 3d 3f 2a a2 3c
       -0.12820192 -0.089649625 0.076315835 0.019795535
000060 34 8e ab 3b 98 60 d2 3d cb 3c c3 3d 23 b3 66 bd
       0.005235458 0.1027233 0.0953308 -0.05632318
000070 18 73 c9 3c 52 45 fd 3d 2f 32 ea bd 85 01 e8 bd
       0.024591014 0.123667374 -0.11435353 -0.11328415
000080 53 85 a9 3d f3 3e 3e be 69 fc 91 3d 01 40 0c bc
       0.08277383 -0.185787 0.071282215 -0.008560182
000090 af 2a fc bd 2b 03 56 3d 3f 0d 83 bd 60 7b 9d 3d
       -0.12312829 0.052249115 -0.06399011 0.076895475
0000a0 1c 9c d5 3d a2 aa 27 be 77 bf 9e 3d 9f dc b2 bd
       0.10430166 -0.16373685 0.07751363 -0.087334864
0000b0 28 c0 2d bd 37 31 05 bd 96 db bc 3c 01 f3 2a 3c
       -0.042419583 -0.032517638 0.023053925 0.010433913
0000c0 a1 95 b1 bd 1c b5 10 bd ec 3f 5e 3d 46 18 dc 3d
       -0.086711176 -0.03532897 0.05426018 0.10746817
0000d0 53 f8 97 bd d8 a0 cf bd ef d5 72 3d ce 8a 77 3d
       -0.07420411 -0.101381004 0.059286054 0.06043511
0000e0 91 4e e7 bd e0 67 fb bd d5 58 14 bd 88 78 22 be
       -0.11294282 -0.12275672 -0.03621753 -0.15866292
0000f0 d0 5c 5f 3d 58 33 81 be 2a 8d f7 3c ad 78 96 bd
       0.054531872 -0.25234485 0.03021868 -0.07347236
000100 0f ce 3c bc 85 4f 53 bb 11 ac b0 3d 32 db 1a be
       -0.011523738 -0.0032243442 0.08626569 -0.15122679
000110 ee 99 59 bd 8b c3 89 bc be 0a 47 bb 19 aa 94 bc
       -0.053125314 -0.016816875 -0.0030371393 -0.018147515
000120 f8 51 bd 3d 26 b2 b3 be df 4e 0c 3e 45 7c 5b bd
       0.0924415 -0.35096854 0.13701962 -0.05358531
000130 2b b5 97 bd e3 36 1e be 75 a6 01 bc a0 f8 af bd
       -0.07407602 -0.15450625 -0.007913222 -0.08592343
000140 a8 1f b8 3b 81 cc ec 3c 9d 56 ac 3d 1e 77 1d bd
       0.005619008 0.028906109 0.08414958 -0.038443677
000150 61 d1 cf 3c e7 8b 36 bd cc 6b 0b 3e 68 6b c2 3d
       0.025368394 -0.044567015 0.1361534 0.09493142
000160 ff 20 01 be 4a 22 72 bc a7 36 f6 3c c7 f9 3d bd
       -0.12610243 -0.014778683 0.030055357 -0.046380784
000170 08 0a 38 3e 0b cb 97 bd d4 8c 1b bd 82 23 d7 bd
       0.17972577 -0.07411774 -0.0379761 -0.105048195
000180 d9 13 c2 3d 9b e9 11 be 25 26 a8 3d 56 c6 ab 3d
       0.09476442 -0.1424927 0.082104005 0.08387439
000190 74 c8 46 be 83 94 f1 3a a8 77 26 bd 28 5e 2d 3e
       -0.19412404 0.0018431101 -0.040641457 0.16930449
0001a0 b0 9d 92 bd d1 4a 1f be d5 84 5d 3e 5a 80 0e 3e
       -0.07158983 -0.15555884 0.21632703 0.1391615
0001b0 ee 4c df 3d 68 5d 03 bd e8 aa d5 bd 3f 72 1a 3d
       0.10903345 -0.0320715 -0.104329884 0.03770661
0001c0 c4 ff 4c 3e 74 18 7c bd 59 35 35 3d 39 f9 32 be
       0.20019442 -0.061546758 0.04424033 -0.17477883
0001d0 a0 77 d9 bd 69 72 d1 bc d5 2c a9 3d b8 07 e2 bd
       -0.1061852 -0.02556725 0.08260504 -0.110366285
0001e0 3c b3 96 bc 63 fa 3f 3d 74 68 fa bd 8f 74 0a 3e
       -0.018396012 0.046869647 -0.12226954 0.13521026
0001f0 fc d8 83 bd 69 c7 97 bd 57 ad a7 3d a2 9d 01 be
       -0.06437871 -0.07411081 0.08187359 -0.12657788

fc_hidden.lin_out.weight f4 [64, 128]
000000 21 04 98 be ba d2 be 3d 15 ee 5d 3e 8b 0f fc 3d
       -0.2969065 0.09317537 0.21672852 0.12307652
000010 65 ea ba bd b4 d6 40 be 9b ee e5 3d 25 e8 0b bd
       -0.091267385 -0.18831903 0.11227151 -0.034156937
000020 be 3f 27 3d 3e 70 1a be 79 12 3b 3e b9 5f 8a 3e
       0.040832274 -0.1508188 0.18268766 0.27026156
000030 58 2c 25 3e c1 ca 7a be 08 7b 9a be 0a 7e 4a be
       0.16130197 -0.24491407 -0.3017199 -0.19774643
000040 01 ce fb be bd 50 b7 bd 5f 26 8a be 3a fd fc 3d
       -0.49180606 -0.089509465 -0.269824 0.12352987
000050 80 7e e8 be 17 7e 46 3e 74 6e ef 3d 0c ec d3 ba
       -0.45409012 0.19384037 0.11690989 -0.001616837
000060 a8 37 e9 3c 71 1a 83 bc 78 47 07 be 79 2c 6e bd
       0.028468922 -0.01600382 -0.13210857 -0.05814788
000070 16 c7 e6 bd 9b 22 f1 3d 43 c2 22 bf d9 fa 1c 3e
       -0.112684414 0.117741786 -0.6357767 0.15330066
000080 56 99 54 be 3d b1 4b 3d 7e 3f 8b be 32 a0 82 3e
       -0.20761618 0.049729574 -0.27196878 0.25512844
000090 b2 37 8a 3d e8 a1 3c bc 6d 68 bb 3d c5 24 39 3c
       0.06748904 -0.011513211 0.09150777 0.01130027
0000a0 bf 49 88 3e e4 fe 83 3e 37 59 3a be 9e 59 5c 3e
       0.26618764 0.25780404 -0.18198095 0.21518561
0000b0 b2 87 65 be 9a c6 02 3e 90 3d fb 3b 68 43 6b be
       -0.22415045 0.12771073 0.007667251 -0.22974932
0000c0 88 c1 e8 3d 37 94 66 be 1b a9 c2 3d 01 21 86 be
       0.11365038 -0.22517477 0.095049106 -0.26197055
0000d0 85 54 ab be c3 a1 11 bd 1f c1 0e be cf e7 9b 3e
       -0.3346292 -0.03555466 -0.13940857 0.30450293
0000e0 20 98 e1 bd e4 37 c2 3d 04 1f 2b be 3b ad 39 3e
       -0.11015344 0.094833165 -0.1671105 0.18132488
0000f0 7d 6b 9e 3d 29 75 28 3d de 54 9d 3e 82 c0 a5 3d
       0.077353455 0.041127358 0.3072881 0.080933586
000100 6e 37 56 be d2 80 50 bd 58 1e c0 bd bd d7 80 be
       -0.20919582 -0.050904103 -0.093807876 -0.25164595
000110 27 51 21 be 84 b3 3b be 75 e0 d3 bc 31 f2 8e be
       -0.15753613 -0.18330199 -0.025863865 -0.27919152
000120 6e b8 5a 3e 49 92 1e 3e 70 f7 60 3d ef f1 00 3e
       0.21359417 0.15485491 0.054923475 0.1259229
000130 80 b9 a3 be 33 ce 65 3e 8e 80 3a bd 04 8c 63 3e
       -0.31977463 0.2244194 -0.045532756 0.2222138
000140 38 16 14 3c 7a 7a 49 3d d4 aa 8c 3e 2d 55 f2 be
       0.0090385005 0.04918907 0.27474082 -0.4733061
000150 a6 a6 8c 3b 42 04 b0 3d ca 1f 04 be 66 15 11 3d
       0.004292327 0.08594562 -0.12902752 0.035420798
000160 03 e0 18 bd a8 91 81 3d 3b c5 20 be 72 e5 43 3e
       -0.03732301 0.0632661 -0.15700237 0.19130495
000170 15 e5 57 3e 9c 11 ff bc c3 9d 3c 3e f2 4c 3a be
       0.21083482 -0.031136326 0.18419556 -0.18193415
000180 e0 37 90 bc 51 f2 85 be e4 4d ae bd 7d 2e b8 be
       -0.017604768 -0.26161435 -0.0851095 -0.35972968
000190 a1 05 8f 3e 37 eb b5 3e 68 f3 83 3d 30 b1 b0 3b
       0.27933982 0.35531017 0.064429104 0.005392216
0001a0 1c f0 9f bd c8 c4 79 bd 3a 2c c9 3e 01 69 6f 3c
       -0.07809469 -0.06097868 0.39291555 0.014612437
0001b0 78 5d d2 bc 67 9e d9 3e 42 a7 7c bd 7d da 24 bd
       -0.025679335 0.42503664 -0.061682947 -0.04024743
0001c0 68 50 5f be 16 0d 74 be c2 cb b6 bd 56 61 70 bd
       -0.21808016 -0.23833117 -0.089255825 -0.058686577
0001d0 08 a3 9f 3e 24 4e c8 bd 0a 90 de bd c1 48 55 be
       0.3117907 -0.09780529 -0.10867317 -0.20828535
0001e0 64 07 50 3e 78 d1 14 bd fa 6d 40 be 70 df 92 3c
       0.2031532 -0.036332577 -0.18791953 0.017928809
0001f0 e4 7f c4 3e b8 e4 d3 bd dc 93 40 3e fb db 00 3b
       0.38378823 -0.10346359 0.18806404 0.0019662369
000200 c5 f9 ae bd 5b 73 c5 3e 8b bf 28 3e d0 e7 c9 bd
       -0.085437335 0.38564572 0.16479318 -0.09858668
000210 d2 9d 87 3d 22 54 c6 bd 04 c0 af 3d 18 1f bb be
       0.06621899 -0.09684016 0.08581546 -0.3654716
000220 fc c3 95 bd 38 fe ad bb 19 1c 5b 3c 88 48 3c bd
       -0.07312772 -0.0053098463 0.013373398 -0.04596761
000230 8c 54 65 be 97 9f 54 be 52 39 8c 3d d2 32 1c 3d
       -0.22395533 -0.20764004 0.068468705 0.038134404
000240 82 30 f6 bd 1d 06 4a bd 0a 24 a9 be 3e eb 95 bd
       -0.12020971 -0.049322236 -0.33035308 -0.073202595
000250 4f bf 88 bd 6f 90 7d 3d fe 94 d1 3d ee 92 b3 be
       -0.06677114 0.06190532 0.10233496 -0.35073036
000260 f3 70 09 bc 23 7a d7 bd 37 c5 05 bd 68 3e 36 be
       -0.008388746 -0.105213426 -0.03265878 -0.17797244
000270 ca 09 d1 bd 34 c8 1e be 8e 7f 20 bc 3c 10 1b be
       -0.10206945 -0.15506059 -0.009796036 -0.15142912
000280 8f af 72 3e e8 73 ce 3d 3e 18 0e be 04 8b 06 bd
       0.23699783 0.10080701 -0.13876435 -0.03284742
000290 63 7c 3e be 64 ab 19 be 37 af 63 be 05 d8 99 3e
       -0.18602137 -0.15006787 -0.22234808 0.30047622
0002a0 6f 9f b8 3d de 56 1f be 83 fc 41 be de 8d 44 3e
       0.090147845 -0.15560481 -0.18943982 0.19194743
0002b0 fc a6 74 3e 1f 78 2d be a3 69 85 bd ce 1a 0d 3d
       0.23891824 -0.16940354 -0.06514289 0.03444939
0002c0 eb e5 a7 3e 32 f5 7a 3e 80 fd 9b 3e b3 0d 03 be
       0.327926 0.24507597 0.30466843 -0.12798195
0002d0 e6 2c 6e 3e c5 67 24 be 8f 0a e4 bb e9 62 bb be
       0.23259315 -0.1605521 -0.0069592665 -0.365989
0002e0 0e 67 67 3d 41 a8 fc be e7 b1 da 3e 44 29 57 bd
       0.056494765 -0.49347118 0.42713854 -0.05252959
0002f0 40 7d a0 be 39 30 02 3e 20 54 7a 3e c6 2b a8 bd
       -0.31345558 0.12713708 0.24446154 -0.08211474
000300 76 43 f8 be d5 a7 e9 3e 5e d1 42 3e 15 5b b1 3c
       -0.4848897 0.45635858 0.1902518 0.021649877
000310 65 ce 89 be 70 a7 b4 3d 46 8c 94 be 93 82 13 bf
       -0.2691528 0.08820999 -0.2901327 -0.57621115
000320 11 b0 b5 3d df 81 b1 bd 70 cb 95 3e df 4e 96 3e
       0.088714726 -0.08667349 0.29256773 0.2935705
000330 cf 32 4b bc 02 30 7d 3d b4 92 bf bc 57 93 3b be
       -0.01240225 0.061813362 -0.023385383 -0.18317924
000340 3d 1d ff 3d 70 76 ef 3e 81 d8 dd bd a2 8e 55 be
       0.12456749 0.46770048 -0.108323105 -0.20855191
000350 73 8a cb bd ec d8 9f be c4 fd c1 be f6 58 32 be
       -0.099385165 -0.31220186 -0.3788892 -0.17416748
000360 6b 64 c5 3d 6e 7f d4 3e 95 2a b3 bd e2 7f 67 be
       0.09638294 0.4150347 -0.08748356 -0.22607377
000370 b3 9a fc 3d 55 16 27 3e 67 0b 8a 3d be 27 b1 bc
       0.12334194 0.16317113 0.06740456 -0.021625396
000380 02 30 6d be 59 d1 ce 3d 01 d5 07 3d 11 7b 08 3e
       -0.23162845 0.10098524 0.03316212 0.13328196
000390 10 c2 30 3e 63 ae b6 bb a6 c4 de 3c 31 e2 90 be
       0.17261529 -0.0055749877 0.027193379 -0.2829757
0003a0 d6 05 a2 bd 32 f7 00 bd d6 3a fc bd 40 b5 e9 3d
       -0.07911269 -0.031485744 -0.123159096 0.11411524
0003b0 6b 40 f9 3d ce 9f 4c bd 68 2b e1 bd 0a f1 6e bd
       0.1217049 -0.04995709 -0.10994607 -0.05833534
0003c0 af 84 93 3c fa 4b 6e 3e 29 a8 66 bd 6a bb ea bd
       0.018007604 0.2327117 -0.056312714 -0.11461528
0003d0 b8 08 ea bd 06 50 3e 3d 17 8b a0 3d 08 67 c0 bd
       -0.11427444 0.046463035 0.07839029 -0.09394652
0003e0 30 39 c3 bd f9 93 15 be d5 96 65 bc d6 d6 04 bd
       -0.09532392 -0.14607228 -0.014013012 -0.032431446
0003f0 a7 ac 3a 3e 94 5b 2f 3b a0 ac 79 3d 7e 21 76 3e
       0.18229924 0.0026757466 0.060955644 0.24036214

fc_hidden.lin_out.bias f4 [64]
000000 7e 64 e3 3d 32 8f 92 bc e3 cf 0a 3d e8 a3 50 3c
       0.11103152 -0.017890546 0.033889662 0.012734391
000010 70 4e e5 3c 20 aa fc bc c1 20 91 3d 49 e5 a9 3d
       0.027991503 -0.03084284 0.070863254 0.08295686
000020 04 54 29 bc 56 98 48 bd 48 d8 ee 3b 4b 35 90 bc
       -0.010334972 -0.048973404 0.0072889663 -0.017603537
000030 42 8c 33 3d af fa 7f bd 20 0b e2 bd 02 15 1b 3d
       0.043834932 -0.06249493 -0.11037278 0.03786183
000040 20 c1 a0 bd a2 b6 83 3d 6c df ae bd 6a d5 00 3d
       -0.07849336 0.06431319 -0.08538708 0.031453528
000050 c7 9f f2 bc b1 e9 3a 3d 87 8d 49 3d 84 86 ca bc
       -0.029617203 0.04563302 0.049207237 -0.024722345
000060 3c cb ab 3d 05 a3 48 3c 5b 2c 07 3d 06 7a 90 bc
       0.08388373 0.012245898 0.033001285 -0.01763631
000070 31 5c 77 3d a6 59 bd 3d 80 62 b1 bc 87 3b 5c bd
       0.060390655 0.09245615 -0.021653414 -0.053767707
000080 4e 08 89 bd bb 88 dd 3c d0 b7 8a 3d 4d c1 6c bd
       -0.06691037 0.027042737 0.06773341 -0.057801533
000090 2f f3 c6 bc ec e7 26 bc 1a 87 a6 3b 1f 22 66 bd
       -0.02428588 -0.01018713 0.0050820233 -0.056184884
0000a0 8d 86 34 bd 8a 9f 37 3c a3 f1 6c bd aa 68 74 3b
       -0.04407363 0.011207471 -0.05784763 0.003729383
0000b0 48 58 62 bd 97 a7 2c 3d 33 94 dd 3c 21 16 3e ba
       -0.055259973 0.042152014 0.027048206 -0.0007251222
0000c0 dd 11 31 bd a2 17 d1 3d e8 41 fa bb 20 e4 c9 3c
       -0.043229926 0.10209586 -0.007637251 0.024644911
0000d0 fa 4a 86 3d 4d 51 d3 bb 85 e5 f0 bd fa 73 58 3d
       0.065572694 -0.006448901 -0.117625274 0.05284498
0000e0 58 52 3f 3d f8 6f 79 bd 0c fb d3 3d 4d 15 e4 3b
       0.04670939 -0.060897797 0.10350618 0.006960547
0000f0 c9 5c db 3d b3 2e a4 3d 60 b2 f4 ba f6 32 7e bd
       0.10711057 0.0801672 -0.0018668883 -0.06206032

fc_hidden.norms.0.weight f4 [128]
000000 47 40 72 3f c6 1b 55 3f 20 4b 7b 3f d1 b5 8f 3f
       0.9462933 0.83245504 0.98161507 1.1227361
000010 82 5f 4d 3f 03 93 6e 3f fe a9 7e 3f 84 28 73 3f
       0.8022386 0.9319307 0.9947814 0.94983697
000020 26 cc 9f 3f e9 68 7d 3f 80 09 61 3f 3a 4e 80 3f
       1.2484176 0.98988205 0.8790512 1.0023873
000030 6c 08 81 3f 84 8c 3a 3f fd c7 68 3f 14 9e 5b 3f
       1.0080695 0.7287066 0.9093016 0.85788083
000040 aa 01 6a 3f 09 05 8b 3f 43 c9 7d 3f 5c ef 33 3f
       0.9140879 1.0860912 0.99135226 0.7028711
000050 cf 4b 73 3f 46 df 83 3f c6 0b aa 3f 8c 08 81 3f
       0.9503755 1.0302513 1.3284843 1.0080733
000060 eb b8 80 3f c2 70 6a 3f 59 c2 8b 3f e6 ff 81 3f
       1.0056432 0.91578305 1.0918685 1.0156219
000070 38 c3 8f 3f 2d 92 46 3f ae 09 8e 3f 18 1a 5c 3f
       1.1231451 0.77566797 1.1096704 0.85977316
000080 ad af 78 3f 8a 30 7e 3f b5 cb 8b 3f b1 97 83 3f
       0.9714306 0.99292815 1.0921541 1.0280668
000090 6d 1d 50 3f 8a 48 60 3f d8 cd 7a 3f de e9 82 3f
       0.812949 0.87610686 0.9797034 1.0227621
0000a0 3c 85 64 3f 7e 21 91 3f c4 32 8c 3f 7b 0a 6d 3f
       0.892658 1.1338346 1.0952992 0.92594117
0000b0 dd 10 55 3f 5f ec 83 3f f5 2c 72 3f 7b 3d 77 3f
       0.83228856 1.030651 0.9459985 0.96578187
0000c0 54 b9 78 3f c8 e6 69 3f b2 93 79 3f fe 24 87 3f
       0.9715779 0.9136777 0.9749099 1.0558164
0000d0 c9 f7 4b 3f 7e e8 94 3f 2f f1 41 3f 27 a4 71 3f
       0.79674965 1.1633451 0.7575864 0.943911
0000e0 7e 1a 69 3f f5 9e 7c 3f 80 b1 90 3f f8 4c 96 3f
       0.9105605 0.9868005 1.1304169 1.1742239
0000f0 d7 6b 79 3f 58 43 7d 3f 48 1e 62 3f f6 bd 5f 3f
       0.97430176 0.98930883 0.88327456 0.8739923
000100 8d a3 82 3f d7 ad 64 3f 84 0d 85 3f 73 9a 60 3f
       1.0206162 0.8932776 1.039475 0.8773567
000110 36 7a a9 3f 08 47 64 3f e2 4d 72 3f f8 c2 57 3f
       1.3240421 0.89170885 0.9465009 0.84281874
000120 2d b0 8a 3f da ea 64 3f 55 c1 80 3f 10 17 7a 3f
       1.0835015 0.89420855 1.0059 0.9769144
000130 9b 7c 83 3f 1a c4 6a 3f 0d 2d 59 3f 4c be 72 3f
       1.0272402 0.9170548 0.8483437 0.9482162
000140 d4 71 96 3f 8b 72 74 3f 14 ce 6d 3f 17 06 7a 3f
       1.1753488 0.9548728 0.92892575 0.9766554
000150 3c 12 94 3f ba ac a2 3f 1f 32 68 3f 85 39 6b 3f
       1.1568065 1.2708962 0.9070148 0.9188464
000160 be 1a 6d 3f b0 c2 82 3f 68 8c 80 3f f9 b2 6a 3f
       0.9261893 1.0215664 1.0042849 0.9167934
000170 40 fb 83 3f 4c 3a 69 3f a0 04 8e 3f 6c 85 8c 3f
       1.031105 0.9110458 1.1095161 1.0978217
000180 3a f8 82 3f c6 e5 83 3f ed 86 7c 3f 11 42 99 3f
       1.0232003 1.0304496 0.9864338 1.1973287
000190 93 f2 8a 3f e0 71 72 3f 94 be 80 3f f7 15 69 3f
       1.0855278 0.9470501 1.005816 0.9104914
0001a0 0a 85 7c 3f 60 f4 6c 3f 1c 2d 7c 3f 27 3b 59 3f
       0.986405 0.92560387 0.9850633 0.84855884
0001b0 63 9c 74 3f 45 39 6f 3f 05 d6 72 3f 3a a3 86 3f
       0.9555113 0.9344676 0.9485782 1.0518563
0001c0 ce 1a 71 3f 08 38 82 3f 5c 24 6f 3f c9 e5 81 3f
       0.94181526 1.0173349 0.93414855 1.014825
0001d0 b3 0d 91 3f d3 40 59 3f 79 fa 6e 3f d2 47 91 3f
       1.1332306 0.8486454 0.9335094 1.1350043
0001e0 f4 bd 80 3f d0 d7 6c 3f 7f b6 aa 3f 2d b0 81 3f
       1.0057969 0.92516804 1.3336943 1.013189
0001f0 7e 45 7c 3f b1 51 86 3f 42 4c 81 3f 96 db 83 3f
       0.98543537 1.049368 1.0101397 1.0301387

fc_hidden.norms.0.bias f4 [128]
000000 70 2b fb be 62 d1 94 be ec f7 ab be dc 62 21 3e
       -0.49056578 -0.29065996 -0.33587587 0.15760368
000010 b5 cd 5f be b4 59 87 3d e5 a9 89 3c 14 17 7f 3e
       -0.21855815 0.066089064 0.016804645 0.24911147
000020 5a 97 c0 be b1 24 99 3d 1e ad 15 bf aa 97 89 3d
       -0.37615472 0.074777015 -0.5846728 0.06718381
000030 91 ba 32 be ed dd d2 be f2 0e 3d 3e d9 ac ef bd
       -0.17453982 -0.4118494 0.18462732 -0.1170289
000040 57 a0 20 3e 35 5c b2 be ff f8 90 be c6 36 fb bd
       0.15686165 -0.34835973 -0.2831497 -0.122663066
000050 f1 1b 8d be 50 74 7a be 2f 21 8a be 38 23 6a be
       -0.2756038 -0.24458432 -0.26978442 -0.22864997
000060 47 f0 56 be 70 06 04 be fa ed 09 3e ec f8 0d be
       -0.20990096 -0.1289308 0.13469687 -0.13864487
000070 bf 80 2c be 88 c1 b7 be b9 ec da be 08 5d 97 be
       -0.16845988 -0.3588984 -0.4275873 -0.29563165
000080 ea 67 03 bf 49 31 55 be fe 22 92 bd 22 d9 04 be
       -0.51330435 -0.20819582 -0.071355805 -0.12973455
000090 85 7b 4a 3d fe e0 0b bd 4d 6b 80 be 1b e1 66 be
       0.049434204 -0.034150116 -0.25081864 -0.22546808
0000a0 51 98 85 3e c2 46 01 be bf 96 40 be 82 d2 97 3d
       0.2609277 -0.12624648 -0.18807505 0.07413198
0000b0 cd 96 ec be ac 19 18 3d 29 7b c7 bd df 34 b8 be
       -0.46208802 0.037133858 -0.09740288 -0.35977837
0000c0 96 fe 42 3e 0d 9a 4d be 63 9c 0a bf e9 7e ba be
       0.1904243 -0.20078297 -0.5414488 -0.3642495
0000d0 e1 ce 24 be f8 bc 14 be 00 ff 8b bd 86 9f c4 be
       -0.16094543 -0.14525211 -0.06835747 -0.38402957
0000e0 64 a3 d2 be a4 e0 a8 be 23 19 91 be 91 aa ad 3d
       -0.41140282 -0.32983887 -0.2833949 0.084797986
0000f0 18 df 3f 3e 73 62 a6 bd 5d ff 53 be 72 16 be be
       0.18737447 -0.081242464 -0.20702882 -0.371265
000100 30 40 a3 bd 78 93 47 3e fa 29 14 be ad 3c 2f be
       -0.07971227 0.19489849 -0.14469138 -0.1711299
000110 10 cb 8a be 9a 26 ff bd b3 8d d7 bc ab 27 1f bf
       -0.2710805 -0.124585345 -0.026312685 -0.62169904
000120 94 e9 1b 3e 1f e9 ba 3d e4 d3 23 3e 83 70 a3 be
       0.15225822 0.091264956 0.15998799 -0.31921777
000130 a1 5f d5 bd e5 dd 07 bf 7c c8 3e 3d 19 c6 79 be
       -0.104186304 -0.5307296 0.046577916 -0.24391975
000140 6c 2d 85 be 4a 02 d4 be fc a8 ca bd fd f3 cb be
       -0.26011217 -0.41407996 -0.098955125 -0.39834586
000150 af ac 1c 3c 74 1b 0f bc 81 e5 c5 3e 3e 58 0a bd
       0.009562655 -0.008734573 0.3865166 -0.03377556
000160 74 a4 ba bd 28 8c 78 be 75 78 8a be ab 55 12 bd
       -0.09113398 -0.24272215 -0.27045026 -0.03572623
000170 0d 94 85 be ec 9a 09 bf a0 8c db be ac 67 57 be
       -0.26089516 -0.5375202 -0.42880726 -0.21035641
000180 ba 28 88 be 56 df 07 3d 2c 3c 83 bd 6d e4 48 be
       -0.26593572 0.033171974 -0.06407961 -0.19618388
000190 ac bd 0e 3d 86 0e c9 be 0b c9 f8 3c 89 95 48 bd
       0.034848854 -0.39268893 0.030369302 -0.048970733
0001a0 90 43 92 be e5 59 1c be c1 07 54 be d3 3b 87 be
       -0.2856717 -0.15268667 -0.20706083 -0.2641283
0001b0 c1 94 03 3f 8e bd 75 be 6a 7e c0 be 4d 29 0c be
       0.51398855 -0.2399809 -0.37596446 -0.1368763
0001c0 a2 e3 12 be 61 4f f6 be 53 ea 94 be 68 49 86 be
       -0.14344648 -0.48107436 -0.29085025 -0.2622788
0001d0 5c 65 19 3c 36 a8 33 3d bb f4 9f 3e e1 b4 fc 3e
       0.009362545 0.04386159 0.31241402 0.4935675
0001e0 07 a7 b5 be 3d 90 cd be 5b da 51 be c6 ad 8b be
       -0.35478994 -0.40149108 -0.20493452 -0.27281016
0001f0 03 39 9b be 18 b1 34 be 5e b9 30 be 83 e7 e9 be
       -0.30316934 -0.17645681 -0.17258212 -0.45684442

fc_hidden.norms.0.running_mean f4 [128]
000000 66 31 e3 be 98 f8 c5 3e 99 dc 96 3f b5 4d b6 3e
       -0.44373626 0.38666224 1.1786071 0.3560616
000010 7c 18 35 3f a5 f4 0b 3f 3b 78 46 bf 68 32 25 3f
       0.70740485 0.5467017 -0.7752721 0.6453004
000020 7a 1d 7e 3f 53 0f ca bf 47 d0 e7 3e ad 1f a2 bf
       0.9926373 -1.5785927 0.4527609 -1.2665917
000030 9c c7 cd bf 02 e9 2a bf 5a 3a 9b 3e 7f 33 f3 bf
       -1.6076541 -0.6676179 0.30317956 -1.900009
000040 18 a3 90 bf 40 29 0a 3f 82 94 4a 3f 80 e0 3c bf
       -1.1299772 0.5396919 0.79132855 -0.7378006
000050 f2 ad d0 be bc 8c ac be ef b8 5c be d0 d4 da be
       -0.4075771 -0.33701122 -0.21554922 -0.42740488
000060 92 44 8f 3d 4b ae 89 3f 50 6d 24 3f 68 22 54 bf
       0.069955006 1.0756315 0.642293 -0.82865
000070 88 ee 6f bf b1 dc 4a 3e f1 c5 5c bf 27 b0 be be
       -0.93723345 0.1981075 -0.86239535 -0.3724377
000080 2b 26 20 bf 36 8d 0c 3f 9a 90 c7 be c2 5f f6 be
       -0.6255824 0.5490297 -0.3897751 -0.48119932
000090 b2 91 af bf 25 c1 ba 3d 2a 1d c0 bf fe 72 94 be
       -1.3716338 0.09118871 -1.50089 -0.28993982
0000a0 ee 2e 01 bf 78 d6 a6 be 2b dc a5 be 3e 56 17 bf
       -0.50462234 -0.32585502 -0.32394537 -0.5911597
0000b0 c2 fc a1 3d 62 89 21 3e e9 b0 42 3f 46 bf 44 bd
       0.07909538 0.15775064 0.76051193 -0.048033975
0000c0 20 00 e2 3f da 49 12 bf b5 e9 8d 3d 65 db df bf
       1.7656288 -0.5714394 0.06929342 -1.7488829
0000d0 f5 c4 f4 3e ed 1f 13 bf 1f 18 9a 3f 82 b0 c0 bf
       0.47806516 -0.5747059 1.2038611 -1.5053866
0000e0 b0 41 e3 3f f4 77 c2 be 99 33 f7 3f c4 1d 00 c0
       1.7754421 -0.37982142 1.9312621 -2.0018167
0000f0 ba 18 e3 bf e2 d2 d0 bf c6 c0 ac bd 1f 05 e5 3e
       -1.7741921 -1.6314356 -0.08435206 0.4473047
000100 68 c4 35 be 73 a8 fd 3f 08 0d ee 3e c5 07 cb 3e
       -0.17750704 1.9817032 0.46494317 0.39654365
000110 cf e6 97 bf 74 ba 9b 3f 5a 3e 47 bf e6 75 d9 be
       -1.1867312 1.2166276 -0.77829516 -0.42472762
000120 35 2a 0e 40 8d ad 37 bf 51 3a bc 3f 1c 13 49 3d
       2.221326 -0.7174919 1.4705297 0.04909049
000130 f7 38 82 bf ab 0e 63 bf 14 d4 ae be 2c 62 90 bd
       -1.0173634 -0.88694257 -0.34146178 -0.07049975
000140 d0 29 5b 3f 1d c7 e4 3f f0 1a 11 bf 8e 80 89 3d
       0.85610676 1.7873265 -0.5668173 0.06713973
000150 ba b7 82 bf 76 7c 62 bf ed fc b5 be b8 07 2e bf
       -1.0212319 -0.8847116 -0.3554453 -0.6798053
000160 5e 83 b6 bf 9e 53 ee be 58 52 27 bf 73 e1 52 bf
       -1.425884 -0.4654817 -0.6536002 -0.8237526
000170 e8 a9 25 3f 6e 63 8e bc b5 61 0c bf b6 2b 90 bf
       0.6471238 -0.017381396 -0.5483659 -1.126334
000180 f0 0d 2d 3f 73 94 9a be 86 5f b1 bf c0 03 1e 3f
       0.6759939 -0.30191383 -1.3857276 0.6172447
000190 a5 0d 7e be ec 26 be bf c5 e8 9b 3e 37 b6 32 bf
       -0.24809892 -1.4855628 0.30451027 -0.6980929
0001a0 be 4e 47 bd e2 a2 4c bd 22 ab a8 be 3c e1 5c 3f
       -0.04865908 -0.049960025 -0.32943064 0.8628118
0001b0 ec c7 6a 3f 55 8b 18 bf f0 0a 58 3f cf 3b 69 3f
       0.91711307 -0.59587604 0.8439169 0.91106886
0001c0 2c 82 05 40 f8 c1 34 40 d5 32 85 bf 8e 11 8e bf
       2.08607 2.824339 -1.0406138 -1.1099107
0001d0 dc 8a 1a bf 71 3d c7 bf 85 b8 91 bf 54 85 38 bf
       -0.6036813 -1.5565625 -1.1384436 -0.7207844
0001e0 7b d4 df be 64 25 ab be 41 07 8d bf 1f 75 c8 be
       -0.43716797 -0.33426964 -1.1017839 -0.39151856
0001f0 c8 58 c7 3c 1f 30 db 3e 7b 1d ee be 2a b7 ea be
       0.024334326 0.4281015 -0.46506867 -0.45842868

fc_hidden.norms.0.running_var f4 [128]
000000 b2 a9 a1 3d 9e c1 d7 3d 28 5f 00 3e 19 d0 05 3e
       0.07893695 0.105349764 0.12536299 0.13067664
000010 b0 04 93 3d 83 ec cf 3d df 85 af 3d 63 97 34 3e
       0.071786284 0.10152533 0.08570456 0.17635874
000020 5a 93 75 3e 03 7e b3 3d 1e b3 00 3e b3 49 ba 3d
       0.23981991 0.08764269 0.12568328 0.09096088
000030 b6 dc ad 3e 26 74 8f 3d c7 54 d8 3d 0c 2d 06 3e
       0.33957452 0.070045754 0.10563045 0.13103122
000040 7c 9e 97 3d e5 9c b5 3d 12 67 8e 3e 7a 16 d6 3d
       0.07403275 0.08867816 0.2781301 0.10453506
000050 75 97 51 3e 45 49 17 3e 8d 1a a9 3e ad ed ba 3d
       0.20467933 0.14774044 0.3302807 0.09127364
000060 dd 28 04 3e 15 e7 fe 3d 8f 3f 12 3e b9 bf d8 3d
       0.12906213 0.12446419 0.14282058 0.10583443
000070 54 f6 fe 3d a7 95 ca 3d a7 5c 9a 3e 54 38 fc 3d
       0.12449327 0.09891825 0.30148813 0.12315431
000080 f8 cf 92 3e bd 32 14 3e 24 d3 a2 3d 2b fb 36 3d
       0.28674293 0.1447248 0.07950428 0.044673126
000090 b4 32 59 3d 58 74 ea 3d ac 9c b4 3d 7e 3e 2b 3e
       0.05302687 0.11447972 0.08818945 0.16723058
0000a0 52 03 00 3e fc 3d 03 3e db ff 55 3e 80 fa 18 3e
       0.12501267 0.12816614 0.20898382 0.14939308
0000b0 aa 6e 16 3e 6d 2f 37 3e ab 2c 8c 3e 7c 2a eb 3d
       0.14690652 0.17889185 0.2737783 0.114827126
0000c0 f5 8c c7 3d 1d ed 21 3e ad 3e 90 3e 62 03 aa 3d
       0.09743682 0.15813108 0.28172818 0.083014265
0000d0 7c 8c 24 3e 54 ac ca 3d 82 2c b3 3d a5 d4 ec 3d
       0.16069216 0.0989615 0.087487236 0.11563996
0000e0 35 f1 03 3e c4 4d 22 3e 48 bf 31 3e e5 78 23 3e
       0.12884982 0.15849978 0.17358124 0.15964086
0000f0 0a c4 b3 3d ba d3 87 3d 31 33 34 3d 85 08 ef 3d
       0.08777626 0.066321805 0.043994132 0.11671547
000100 f0 00 91 3d 8d df b5 3d 20 3a 59 3d c2 8d 26 3e
       0.07080257 0.088805296 0.053033948 0.16265014
000110 c4 5c 91 3e 19 98 3a 3e 1a 3f c8 3d c2 84 f1 3d
       0.28391087 0.18222083 0.09777661 0.117929
000120 03 7d 81 3d 2a a8 8c 3d 6e 95 50 3e cb 26 85 3d
       0.06322672 0.06868012 0.20369503 0.0650154
000130 8f 5a cd 3d 32 02 45 3e 66 3a cb 3d 14 56 75 3e
       0.10027038 0.19239119 0.09923248 0.23958617
000140 45 0c 47 3e 76 89 d8 3d b1 8d 6b 3d 0f 59 78 3e
       0.19438274 0.105730936 0.057508174 0.24252723
000150 51 3a 35 3d 9c 3d ac 3e a4 92 ff 3d 65 c6 78 3d
       0.044245068 0.33640754 0.12479141 0.06073608
000160 a2 fa 97 3d dd a7 d6 3d 30 c7 c0 3d 81 17 c2 3d
       0.07420851 0.10481236 0.09412992 0.09477139
000170 74 57 a9 3d ac e6 0a 3e 94 dd d2 3d 33 0c 0c 3f
       0.082686335 0.13564557 0.10296169 0.54706115
000180 85 06 a6 3d 9a 14 01 3e f7 eb a1 3d 65 a6 ee 3d
       0.08106712 0.12605515 0.07906335 0.11652831
000190 5e 5d c8 3d 9e 35 4d 3e 2e 51 b0 3d 5f b6 60 3d
       0.097834334 0.20039985 0.08609234 0.054861423
0001a0 ae 66 d5 3d 37 e2 f4 3d 52 55 a2 3d a7 14 9a 3d
       0.10419975 0.119572096 0.0792643 0.0752347
0001b0 45 98 24 3e af df d1 3d f4 7e d9 3d 64 9a 26 3e
       0.16073711 0.102477424 0.106199175 0.16269833
0001c0 02 2b df 3d 85 e7 18 3e 14 f7 b2 3d 7e 70 e8 3d
       0.10896875 0.14932068 0.08738533 0.11349581
0001d0 07 c9 d5 3d 80 5b 16 3e 08 06 84 3d 7e 5b 8d 3e
       0.104387335 0.14683342 0.06446463 0.27608865
0001e0 e5 e4 ad 3e be 90 4c 3e 46 da 6d 3e 4e 6f 89 3e
       0.33963695 0.1997709 0.23227796 0.2684273
0001f0 5a 25 c9 3d 3d d3 f3 3d 4a 95 24 3e b7 ff 08 3e
       0.09821577 0.11905525 0.16072574 0.13378797

fc_hidden.norms.1.weight f4 [64]
000000 6c 78 aa 3f fd 75 a1 3f a2 11 e2 3f c2 48 99 3f
       1.3318 1.2614132 1.7661631 1.1975329
000010 2f fa d0 3f f0 e4 ac 3f aa 45 b0 3f 9f 4e c1 3f
       1.632635 1.3507366 1.377126 1.5102118
000020 0b de c2 3f ca 15 ce 3f 2d 6c a5 3f c6 bf 8c 3f
       1.5224012 1.61004 1.2923638 1.0996025
000030 fb 84 92 3f f6 81 c0 3f 53 ba bc 3f a6 10 9d 3f
       1.1446832 1.5039661 1.4744362 1.2270706
000040 64 53 b7 3f 78 d9 c6 3f 96 88 91 3f e3 c2 b5 3f
       1.4322324 1.5535116 1.1369808 1.42001
000050 c5 6e b5 3f 70 53 ba 3f 7f d2 b4 3f 24 c3 af 3f
       1.4174429 1.4556713 1.4126738 1.3731427
000060 f0 31 a3 3f a8 9c a8 3f 0c 0b 9d 3f 83 ea ae 3f
       1.2749615 1.3172808 1.2268996 1.3665317
000070 22 6f 96 3f ae f1 8a 3f f1 ac ce 3f c2 9f a0 3f
       1.1752665 1.0855005 1.6146528 1.2548754
000080 86 13 c5 3f 4f a0 ac 3f ef e2 b0 3f ef 93 ce 3f
       1.5396583 1.3486422 1.3819255 1.6138896
000090 87 8b b0 3f 02 d8 bb 3f ff 36 b8 3f 84 8a c7 3f
       1.379258 1.4675295 1.4391783 1.5589147
0000a0 ba 2a 94 3f b5 5a 95 3f 68 6b d2 3f e9 25 aa 3f
       1.1575539 1.1668307 1.6439028 1.3292819
0000b0 03 8c ca 3f f9 ae b0 3f b0 13 a9 3f fe 76 c4 3f
       1.5823978 1.3803397 1.3209133 1.5348814
0000c0 80 06 b4 3f f0 c6 c9 3f 33 74 c2 3f af 6c 99 3f
       1.4064484 1.5763836 1.5191711 1.1986293
0000d0 47 22 a9 3f 20 a8 bf 3f b2 fe a2 3f 8e a0 d5 3f
       1.3213586 1.4973183 1.2733977 1.6689622
0000e0 a7 cd c9 3f 21 00 ad 3f b8 31 b3 3f b8 a3 bc 3f
       1.5765885 1.3515664 1.3999548 1.4737463
0000f0 2d 8e ac 3f c6 55 c4 3f fb a8 b5 3f 8b 54 b8 3f
       1.3480889 1.5338676 1.4192194 1.44008

fc_hidden.norms.1.bias f4 [64]
000000 d0 8d a8 bd 4e 1b cc 3d bb 78 f2 be 62 67 d3 3d
       -0.082301736 0.099661455 -0.47357735 0.10322453
000010 ed 04 6c be 5d fc d8 bc e2 7d a1 bd be a1 eb be
       -0.23048754 -0.026487524 -0.07885338 -0.46021837
000020 ec a9 92 be 25 e1 4b be f3 8d 3d be a8 95 b3 bd
       -0.28645265 -0.19910105 -0.1851118 -0.08768779
000030 a5 2f 36 3e 1a b8 73 bd 3d 82 0f 3c f2 58 ab 3d
       0.17791612 -0.059501745 0.008759079 0.08366574
000040 b5 c3 a2 bd ec 72 82 3b ce e9 f5 bd 5f 57 87 be
       -0.079474844 0.003980985 -0.12007485 -0.26433846
000050 59 6e 2e be df 1b 27 be 91 fd 83 be 1d 4d 93 be
       -0.17034282 -0.16319226 -0.25779393 -0.2876977
000060 02 85 07 3d 8e a8 1b bc 30 c9 26 3d db d1 10 be
       0.03308583 -0.009500636 0.04071921 -0.14142554
000070 a5 e8 05 3e cd 79 f7 bd 3f fb 61 be 24 85 fd 3d
       0.13077028 -0.120837785 -0.22068499 0.1237891
000080 26 42 25 be 85 e4 84 be 49 06 96 bd d7 7f 0b 3d
       -0.16138515 -0.25955597 -0.073254175 0.034057464
000090 4a df de bd 5f 52 93 be 8f f4 a8 be f7 d9 b1 bb
       -0.10882433 -0.28773782 -0.32999083 -0.0054275948
0000a0 a5 6c 63 3d c4 86 80 3d 98 df 55 be ce 9e 89 be
       0.055523533 0.062757045 -0.20886075 -0.2687897
0000b0 f6 73 84 3e 8f af 1d be bd dd 0c bc b5 44 80 be
       0.2586972 -0.15399002 -0.008597788 -0.2505242
0000c0 2d cb a3 3c 11 e7 db bd 50 38 eb 3c c8 52 96 bc
       0.019994343 -0.10737432 0.028713375 -0.01835002
0000d0 ce 17 b6 bd dc 21 ba bd bf 49 f7 bd 17 f6 ab be
       -0.08891259 -0.090884894 -0.12074613 -0.3358619
0000e0 84 76 be 3b 69 13 7d 3d af 59 52 be 59 4b ae be
       0.005812468 0.06178609 -0.20542024 -0.3404186
0000f0 91 d9 96 3d a8 8a a9 3d 27 4b e3 bd 65 86 2a 3c
       0.07365716 0.082784 -0.110983185 0.010408019

fc_hidden.norms.1.running_mean f4 [64]
000000 bf 6e d2 be b0 3b 7a bf 9c 4d 5c 40 70 76 18 3f
       -0.41100118 -0.97747326 3.442237 0.5955572
000010 3a 97 37 3e a4 3f a8 bf 13 18 07 bc 38 97 2d bf
       0.17928782 -1.3144422 -0.008245486 -0.67808867
000020 49 0d 2b bd e7 b9 02 c0 3e ee 90 bf da 9e 22 c0
       -0.041760717 -2.0425966 -1.1322706 -2.5409455
000030 c4 ac c8 bf 17 e7 95 bf dd ca 82 bf ea 4d c5 3f
       -1.5677724 -1.1711148 -1.0218159 1.5414402
000040 dd 9a c9 3f 1a 3a d4 bf be a7 9c be 78 82 33 bf
       1.5750386 -1.6580231 -0.30596727 -0.70120955
000050 c7 1a c9 3f d7 c9 c7 bf f9 9a 26 3e 44 24 45 3f
       1.5711297 -1.5608472 0.16270055 0.7700846
000060 97 80 94 bf e2 ef 80 bf e6 c1 dc bf 49 83 86 3f
       -1.1601743 -1.0073206 -1.7246673 1.0508815
000070 ae ac 2a c0 29 30 72 3e 39 47 a4 3f 34 04 43 bd
       -2.6667895 0.23651184 1.2834235 -0.04761143
000080 96 ea ab bf ab 0f d4 bd 9b 16 85 bf f5 37 91 bf
       -1.3430965 -0.10354551 -1.0397524 -1.1345202
000090 73 1f 03 3f e7 6c 92 3e 60 fd 27 c0 fa f6 80 bf
       0.5121986 0.2859871 -2.6248398 -1.0075371
0000a0 ca 22 8f bf 0f db 42 bf c0 8e ce bd 81 33 44 be
       -1.1182492 -0.76115507 -0.10085821 -0.19160272
0000b0 b6 ca 6a bf 90 d2 d6 be 68 53 c0 be bd 00 76 3f
       -0.9171556 -0.4195752 -0.37563634 0.96094877
0000c0 81 3f 15 bf f1 22 f8 bf bd bb 39 bf a9 e5 89 bf
       -0.58300024 -1.9385663 -0.7255209 -1.0773212
0000d0 0e a0 c5 bf 4b d0 21 bf b9 4b 01 bf 4f bc 37 40
       -1.543947 -0.63208455 -0.5050617 2.8708684
0000e0 6c 65 23 3f 69 11 07 c0 b2 39 46 bf 2c 1e da 3f
       0.6382663 -2.1104376 -0.77431786 1.7040458
0000f0 3c c4 86 3f a6 30 12 be 40 ad ab 3e dc 7b 85 bf
       1.0528636 -0.1427637 0.33530617 -1.0428424

fc_hidden.norms.1.running_var f4 [64]
000000 80 b4 ba 3f b8 e2 3c 40 3e 60 4f 40 c6 fc 49 40
       1.4586334 2.9513378 3.2402492 3.156053
000010 a5 47 27 40 81 62 2f 40 9b 63 2d 40 5d e1 7b 40
       2.6137478 2.7403872 2.7092044 3.93563
000020 64 1e 05 40 94 14 29 40 c8 c4 0f 40 41 59 e1 3f
       2.07998 2.641881 2.2463856 1.7605363
000030 4f 9a 36 40 06 8b 15 40 df b6 35 40 02 3a 16 40
       2.8531682 2.3366103 2.8392866 2.3472905
000040 7f 16 11 40 49 3e 0c 40 89 41 da 3f 87 d3 25 40
       2.266998 2.1913016 1.705125 2.5910356
000050 a4 c0 0e 40 d2 5b 48 40 d4 42 5d 40 bf 2b 16 40
       2.2305079 3.1306043 3.4572039 2.34642
000060 9f a7 42 40 5f 3c 72 40 0b 22 3e 40 24 d7 0b 40
       3.0414808 3.7849348 2.9708278 2.1850061
000070 28 57 22 40 c5 a4 01 40 bb e9 80 40 eb e0 2c 40
       2.5365696 2.0256817 4.0285316 2.701228
000080 4b d0 2c 40 9d f5 14 40 fc 8f 38 40 9e 82 2b 40
       2.7002132 2.327491 2.883788 2.6798472
000090 79 76 73 40 b0 85 09 40 0d 4c d3 3f 79 80 01 40
       3.804106 2.1487846 1.6507584 2.0234663
0000a0 c2 01 05 40 02 68 4d 40 09 2c 23 40 45 d3 f4 3f
       2.0782323 3.2094731 2.5495627 1.9126974
0000b0 4b 26 47 40 d3 fb b0 3f 23 5d 10 40 89 0b 08 40
       3.1117122 1.3826851 2.2556846 2.125704
0000c0 7e d4 38 40 ed cf 2b 40 ae 3f 0e 40 b6 b7 03 40
       2.8879695 2.6845658 2.2226367 2.0580878
0000d0 cf 5d 00 40 09 54 31 40 70 c2 f8 3f ae 20 4f 40
       2.0057256 2.770754 1.9434338 3.2363696
0000e0 75 ea 56 40 f6 bf 2a 40 f7 b8 22 40 01 f5 73 40
       3.3580601 2.6679664 2.5425394 3.8118289
0000f0 42 66 67 40 04 7e 0e 40 eb 0d cb 3f 1e 8f 24 40
       3.6156163 2.2264414 1.5863622 2.5712352

fc_out.weight f4 [10, 64]
000000 31 9c a5 be c8 d0 27 be 28 6d d7 3e e4 cf 6a 3e
       -0.32345727 -0.16388237 0.42075467 0.22930866
000010 f3 27 ce 3e f8 5f 50 bd c8 23 6b bf ea 72 e0 be
       0.40264854 -0.050872773 -0.9185147 -0.43837672
000020 97 d4 19 3e dc 83 ff 3e db 60 2f bf ed 41 1a bf
       0.15022503 0.49905288 -0.68507165 -0.60256845
000030 b8 77 e5 3d f2 1f d8 be cb 9f 7f be af 01 ba 3e
       0.11204475 -0.42211872 -0.249633 0.3632941
000040 36 65 9e be 93 59 9b 3e 49 a4 25 bf a4 f2 58 3e
       -0.30936593 0.30341777 -0.64703804 0.2118631
000050 b7 c1 c6 3d 12 44 48 be 3c 65 35 be 79 ea 94 be
       0.09704917 -0.19557217 -0.17714399 -0.29085138
000060 eb 6c cb be ae 8f 3f bb 6f de 9c 3d be 99 5e 3e
       -0.39731535 -0.0029229927 0.07659613 0.21738335
000070 db 99 37 bf ae 1c a9 bd 26 b6 54 3e fa 22 29 3e
       -0.7171914 -0.08257423 0.20772609 0.16517249
000080 1f fe 20 bd 45 b8 88 3e 67 2a 29 bf 6a 58 a4 3e
       -0.03930485 0.26703086 -0.66080326 0.32098705
000090 da 36 f3 be 57 dd d9 be 14 bb 87 3e ed 27 bc be
       -0.47502786 -0.4255168 0.26509917 -0.3674921
0000a0 16 fb 5a be 7f 0c 25 be 14 0d fe bd 05 89 8a be
       -0.21384844 -0.16118048 -0.12404838 -0.27057663
0000b0 e5 03 0c 3e 8c 85 25 3e 97 ac 9a 3c b7 2f c6 3b
       0.1367336 0.16164225 0.018881125 0.0060481685
0000c0 e2 2f 6c be ab cc 16 3e ea 0b 15 bf 6c 6b 55 bf
       -0.23065141 0.14726512 -0.58221304 -0.8336704
0000d0 0a 17 c7 be 26 50 c2 be a9 00 4d be 70 5b b1 3e
       -0.38884765 -0.37951773 -0.20019783 0.34640074
0000e0 5c 77 27 bf 7b 5d 59 bf de de 49 3e 5d 7c c7 3e
       -0.654165 -0.84908265 0.19713923 0.3896207
0000f0 06 e2 c2 be d0 f4 2c 3e 8b a2 33 3e f0 25 fb bd
       -0.38063067 0.16890264 0.17542474 -0.122630954
000100 48 e2 99 be e7 e7 00 bf b4 aa 19 3f cf af 0c bf
       -0.3005545 -0.50353855 0.600261 -0.5495576
000110 b5 20 28 3d e9 93 85 3e 9a 64 42 3e 1d 76 4a 3e
       0.041046817 0.2608941 0.18983689 0.19771619
000120 b8 db a0 3e 92 68 8a 3e 67 5f 54 3e 6a 7b 46 bd
       0.31417632 0.27032906 0.20739518 -0.04845754
000130 c1 c4 8d bf 16 97 2e be 45 f2 a1 3e e0 f2 a6 be
       -1.107567 -0.17049822 0.3163015 -0.32607174
000140 56 de c3 be cd 0c 50 3e 36 0c 81 3e 93 ba d6 3d
       -0.38255566 0.20317383 0.2520463 0.10484805
000150 bf e8 37 be 9e 7d e8 3d d0 c8 29 3e f2 50 18 3e
       -0.1795988 0.113520846 0.1658051 0.14874628
000160 52 58 05 bf ac 8d 3c 3e 03 4d 1c bf 8a 37 74 bf
       -0.5208789 0.18413419 -0.6105501 -0.95397246
000170 7e 8d 53 3e 00 86 1d bf 50 cf b1 3e fb 2c d1 be
       0.20659444 -0.6153259 0.3472848 -0.4085463
000180 0e 5a 53 bf 3b e7 b2 bd df 69 50 bd 74 95 fe bd
       -0.8255929 -0.0873551 -0.050882217 -0.1243085
000190 1b bd 04 3e a2 8d 70 3e f8 f4 37 be 42 70 03 be
       0.12962763 0.23491529 -0.17964542 -0.12835792
0001a0 48 69 32 bf a2 13 bc be 22 eb 24 be 7d 59 be 3e
       -0.69691896 -0.3673373 -0.16105321 0.3717765
0001b0 56 70 9e be b4 b1 b2 be 0c 88 08 3e 67 93 62 be
       -0.3094508 -0.34901202 0.13333148 -0.22126542
0001c0 5c 75 3e 3e 6b ca e1 bd 6b 2e d1 3d 19 dc a2 be
       0.18599457 -0.11024936 0.10213932 -0.31808546
0001d0 28 8b e1 3d 73 5c 25 3e e6 5c c8 be b9 16 e6 3e
       0.1101287 0.16148548 -0.39133376 0.4493921
0001e0 0a 48 5c bf 28 55 4f 3d 23 56 0b bf bc 5d 55 be
       -0.8604742 0.05061832 -0.5442831 -0.20836538
0001f0 0b 96 54 bd 05 a9 1a bf fe 2c b4 3e 16 00 07 3e
       -0.051900905 -0.60414153 0.35190576 0.13183627
000200 41 b0 66 3e 08 3b d6 3d 3f 57 90 be 0e 58 84 bb
       0.22528173 0.10460478 -0.28191563 -0.0040388172
000210 b5 62 d6 3d 4f 5e 3e be f9 a8 95 3c c9 3e af be
       0.104680456 -0.18590663 0.018269049 -0.3422759
000220 fc f4 92 be 8b 78 2c bf c2 14 3f bd c5 31 15 3e
       -0.28702533 -0.67371434 -0.046650656 0.14569767
000230 7d ee 91 bd f7 08 1d be 40 15 1f 3e 8b 25 a9 bd
       -0.07125566 -0.15335451 0.1553545 -0.08259114
000240 a2 cc 71 be 4b 42 f3 be 23 9f 82 3e 58 64 1d 3e
       -0.23613217 -0.47511515 0.25512037 0.1537031
000250 d2 2a 8e 3e 07 a3 1c be 33 1d 41 bc eb 35 cf 3d
       0.27767044 -0.15296565 -0.011786747 0.10117706
000260 e1 52 c4 be 09 ff 8b bc 39 7c a6 bd db 54 00 be
       -0.38344482 -0.017089384 -0.08129162 -0.1253237
000270 19 5d 7a be b5 22 97 3c a9 ef ed 3c 05 15 db be
       -0.24449576 0.018449167 0.029044943 -0.42789474
000280 e7 c6 6b 3e 85 3c 55 3e 89 39 33 3e 5a eb 7a be
       0.23025094 0.20823868 0.17502417 -0.24503842
000290 8f 49 57 3d 1d f6 9e bd 76 24 a9 be 42 66 89 3e
       0.052560385 -0.07761786 -0.3303563 0.2683583
0002a0 41 12 a3 bd 21 2e 9a 3d e9 4c 43 3e 65 02 01 bf
       -0.07962466 0.0752833 0.19072308 -0.5039428
0002b0 98 cd a0 3e 1c 88 04 be aa 5e 08 3d 7a 46 d7 3c
       0.31406856 -0.12942547 0.033293404 0.026278723
0002c0 9a 37 87 3e ca b1 2b 3d f9 f4 9c bd ab 47 86 bd
       0.26409608 0.0419176 -0.07663912 -0.06556638
0002d0 49 32 95 bd c7 ba 23 3e 21 85 d2 3c 44 65 14 be
       -0.07284982 0.15989219 0.025698246 -0.14491755
0002e0 9d 15 43 3e 1c 56 ae 3e c2 9e c9 3b 05 77 4d 3e
       0.19051214 0.3405007 0.0061529586 0.20064934
0002f0 72 b3 95 3e bb 81 6b 3e 22 ef c8 3d b6 32 55 3e
       0.29238468 0.22998707 0.09811236 0.20820126
000300 93 04 b9 be 9c 18 1d bf d5 87 95 be 48 9b 8d 3e
       -0.36136302 -0.61365676 -0.29205194 0.27657533
000310 22 40 cf be 01 45 9f be 4e 99 0a bd fc 66 7f 3d
       -0.40478617 -0.31107333 -0.03383761 0.062354073
000320 31 f5 b0 3d 40 74 17 be 12 2b a7 3e d7 8d 3d bd
       0.086405165 -0.1479044 0.32650048 -0.046277847
000330 63 a8 b1 bb 9e 61 ff 3d ed d4 fb 3d 46 0d c4 be
       -0.0054216846 0.12469791 0.12296472 -0.38291377
000340 5f 86 8b 3e 30 0f 43 3e 52 f1 c2 3d a8 af 48 3e
       0.27250955 0.19048762 0.095186844 0.19598258
000350 82 40 9d bd ae 27 40 bd 4e 90 d6 3d 89 01 4e 3e
       -0.076783195 -0.04691284 0.10476743 0.20117773
000360 22 9b 5c 3e d5 f4 b8 be 24 5c af be 49 fc 2b be
       0.21543553 -0.36124292 -0.34249985 -0.16795458
000370 f9 18 97 be 53 77 2a bd 44 34 4d bd 28 33 8f bc
       -0.2951124 -0.041617703 -0.050098673 -0.017480448
000380 42 dd cd 3d e0 11 81 3b 2b fd 40 3e e3 33 25 bf
       0.10051967 0.0039388984 0.18846576 -0.645323
000390 fc ec 9c 3e 68 ee 3d 3e 77 23 70 3e 8a cd 06 bf
       0.30649555 0.18547976 0.23451029 -0.5265738
0003a0 15 9b 5f 3d 71 81 22 be 6d db 63 be 8f de 16 3e
       0.054591257 -0.1586969 -0.22251673 0.14733337
0003b0 15 84 4b 3e f5 fd a1 3e 55 68 07 3e 37 0f 04 3e
       0.19874604 0.31639066 0.13223393 0.12896429
0003c0 33 f7 5f be c0 b6 38 be c9 a1 3f 3e 8f f7 44 3e
       -0.21871643 -0.18038464 0.1871406 0.19235061
0003d0 51 19 29 3e ec a5 aa bd b8 db 82 be 2c e6 5f bd
       0.16513564 -0.08332428 -0.25558257 -0.05466287
0003e0 96 87 53 3e 42 d8 3a be f2 fa 37 3d d9 ad 21 bc
       0.2065719 -0.18246558 0.044917054 -0.009868109
0003f0 71 f7 8a 3d 7e 50 10 be a1 0e b1 bd 8b c7 06 bf
       0.06785477 -0.14093205 -0.08645368 -0.5264823
