saved_models/GCN2_clus-false_BN_GELU.pt (torch, 223195 bytes, 40 tensors)

fc_in.weight f4 [64, 1]
0	0x3e867b1f	0.2626581
1	0xbe4fce16	-0.2029346
2	0x3f419895	0.75623447
3	0x3e8fe038	0.28100753
4	0xbf9038bc	-1.1267314
5	0xbeceb87f	-0.40375134
6	0xbbd6a9da	-0.0065510096
7	0x3f42809c	0.7597749
8	0xbf894780	-1.0724945
9	0x3e5c6120	0.21521425
10	0x3df5cbfa	0.12001796
11	0x3ebe1c36	0.37130898
12	0xbd94c423	-0.072639726
13	0xbf5a5133	-0.8528015
14	0x3bd53296	0.0065062745
15	0xbf911bc6	-1.1336601
16	0x3e66bedd	0.22533746
17	0x3f676dcd	0.9040192
18	0x3e5d0054	0.21582156
19	0xbee25a1d	-0.44209376
20	0x3f6ae7da	0.9176003
21	0x3f5977e5	0.8494857
22	0x3e8e3d2d	0.27781048
23	0xbdcce7a1	-0.10005117
24	0x3e51eccd	0.20500489
25	0xbeac85c5	-0.33695808
26	0x3e55d1dc	0.20880836
27	0xbf1de22f	-0.61673254
28	0xbf3527e3	-0.7076399
29	0xbe8d3774	-0.2758137
30	0xbef5e105	-0.4802324
31	0xbe8f073f	-0.27935216
32	0xbeaa7e13	-0.33299312
33	0x3d6ac8fd	0.057320584
34	0x3f745576	0.95442903
35	0xbf12337c	-0.5710981
36	0xbf7faa79	-0.99869496
37	0x3f4ec65c	0.8077142
38	0x3f6a86fd	0.91612226
39	0x3f800ca1	1.0003854
40	0xbe27504e	-0.16339228
41	0xbf8ad6f6	-1.0846851
42	0xb9982791	-0.00029021178
43	0x3f2bbc45	0.6708415
44	0x3ed9b9b8	0.42524505
45	0xbf1f616e	-0.6225804
46	0xbe589659	-0.21151103
47	0x3f5eae93	0.8698513
48	0x3f5f336d	0.87187845
49	0x3f24d805	0.6439212
50	0xbefaa5af	-0.48954532
51	0x3f62585d	0.8841608
52	0xbf04e2d4	-0.5190861
53	0x3f06f5f8	0.5271907
54	0x3f89c95d	1.0764576
55	0xbfa0dd63	-1.2567562
56	0x3f5f736c	0.87285495
57	0xbf3badb0	-0.733119
58	0xbf743c58	-0.9540458
59	0x3f5683ad	0.8379467
60	0xbef45f1d	-0.47728816
61	0x3f2e40fe	0.6806792
62	0x3ac2a80f	0.0014851111
63	0x3ebd15c7	0.36930677

fc_in.bias f4 [64]
0	0xbe1597d9	-0.14608707
1	0x3f01e67b	0.5074231
2	0x3e8765af	0.26444766
3	0xbdfcbc42	-0.12340595
4	0x3ec0212f	0.37525317
5	0x3e901b6e	0.28145927
6	0x3cff461d	0.031161362
7	0x3f3bab77	0.7330851
8	0x3ed6deed	0.41966954
9	0x3f2de618	0.6792922
10	0xbe117258	-0.14203775
11	0xbc940f50	-0.018073708
12	0x3f50d592	0.8157588
13	0x3e0ac319	0.13550986
14	0xbe9d0b43	-0.30672655
15	0x3eca9af5	0.39571348
16	0x3f4ae887	0.7926106
17	0xbf31c013	-0.69433707
18	0xbf265516	-0.6497358
19	0x3f37427b	0.71585816
20	0x3f2ca776	0.67443025
21	0x3f30efae	0.6911572
22	0xbc9ee4a9	-0.019396143
23	0xbefbfe67	-0.4921753
24	0xbf19add3	-0.6003086
25	0x3e1560c5	0.14587696
26	0x3e47e8cc	0.19522399
27	0xbe944d0e	-0.28965038
28	0x3ebb733f	0.36611363
29	0xbd5ccbdc	-0.053905353
30	0xbe26bd27	-0.16283093
31	0xbf6a4b2a	-0.9152094
32	0x3e1061a7	0.14099751
33	0xbf45a340	-0.77202225
34	0xbb80daa7	-0.0039323154
35	0xbcb3cd6c	-0.021948539
36	0xbd8a7d99	-0.06762237
37	0x3e4bfc1e	0.19920394
38	0x3ed6fda4	0.41990387
39	0xbe807e97	-0.2509658
40	0xbeef01d1	-0.46681073
41	0xbee5e02e	-0.44897598
42	0xbad6a14d	-0.0016374976
43	0x3f0a28bf	0.53968424
44	0x3ed3cac6	0.4136564
45	0x3e59f7df	0.21285962
46	0x3e101d2f	0.14073633
47	0xbef8afaf	-0.48571536
48	0x3d8e657c	0.0695295
49	0xbe982f73	-0.297237
50	0xbde26a2a	-0.110554054
51	0xbdbffea3	-0.0937474
52	0xbf5371b6	-0.82595384
53	0xbec7a610	-0.38993883
54	0xbde2107a	-0.11038299
55	0xbf199098	-0.5998626
56	0xbe3fcb74	-0.18729955
57	0x3e42d9a6	0.19028339
58	0x3f253e83	0.6454851
59	0xbe0865d2	-0.13320091
60	0xbf442b5e	-0.76628673
61	0xbe0de874	-0.13858205
62	0xbbb6aa6c	-0.005574515
63	0xbe17c1cf	-0.14820026

fc_hidden.lin_in.weight f4 [128, 64]
0	0xbe9c13a2	-0.3048373
1	0xbed39ffd	-0.41333
2	0x3ddbfaa0	0.10741162
3	0xbc613ceb	-0.013747434
4	0x3d989efd	0.074521996
5	0xbee0e62a	-0.439256
6	0xbe011e9b	-0.12609331
7	0x3eb2d496	0.34927815
8	0xbd513e57	-0.051084843
9	0xbe5ece4e	-0.21758386
10	0x3dad0b78	0.08449453
11	0xbe71372c	-0.23556203
12	0xbd331d66	-0.04372921
13	0xbe428064	-0.1899429
14	0xbd4f0159	-0.050538395
15	0x3dfb010f	0.12256061
16	0xbea5ef9a	-0.32409364
17	0xbe7edb0a	-0.24888244
18	0xbd6bff70	-0.05761665
19	0xbe68d6ad	-0.22738142
20	0x3ea3f005	0.32019058
21	0xbe97303c	-0.29528987
22	0xbf097f06	-0.5370945
23	0xbe4d8210	-0.20069146
24	0xbe28aab4	-0.16471368
25	0x3e8c2960	0.27375317
26	0x3d3c87d8	0.04602799
27	0xbd2f10ac	-0.04274051
28	0xbe7d41fa	-0.247322
29	0x3dff90e4	0.124788076
30	0x3da07016	0.07833879
31	0x3fa8cbc8	1.3187189
32	0xbe9635cf	-0.29337928
33	0x3f62816f	0.8847875
34	0xbacb3c60	-0.0015505664
35	0x3ddbac91	0.10726274
36	0x3ea9fe29	0.3320172
37	0xbda02b27	-0.07820731
38	0xbdfdc7b8	-0.12391609
39	0xbd9554dd	-0.07291577
40	0xbd210dd7	-0.03931984
41	0x3de4831c	0.1115782
42	0x3d7bd26c	0.06147997
43	0xbdc1ebc7	-0.09468799
44	0xbe34c9f9	-0.17655171
45	0x3b9b21f0	0.0047342703
46	0xbdaac3c6	-0.08338122
47	0xbe4fd8e1	-0.20297576
48	0xbd5459fe	-0.051843636
49	0xbdbba81f	-0.09162926
50	0xbdcdc674	-0.100476176
51	0xbe46f5ec	-0.19429749
52	0x3e2c5995	0.16831048
53	0xbf2e4fa5	-0.6809028
54	0xbd921dc4	-0.071345836
55	0x3cfe3995	0.031033317
56	0xbef7a6d4	-0.48369467
57	0x3d8e4e9a	0.06948586
58	0xba61b2ce	-0.0008609713
59	0x3dcb6e4d	0.099331476
60	0xbea7797f	-0.32709882
61	0xbe675792	-0.22591999
62	0x3eaade30	0.3337264
63	0xbe51a28d	-0.20472164
64	0xbd0dfb25	-0.03466334
65	0x3d83a80c	0.06428537
66	0xbea628dc	-0.32453048
67	0x3c70a602	0.014688017
68	0xbeb5bf6f	-0.35497615
69	0x3ced5962	0.028973285
70	0xbe540521	-0.20705082
71	0xbb38df29	-0.0028209186
72	0x3d7b840f	0.061405238
73	0xbc42dd55	-0.01189359
74	0x3de03a0b	0.10948571
75	0x3e3fe2b9	0.18738832
76	0x3e71f8cb	0.23630063
77	0x3e5a70b6	0.21332058
78	0xbe5a4303	-0.21314625
79	0xbd4865d5	-0.04892524
80	0xbd04a4ba	-0.032383658
81	0xbea44f50	-0.3209176
82	0x3d8401be	0.06445645
83	0xbdb3db01	-0.08782006
84	0x3e0af260	0.13569021
85	0x3e413eab	0.18871562
86	0xbc6cf40c	-0.014462482
87	0xbdc87285	-0.09787468
88	0xbc378b48	-0.011202641
89	0xbbfe8e72	-0.0077684456
90	0x3df2d94b	0.118578516
91	0xbcbe1c6c	-0.023206912
92	0x3c84fbce	0.016233351
93	0xbde0b372	-0.109717265
94	0x3db29f6b	0.08721813
95	0xc03470ef	-2.819393
96	0x3e00e300	0.12586594
97	0xbea8213b	-0.32837853
98	0xbe19a154	-0.15002948
99	0xbd23617a	-0.039887883
100	0x3c62854d	0.013825727
101	0xbe8ab13f	-0.27088353
102	0xbd10c17c	-0.03534077
103	0xbe1d39c4	-0.15354067
104	0x3de6fbdc	0.11278507
105	0xbec5e717	-0.3865287
106	0x3d3efc56	0.046627365
107	0x3d9473b8	0.07248634
108	0xbdd315e0	-0.10306907
109	0xbd373fdf	-0.044738647
110	0x3e64737d	0.2230968
111	0x3d5ed7eb	0.054405134
112	0xbe442772	-0.19155672
113	0x3e3f654c	0.18690985
114	0x3e7ea583	0.24867825
115	0x3da25a25	0.0792735
116	0xbdf41184	-0.11917403
117	0xbe56c04e	-0.20971796
118	0xbe69803d	-0.22802825
119	0x3e200130	0.15625453
120	0x3dab8ad0	0.08376086
121	0xbdee4f28	-0.116361916
122	0x3dd7b131	0.105318435
123	0xbe4ce00b	-0.2000734
124	0x3f09298c	0.5357902
125	0xbd14ee8d	-0.036360312
126	0x3dd17777	0.10227864
127	0x3d99d8e0	0.07512069
128	0x3d108a9d	0.035288442
129	0xbe1b0425	-0.151383
130	0xbca38936	-0.019962888
131	0x3d27ff35	0.04101487
132	0xbe5b9c0b	-0.21446244
133	0xbe6a8ebe	-0.22906014
134	0x3e808ac3	0.25105867
135	0x3e3fe03e	0.18737885
136	0x3dd1ecca	0.10250242
137	0xbc577814	-0.013151187
138	0x3e205bd3	0.15660028
139	0xbdb7d738	-0.089765966
140	0x3db67a0d	0.08909998
141	0x3dc20d52	0.09475197
142	0xbd9e6031	-0.07733191
143	0xbecba3c1	-0.39773372
144	0x3e1f85d2	0.15578392
145	0xbd1025e0	-0.03519237
146	0x3e4ba195	0.19885857
147	0xbd3833a7	-0.044971135
148	0x3d8c79ba	0.06859155
149	0xbd50c7dd	-0.050971854
150	0x3de66e92	0.11251558
151	0xbdad892f	-0.08473431
152	0xbdc8f3fb	-0.098121606
153	0x3db469c9	0.088092394
154	0xbf904b13	-1.1272911
155	0xbddc76d1	-0.1076485
156	0xbe803168	-0.25037694
157	0xbe023a25	-0.12717493
158	0x3e124511	0.14284159
159	0xbfdc6498	-1.7218199
160	0x3e34f8d9	0.17673053
161	0xbdba3962	-0.09092976
162	0xbe2ec0b2	-0.17065695
163	0x3e5fecd0	0.2186768
164	0xbe1027f6	-0.14077744
165	0x3e045612	0.12923458
166	0x3ecb0429	0.3965161
167	0xbe8b558b	-0.27213702
168	0x3e088032	0.13330153
169	0xbe536179	-0.20642652
170	0x3e6f7995	0.23386224
171	0xbd80e145	-0.06292967
172	0x3e047fbf	0.12939356
173	0xbe0d6a2f	-0.13810037
174	0xbe163d5c	-0.14671844
175	0x3e00bf6d	0.12573023
176	0xbd84c5f7	-0.06483071
177	0xbc493657	-0.012281022
178	0x3d9bf0b4	0.0761427
179	0x3c87b67a	0.016566504
180	0x3e1f0a15	0.1553119
181	0xbd9fb5f4	-0.07798377
182	0xbc3ae9b8	-0.011408262
183	0xbda866f9	-0.082227655
184	0xbe1a1f2e	-0.15050957
185	0x3d1a0f05	0.03761198
186	0x3e426f2d	0.18987723
187	0x3cadf213	0.021233594
188	0xbe031eb7	-0.12804686
189	0xbe2c361f	-0.1681752
190	0x3e8a6520	0.27030277
191	0x3bd2818d	0.006424135
192	0x3e02d235	0.127755
193	0xbe121c11	-0.14268519
194	0x3e83c48b	0.25735888
195	0x3dc1b6cc	0.09458694
196	0x3e0d8c2e	0.13823006
197	0x3e1f576f	0.15560697
198	0xbede0778	-0.43365073
199	0xbe690383	-0.22755246
200	0x3ec6807e	0.38769907
201	0xbdbe38c1	-0.09288169
202	0xbe4d98ca	-0.20077816
203	0xbda6b2c3	-0.08139565
204	0xbde3dc23	-0.11125972
205	0xbe5732ba	-0.21015444
206	0xbe83a60f	-0.2571263
207	0x3c7396ac	0.014867466
208	0xbcec3b6b	-0.028836926
209	0xbeb8bc80	-0.36081314
210	0xbead6da8	-0.33872724
211	0x3edb5b54	0.42843115
212	0x3eae10b9	0.33997133
213	0xbda0369f	-0.07822918
214	0xbdb79496	-0.089638874
215	0xbe439539	-0.19099893
216	0x3e75a705	0.23989494
217	0xbd821eac	-0.063535064
218	0x3d912ac0	0.07088232
219	0x3e1bee08	0.1522752
220	0xbd91c847	-0.07118278
221	0x3cc85baa	0.024457771
222	0xbeb172f5	-0.34658018
223	0x3e83a46f	0.2571139
224	0xbe564f0e	-0.20928594
225	0x3f677126	0.90407026
226	0x3e8e0e8d	0.27745476
227	0xbe27a73a	-0.16372386
228	0x3eab3435	0.33438268
229	0x3d95eaaa	0.07320149
230	0xbe325667	-0.17415772
231	0x3e0e6247	0.13904677
232	0x3e5f6f86	0.21819887
233	0x3ea211ee	0.31654304
234	0xbde258ae	-0.110520706
235	0xbd263728	-0.040579945
236	0x3d867ff3	0.06567373
237	0x3d60abcb	0.054851335
238	0xbd89b10c	-0.06723222
239	0x3e221274	0.15827352
240	0xbd5238c2	-0.05132366
241	0xbdbff1cd	-0.09372292
242	0x3d0365a9	0.032079373
243	0x3ca1bb29	0.019742565
244	0xbecfa6ce	-0.4055695
245	0xbd9e0af7	-0.07716935
246	0xbeaa484c	-0.33258283
247	0x3e333287	0.17499743
248	0x3dd9aa63	0.10628202
249	0xbe164c30	-0.146775
250	0xbeb2eb8c	-0.34945333
251	0x3d87639b	0.06610795
252	0xbe3bf0fa	-0.18353644
253	0xbe2a8d6a	-0.16655508
254	0x3e501b22	0.2032285
255	0x3e2815ac	0.16414517

fc_hidden.lin_in.bias f4 [128]
0	0xbd236b3b	-0.039897185
1	0x3e256920	0.16153383
2	0x3d80ef5e	0.06295656
3	0x3c9a5498	0.018839166
4	0xbddb2bb3	-0.10701694
5	0x3be65dea	0.0070302384
6	0xbe30cfda	-0.17266789
7	0xbe2237a5	-0.15841539
8	0x3d79ee6a	0.061018385
9	0x3d6e77b7	0.058219638
10	0xbbc561bd	-0.006023614
11	0x3bfa6163	0.007641004
12	0x3d892ed8	0.06698388
13	0x3db8b070	0.09018028
14	0x3c85d15a	0.016335178
15	0xbdbb4517	-0.09144037
16	0xbe056b5c	-0.13029236
17	0xbdfe1985	-0.12407211
18	0x3db01810	0.085983396
19	0xbcb2daf7	-0.021832926
20	0x3d6ed869	0.058311854
21	0x3d040d5b	0.0322393
22	0xbdc66506	-0.096872374
23	0xbaa5baeb	-0.0012644207
24	0xbe6388a3	-0.22220092
25	0xbdbb6a27	-0.09151106
26	0xbe3fe1ef	-0.1873853
27	0x3dee5ee1	0.116391905
28	0xbdd800b3	-0.10547008
29	0xbdacd272	-0.08438577
30	0x3bb57288	0.005537335
31	0xbd03c8dc	-0.032173976
32	0xbd0d7d0c	-0.034543082
33	0xbe75b212	-0.2399371
34	0x3cb55772	0.022136424
35	0x3ded3bd1	0.11583675
36	0x3dd844de	0.105600104
37	0xbc304f7c	-0.010761138
38	0x3cefb9d7	0.02926342
39	0x3e06a438	0.13148582
40	0x3d6ce184	0.057832256
41	0x3c8467f0	0.016162843
42	0xbe86fef3	-0.26366386
43	0x3db7d785	0.08976654
44	0xbd454f4c	-0.048171327
45	0xbe11e927	-0.14249097
46	0xbd374b4e	-0.04474955
47	0xb9734d00	-0.0002320297
48	0xbe0c6e4f	-0.13713954
49	0x3d61485c	0.055000648
50	0x3d8c1b3c	0.06841132
51	0x3e1e4af6	0.15458283
52	0xbe193100	-0.14960098
53	0xbccb8f10	-0.024848491
54	0xbe1056b8	-0.1409558
55	0xbb11cf6a	-0.0022248873
56	0xbdd0d9fb	-0.101978265
57	0xbe1b63e8	-0.1517483
58	0x3be5411f	0.0069962884
59	0xbe5a60e9	-0.21326031
60	0xbdfdb68d	-0.123883344
61	0x3d05093a	0.032479502
62	0xbdd0ed04	-0.10201457
63	0xbc999edc	-0.018752508
64	0x3e150308	0.14551938
65	0xbdcfa1d8	-0.10138291
66	0x3dc2945d	0.09500954
67	0x3e1cb2c6	0.15302572
68	0x3ddbc24f	0.10730421
69	0x3da6340a	0.081153944
70	0x3cb2af0c	0.021811984
71	0x3d928638	0.071545064
72	0xbc1fc268	-0.00975094
73	0x3da50fdb	0.08059665
74	0xbbc7e26a	-0.0060999887
75	0x3e050627	0.12990628
76	0xbd6b56b2	-0.057455726
77	0x3dc6a7af	0.09699952
78	0x3dbe4c43	0.092918895
79	0x3e251dba	0.16124621
80	0xbd9526a2	-0.07282759
81	0x3d4779f1	0.048700277
82	0x39ac1705	0.00032823547
83	0xbe1fb5c5	-0.15596683
84	0x3da7e6c8	0.08198315
85	0x3da1e9ac	0.079058975
86	0x3e247f11	0.16064097
87	0x3cd8f1c6	0.026482474
88	0x3d7a575e	0.061118476
89	0x3daaedd8	0.08346146
90	0x3df424a5	0.11921052
91	0x3e18ddca	0.14928356
92	0x3dcc9c5b	0.0999076
93	0xbdc5fc3f	-0.09667253
94	0xbdc68ce4	-0.096948415
95	0x3e0223ae	0.12708923
96	0xbc7c69e8	-0.015406109
97	0x3d791c31	0.0608179
98	0xbc209c97	-0.009802959
99	0xbdb9a328	-0.09064323
100	0x3c8695dd	0.016428882
101	0x3e28def5	0.16491301
102	0x3db2392c	0.08702311
103	0xbc0cee8e	-0.008601798
104	0xbccf13ce	-0.025277998
105	0xbe0a0735	-0.13479312
106	0xbdc1db26	-0.09465627
107	0x3caf9454	0.021433033
108	0x3d1d8c92	0.038464136
109	0xbd023305	-0.031786937
110	0x3d02a8b0	0.031899154
111	0xbb76db44	-0.0037667314
112	0x3d3cbf34	0.046080783
113	0xbe033993	-0.12814932
114	0x3dc2da63	0.0951431
115	0xbd8158e8	-0.06315786
116	0xbe0be1cf	-0.13660358
117	0xbe2466eb	-0.16054885
118	0xbded170c	-0.115766615
119	0x3e1d3b9c	0.1535477
120	0x3d843a6a	0.06456454
121	0xbcf986ff	-0.030459879
122	0xbd47bdea	-0.0487651
123	0xbd81d98f	-0.06340324
124	0xbdcf7fe3	-0.10131814
125	0xbd8e9954	-0.06962839
126	0x3dde2166	0.10846214
127	0x3d83671d	0.06416152

fc_hidden.lin_out.weight f4 [64, 128]
0	0xbe9fae59	-0.31187704
1	0x3e412c56	0.18864569
2	0x3ebcd72a	0.36882907
3	0xbe466938	-0.19376075
4	0xbd4b0d08	-0.049572974
5	0xbdbb8b91	-0.091574796
6	0x3d9b7bdd	0.075919844
7	0x3d33eee0	0.04392898
8	0x3e83199d	0.2560548
9	0x3df9f5ed	0.1220511
10	0x3e1ca1ba	0.15296069
11	0x3d159427	0.036518242
12	0xbe44bda8	-0.19212973
13	0x3f016765	0.5054839
14	0x3d7a6d34	0.0611393
15	0xbdde481a	-0.10853596
16	0x3dc4c03b	0.096069776
17	0xbe03c14f	-0.1286671
18	0x3e1956c8	0.1497451
19	0x3a2a19ef	0.000648885
20	0x3e8dc1f4	0.27687037
21	0x3df9a59c	0.121897906
22	0xbdc5647e	-0.09638308
23	0x3b57b456	0.0032913885
24	0xbca18ddb	-0.019720962
25	0x3d8072ca	0.06271894
26	0x3d286771	0.041114274
27	0xbe66eb8d	-0.22550793
28	0x3d87a5e4	0.06623438
29	0x3c6f992e	0.014623923
30	0xbbeaaf1c	-0.007161988
31	0x3d490554	0.049077347
32	0x3dd41550	0.103556275
33	0xbed8f8ed	-0.42377415
34	0x3e96c667	0.29448244
35	0xbe65dc69	-0.22447361
36	0x39595112	0.00020724934
37	0xbd68b6b6	-0.05681487
38	0xbea8458b	-0.32865557
39	0x3cbd86d9	0.02313559
40	0x3dfd09dc	0.12355396
41	0xbae72e62	-0.0017637725
42	0xbe1d11bb	-0.15338795
43	0xbdaabee3	-0.0833719
44	0xbd034501	-0.03204823
45	0x3e215925	0.15756662
46	0x3d211773	0.039329004
47	0xbe1122a9	-0.14173378
48	0x3c82c571	0.015963288
49	0x3dc61168	0.09671289
50	0x3ecbad03	0.39780435
51	0xbef6c562	-0.48197466
52	0x3d7d6715	0.061865885
53	0x3e3b5c71	0.18296982
54	0xbe2e684f	-0.17031978
55	0xbdba3eab	-0.09093984
56	0xbd60fb8d	-0.054927398
57	0xbe0fcbe1	-0.14042617
58	0xbd992a99	-0.07478828
59	0xbe501eca	-0.20324245
60	0xbeb73d0c	-0.35788763
61	0x3e8dee69	0.27720955
62	0x3e522336	0.20521244
63	0xbdf2381b	-0.118271075
64	0xbd8aa0b5	-0.06768934
65	0xbe9d8cdf	-0.3077154
66	0x3c3c2378	0.011483066
67	0x3e400546	0.18752012
68	0xbd96cc2a	-0.0736316
69	0xbe3093a1	-0.17243816
70	0x3b4b19a8	0.0030990634
71	0x3e254274	0.16138631
72	0x3e8a7454	0.27041876
73	0xbe2d347d	-0.16914554
74	0x3d503f19	0.050841425
75	0x3ea6d5c0	0.32584953
76	0x3d8fdab2	0.07024135
77	0xbe588f9b	-0.21148531
78	0x3e73cb74	0.2380808
79	0xbd088e59	-0.03333888
80	0x3f1b6c7e	0.6071242
81	0x3def1c5e	0.116753325
82	0x3e95987b	0.29217896
83	0x3e03b6d5	0.12862714
84	0xbede0db8	-0.43369842
85	0x3e81ce2d	0.25352612
86	0xbdf2250d	-0.11823473
87	0xbe3f319d	-0.1867127
88	0xbebded1f	-0.37094972
89	0xbea1fa54	-0.31636298
90	0xbe651a34	-0.22373277
91	0xbdb7d8ba	-0.08976884
92	0x3e013f53	0.12621813
93	0xbd4b9c83	-0.049709808
94	0x3dd485f9	0.10377116
95	0xbd5e8663	-0.05432738
96	0x3d27557a	0.040853
97	0x3e9032e6	0.28163832
98	0xbd0cad50	-0.03434497
99	0x3dabc320	0.083868265
100	0x3ec397b3	0.38201675
101	0xbe3cc0e6	-0.1843296
102	0x3d0b6cf4	0.034039453
103	0x3dc60ad0	0.09670031
104	0x3e1b6cb7	0.1517819
105	0xbed083bf	-0.40725514
106	0x3ea46af4	0.3211285
107	0xbe8270fb	-0.25476822
108	0xbe20c410	-0.15699792
109	0xbe7e5571	-0.24837281
110	0xbe69cdb9	-0.22832383
111	0xbe64cf03	-0.22344594
112	0xbe7f6536	-0.24940953
113	0x3daa2c8a	0.083092764
114	0xbd5efa02	-0.054437645
115	0x3c4346b2	0.011918711
116	0xbed4af73	-0.41540107
117	0x3e8d2a4c	0.27571332
118	0xbd4a46a7	-0.049383786
119	0x3d76f22b	0.060289543
120	0xbdf7bc5f	-0.12096476
121	0xbcaa5f12	-0.020797286
122	0xbec678f4	-0.38764155
123	0x3e8059cd	0.25068513
124	0x3e0dd10f	0.13849281
125	0x3d0be1a6	0.034150742
126	0xbe3b1ff6	-0.18273911
127	0x3ca0844f	0.01959434
128	0x3d944373	0.072394274
129	0x3bb321f2	0.005466693
130	0x3e5dceb2	0.21660879
131	0xbdc6ca39	-0.0970654
132	0xbd9e737c	-0.07736871
133	0xbe2418fe	-0.16025159
134	0xbe217b8e	-0.15769789
135	0xbec4c9e7	-0.3843529
136	0xbe89106d	-0.26770344
137	0x3db25d0b	0.08709153
138	0x3e388e6d	0.18023081
139	0x3e9f75ba	0.31144506
140	0xbca1851e	-0.019716796
141	0xbe0d30b3	-0.13788109
142	0x3eb69879	0.35663202
143	0xbe6daa75	-0.23209555
144	0xbe33b4d2	-0.17549446
145	0x3ce13f3e	0.027495977
146	0xbd934de1	-0.071925886
147	0x3d33ac27	0.04386535
148	0xbe38ec12	-0.18058804
149	0x3d81a440	0.06330156
150	0xbe3a4136	-0.18188938
151	0x3e5a18f7	0.21298586
152	0xbe7b9135	-0.24567111
153	0xbe62d5d8	-0.22151887
154	0x3e7fed08	0.24992764
155	0xbd6442f9	-0.055727933
156	0x3daaa4dd	0.083322264
157	0xbe0b6f6f	-0.13616727
158	0xbe925158	-0.28577685
159	0xbf1a51a4	-0.60280824
160	0xbd229567	-0.039693262
161	0xbec2700a	-0.37976104
162	0xbe184278	-0.14869106
163	0x3e1b2311	0.15150096
164	0x3e2037d2	0.15646294
165	0x3e17a7c4	0.14810091
166	0xbc4df6bf	-0.012571036
167	0xbe905741	-0.2819157
168	0xbed475d9	-0.4149616
169	0x3d246021	0.04013074
170	0xbe48660c	-0.19570178
171	0x3e82cc78	0.25546622
172	0xbe48ab53	-0.19596605
173	0xbd1d2d7a	-0.038373448
174	0xbed61219	-0.41810682
175	0x3e132a83	0.14371686
176	0xbec33570	-0.38126707
177	0xbcf80517	-0.030275865
178	0xbdfa9b8b	-0.12236699
179	0x3ece78e9	0.40326622
180	0x3d4499c3	0.0479982
181	0x3e07a61c	0.1324696
182	0x3e97dab5	0.29659048
183	0x3e9afd72	0.30271488
184	0x3e23a40f	0.15980552
185	0xbcd1f247	-0.025628222
186	0xbe760c5a	-0.24028149
187	0xbd27116a	-0.04078809
188	0x3e886a06	0.2664339
189	0xbe39f9fe	-0.1816177
190	0xbeb921e8	-0.3615868
191	0xbcd7b5fa	-0.02633189
192	0xbea8c408	-0.3296206
193	0xbce08652	-0.027407799
194	0xbc274d28	-0.010211267
195	0xbce85f47	-0.028365744
196	0x3b1aa2d2	0.0023595584
197	0xbe813780	-0.25237656
198	0x3e21dc2b	0.15806644
199	0x3e232a02	0.15933993
200	0x3ce83c35	0.028349021
201	0x3da83a41	0.08214236
202	0xbe73650a	-0.23769012
203	0x3cf5a480	0.029985666
204	0xbea911e5	-0.33021465
205	0xbe5ebf0c	-0.21752566
206	0x3dd56e0a	0.10421379
207	0x3e0757e4	0.13217121
208	0xba2c4418	-0.0006571426
209	0x3c066caa	0.0082046185
210	0xbd9d7e37	-0.07690089
211	0xbd0a4d81	-0.03376532
212	0x3e99258e	0.29911464
213	0x3e3bbeb5	0.18334468
214	0xbcd83899	-0.026394175
215	0xbe23c28f	-0.15992187
216	0x3ec824c3	0.39090547
217	0x3d561bf5	0.052272756
218	0xbc8ee495	-0.01744298
219	0xbda7c179	-0.08191199
220	0x3e882fe3	0.26599035
221	0xbed64ab0	-0.41853857
222	0x3da4781c	0.080307215
223	0xbe228666	-0.15871581
224	0xbd91cdf7	-0.07119363
225	0x3c32ecc7	0.01092071
226	0x3dec2b01	0.1153164
227	0x3e3f30ea	0.18671003
228	0xbebb4e03	-0.36582956
229	0x3ddf1aee	0.10893808
230	0xbd19715a	-0.037461616
231	0xbeae7f34	-0.34081423
232	0x3d00388f	0.03130394
233	0xbccf3adc	-0.025296621
234	0xbc550bc6	-0.013003295
235	0x3ea68c00	0.32528687
236	0x3e962445	0.29324546
237	0xbe0bd080	-0.13653755
238	0x3e2e2f1e	0.17010161
239	0xbe3d982b	-0.18515079
240	0xbef7b708	-0.4838183
241	0xbe5d2959	-0.21597804
242	0x3d849946	0.06474547
243	0x3e229b41	0.15879537
244	0xbe06755a	-0.13130704
245	0xbde54f7f	-0.11196803
246	0xbe1c9345	-0.15290554
247	0xbe3abf0c	-0.18236941
248	0x3efb3baa	0.49068958
249	0x3daf9ac9	0.08574445
250	0xbea40a1e	-0.3203897
251	0xbb5d2879	-0.0033746047
252	0xbd03cf7e	-0.0321803
253	0x3ea9e964	0.33185875
254	0xbdfb9866	-0.12284927
255	0x3e125d07	0.142933

fc_hidden.lin_out.bias f4 [64]
0	0x3d913b02	0.07091333
1	0xbc47bf6a	-0.012191633
2	0xbc4df0e5	-0.012569641
3	0xbd94f034	-0.072723776
4	0x3d259bbe	0.04043173
5	0x3d9ec55d	0.07752488
6	0x3d676215	0.056490023
7	0x3cdbd4a6	0.026834797
8	0xbd48a2bb	-0.048983317
9	0xbc79401a	-0.015213037
10	0xbd1a57d8	-0.03768143
11	0xbdd521bb	-0.10406824
12	0x3c9c5a17	0.019085927
13	0x3d988dbe	0.0744891
14	0xbcd30f5e	-0.025764164
15	0x3d2f584a	0.04280881
16	0x3d2d95f4	0.042379335
17	0xbb1c7e56	-0.0023879013
18	0xbd93be2b	-0.07214006
19	0x3bfe2243	0.007755549
20	0xbc83d415	-0.01609234
21	0xbc1a4a9f	-0.009417205
22	0xbd25bfb2	-0.040466018
23	0x3d50de63	0.050993335
24	0xbdc3003f	-0.09521531
25	0x3dd20c95	0.10256306
26	0x3d54b829	0.05193344
27	0x3d0c5c2a	0.034267582
28	0xbcdb4768	-0.026767448
29	0xbd7e9ce5	-0.062161345
30	0x3d971946	0.073778674
31	0xbd825cb2	-0.063653365
32	0x3d4ca411	0.049961153
33	0xbd909f24	-0.07061604
34	0x3d0d324b	0.03447179
35	0xbc7a8d30	-0.015292451
36	0xbd58be9b	-0.05291615
37	0xbd7a55c4	-0.06111695
38	0xbdc6e9a6	-0.09712534
39	0x3c94f77f	0.018184422
40	0xbdd81c98	-0.10552329
41	0xbd603874	-0.054741338
42	0xbdc04332	-0.093878165
43	0xbd188ca3	-0.037243497
44	0xbdd940cd	-0.10608063
45	0x3dba84d2	0.09107365
46	0x3d45343d	0.04814552
47	0xbd63faab	-0.055658977
48	0x3bfebd01	0.007773996
49	0x3cd9ef7c	0.026603453
50	0xbcce8cec	-0.025213681
51	0xbce7f773	-0.028316235
52	0xbd19e59f	-0.0375725
53	0xbd8d8a6e	-0.06911169
54	0x3ce27609	0.027644174
55	0xbb409ea8	-0.0029391441
56	0x3d0749d4	0.033029392
57	0xbcefb6b9	-0.029261934
58	0xbdb0cd8e	-0.086329564
59	0xbd2fa32f	-0.042880233
60	0xbd3c576c	-0.04598181
61	0xbd8e9abe	-0.069631085
62	0xbd1c8ba0	-0.038219094
63	0x3d3808a4	0.044930115

fc_hidden.norms.0.weight f4 [128]
0	0x3f912f3c	1.134254
1	0x3f7810d6	0.9690069
2	0x3f88e989	1.0696269
3	0x3f9b9c9b	1.2157167
4	0x3f66ce7f	0.9015884
5	0x3f96472c	1.174047
6	0x3f8f75fe	1.1207883
7	0x3f90e177	1.1318806
8	0x3f7b045a	0.98053515
9	0x3f913a96	1.1346004
10	0x3f6db86b	0.92859524
11	0x3f80c76a	1.0060856
12	0x3f736074	0.9506905
13	0x3f8b3130	1.0874386
14	0x3f69c984	0.91323113
15	0x3f717078	0.9431224
16	0x3f8ce40f	1.1007098
17	0x3f9a5302	1.2056582
18	0x3f670d21	0.9025441
19	0x3fa77cad	1.3084923
20	0x3f752914	0.95765805
21	0x3f80c1e8	1.0059175
22	0x3f9b8811	1.2150899
23	0x3f914b1c	1.1351047
24	0x3f822e64	1.0170407
25	0x3f710ea8	0.9416299
26	0x3f65f144	0.8982127
27	0x3f6aa347	0.9165539
28	0x3f906efb	1.1283869
29	0x3f866fca	1.0502865
30	0x3fa16a8f	1.2610644
31	0x3f65a3b9	0.89702946
32	0x3f8ac175	1.0840288
33	0x3f9602cf	1.1719607
34	0x3f850be9	1.039426
35	0x3f81266a	1.0089848
36	0x3f99842a	1.1993458
37	0x3f7873d9	0.9705177
38	0x3f79adcd	0.97530824
39	0x3f2ca3dd	0.67437536
40	0x3f534459	0.82526165
41	0x3f820c11	1.0159932
42	0x3fa40be0	1.2816124
43	0x3f8aa3ac	1.0831199
44	0x3f408111	0.7519694
45	0x3f8f851b	1.1212496
46	0x3f88306e	1.063978
47	0x3f98e18d	1.1943833
48	0x3f859406	1.0435798
49	0x3f731fa7	0.9497017
50	0x3f8dac2e	1.106817
51	0x3f8de6ac	1.108602
52	0x3f84cbac	1.0374656
53	0x3f747acc	0.95499873
54	0x3f9d4a94	1.2288384
55	0x3f8d5775	1.1042315
56	0x3f8acb55	1.0843302
57	0x3f5c4c6c	0.8605411
58	0x3fa5883d	1.2932202
59	0x3f57e321	0.84330946
60	0x3f7e7e80	0.99411774
61	0x3fd14628	1.6349535
62	0x3f8de6af	1.1086024
63	0x3f6aba23	0.9169027
64	0x3f8b1b1e	1.086765
65	0x3f89160c	1.0709853
66	0x3f65fc21	0.89837843
67	0x3f8491a7	1.035695
68	0x3f69e35b	0.9136254
69	0x3f6ce853	0.92542
70	0x3f6ea113	0.9321453
71	0x3f9d2ca7	1.2279252
72	0x3f854062	1.0410273
73	0x3f9c3326	1.2203109
74	0x3f4d2e53	0.8014881
75	0x3f89689f	1.0735053
76	0x3f90dea2	1.1317942
77	0x3f87a7ac	1.0598044
78	0x3f8592e5	1.0435454
79	0x3f71f4ab	0.9451396
80	0x3f918c54	1.137095
81	0x3f81d88d	1.0144211
82	0x3f7a07d2	0.9766818
83	0x3f9bbf97	1.2167844
84	0x3f9d090a	1.2268384
85	0x3f67edce	0.90597236
86	0x3f5b0821	0.8555928
87	0x3f858db8	1.0433874
88	0x3f954214	1.166079
89	0x3f8fa649	1.1222621
90	0x3f87dc3f	1.0614089
91	0x3f80d0b5	1.0063692
92	0x3f4a49d4	0.790189
93	0x3f866773	1.050032
94	0x3f9017ba	1.1257241
95	0x3f8e7fee	1.1132791
96	0x3fadc268	1.3574953
97	0x3f8b2790	1.0871449
98	0x3f7b05cb	0.98055714
99	0x3f9b116d	1.2114693
100	0x3fbaeb85	1.4603125
101	0x3f933f25	1.1503645
102	0x3f8764b7	1.0577611
103	0x3f84d729	1.0378162
104	0x3f6b8e68	0.9201417
105	0x3f7afb0f	0.98039335
106	0x3f4a527a	0.790321
107	0x3f8a3a43	1.079903
108	0x3f7f745a	0.99786913
109	0x3f8666c0	1.0500107
110	0x3f8071f8	1.003478
111	0x3f80e9fb	1.0071405
112	0x3f7d1d88	0.98873186
113	0x3f83240f	1.0245379
114	0x3f6cac98	0.9245086
115	0x3f874dff	1.0570678
116	0x3f91252c	1.1339469
117	0x3f721e15	0.9457715
118	0x3f879476	1.0592182
119	0x3f8439ba	1.0330117
120	0x3f86d563	1.053387
121	0x3f9f6a69	1.2454349
122	0x3f8e2614	1.110537
123	0x3f8cb170	1.099165
124	0x3f926713	1.1437706
125	0x3f82b220	1.021061
126	0x3f8f683d	1.1203686
127	0x3f862a66	1.0481689

fc_hidden.norms.0.bias f4 [128]
0	0xbe9bf918	-0.3046348
1	0x3ea01397	0.31264946
2	0x3d54a365	0.051913638
3	0xbddaa133	-0.106752776
4	0x3cb5c955	0.02219073
5	0xbef2f757	-0.4745433
6	0xbea150dd	-0.31507006
7	0x3e1f7fc5	0.15576084
8	0xbec1c90e	-0.37848705
9	0xbd55fb36	-0.052241527
10	0xbf361e61	-0.71140105
11	0xbd565245	-0.052324552
12	0xbe19ee8a	-0.15032402
13	0xbed49240	-0.4151783
14	0x3e665a1a	0.22495309
15	0xbf262f3d	-0.6491583
16	0xbe9db2c8	-0.30800462
17	0x3d83b86d	0.06431661
18	0xbe698f77	-0.22808634
19	0xbf1a6e90	-0.60324955
20	0xbe9fd228	-0.31215024
21	0xbe902da5	-0.28159824
22	0xbf0de91e	-0.55433834
23	0x3d0be4ba	0.034153678
24	0xbe97caf1	-0.2964702
25	0xbe902113	-0.28150234
26	0xbee651c6	-0.44984263
27	0xbec8a98f	-0.39191863
28	0x3e63ea92	0.2225745
29	0xbe8ba144	-0.27271473
30	0xbf14ccc8	-0.5812497
31	0xbf0bc330	-0.5459471
32	0xbe94b4ef	-0.2904429
33	0xbec7f79e	-0.39056104
34	0xbea3a5a0	-0.319623
35	0xbe268a92	-0.16263798
36	0x3d47c5a5	0.048772473
37	0xbe61a65e	-0.2203612
38	0xbe6db65f	-0.232141
39	0xbf01cb82	-0.50701153
40	0xbebd7191	-0.37000707
41	0xbee5f4f5	-0.4491345
42	0xbece6031	-0.40307763
43	0xbe7505e2	-0.23928025
44	0xbea96402	-0.33084112
45	0xbe83a862	-0.25714403
46	0xbe38c2c9	-0.18043055
47	0x3b55e5c2	0.0032638167
48	0xbe90a210	-0.28248644
49	0xbe21bc5b	-0.15794508
50	0xbf152877	-0.5826487
51	0xbec7ac06	-0.3899843
52	0x3ce560b5	0.028000215
53	0xbd84f6ce	-0.06492387
54	0xbdf8eae9	-0.121541806
55	0xbee3e96b	-0.4451402
56	0xbdf8124a	-0.12112863
57	0xbe95704d	-0.2918724
58	0xbc029d5c	-0.007972088
59	0xbe88c95b	-0.26716122
60	0xbe8e70ac	-0.27820337
61	0xbf1b8d5a	-0.6076256
62	0xbee343b2	-0.44387585
63	0xbf10e185	-0.56594115
64	0xbe5f97fb	-0.2183532
65	0xbe563c1a	-0.20921364
66	0xbe149e3a	-0.14513484
67	0xbea7ec38	-0.32797408
68	0xbeae036f	-0.33986995
69	0xbbea44cc	-0.0071493145
70	0xbeebae00	-0.4603119
71	0xbd4bf429	-0.049793396
72	0xbea794de	-0.32730764
73	0xbe7e5dee	-0.24840519
74	0xbe454a4c	-0.19266623
75	0xbecf45d3	-0.4048296
76	0xbf23965e	-0.6390132
77	0xbeaaa17b	-0.33326325
78	0xbeb16ada	-0.34651834
79	0xbe90db15	-0.28292146
80	0xbee91b19	-0.45528486
81	0xbd2a747b	-0.04161499
82	0x3c948646	0.018130433
83	0xbdadf208	-0.084934294
84	0xbebd091f	-0.3692102
85	0xbcebec55	-0.028799215
86	0xbe05b751	-0.13058211
87	0xbf0a4105	-0.5400546
88	0xbe1911a4	-0.14948136
89	0xbec914d5	-0.39273706
90	0xbeb67c7a	-0.35641843
91	0xbea5c142	-0.32374007
92	0xbc9da2ae	-0.01924261
93	0xbee3ec55	-0.44516245
94	0x3d65811a	0.056031324
95	0xbda40694	-0.08009067
96	0xbc12bb7c	-0.008955833
97	0xbee8ca55	-0.45466867
98	0xbe7563d9	-0.2396387
99	0xbf1a1cf0	-0.60200405
100	0xbf10b28e	-0.5652245
101	0xbe273842	-0.16330054
102	0xbefad9d7	-0.48994324
103	0xbe2c5e9f	-0.1683297
104	0xbe9b15b6	-0.30290002
105	0xbe6df11d	-0.23236509
106	0xbeb233dc	-0.3480519
107	0xbe871f37	-0.26391003
108	0xbe0d37ff	-0.13790892
109	0xbe9e4d4d	-0.3091835
110	0xbf0d9d57	-0.55318207
111	0xbebf81e6	-0.37403792
112	0xbe8a3311	-0.26992086
113	0xbf05fe8a	-0.5234152
114	0xbebc1a08	-0.3673861
115	0xbf0b2b8d	-0.5436333
116	0x3e9d17b2	0.3068214
117	0xbe637a25	-0.22214563
118	0xbf0b5518	-0.5442672
119	0xbec971f7	-0.3934476
120	0xbebc341f	-0.36758515
121	0xbf0ccc7c	-0.5499952
122	0xbe9b3971	-0.30317262
123	0xbeb93654	-0.36174262
124	0xbe9c1dcc	-0.30491483
125	0xbe82a3ac	-0.25515497
126	0xbcdb6a6b	-0.026784142
127	0xbea1865d	-0.31547824

fc_hidden.norms.0.running_mean f4 [128]
0	0xbf81ac8d	-1.0130783
1	0x3f981c43	1.1883625
2	0x3f3a7561	0.72835356
3	0xc01313ab	-2.2980754
4	0xbf36ec8a	-0.7145468
5	0xbf80b733	-1.0055908
6	0xc0032c47	-2.0495775
7	0xc02ba587	-2.681978
8	0xbfd63442	-1.6734698
9	0xbfc3351d	-1.5250584
10	0x3ec1a1e5	0.37818828
11	0x3e403c53	0.18773012
12	0xbfe2b97e	-1.7712858
13	0xbfa11606	-1.2584846
14	0x3f1896f5	0.5960534
15	0x400fdf02	2.2479863
16	0xbf8ffdf9	-1.1249381
17	0x3fe6181f	1.7976111
18	0x3f2ed936	0.6830019
19	0xc0121ded	-2.2830765
20	0x3f596e18	0.84933615
21	0x3f099875	0.53748256
22	0xbfc270a1	-1.5190622
23	0xbf7bb5bf	-0.983242
24	0xc028e888	-2.6391926
25	0xbfd2f44e	-1.6480806
26	0xbf5b0cd8	-0.85566473
27	0x3e41f274	0.18940145
28	0xbf177b02	-0.5917207
29	0xbe8994dc	-0.26871383
30	0xbff3068a	-1.898637
31	0x3f3e33b9	0.7429767
32	0xbe51beb5	-0.20482905
33	0xc01263bb	-2.287337
34	0xbfee764d	-1.8629853
35	0xbf70d93f	-0.9408149
36	0xbee02d6c	-0.43784654
37	0x3ef3fe86	0.47655123
38	0xbed25875	-0.41083112
39	0x4046a61d	3.1038888
40	0xbf971b64	-1.1805234
41	0xbfe57245	-1.7925497
42	0xbfbce481	-1.4757234
43	0xbe01e6c6	-0.1268569
44	0xbf5fcd22	-0.8742238
45	0xbeafa950	-0.34308863
46	0xc019e12c	-2.4043684
47	0x3f6af724	0.91783357
48	0xbe3608a8	-0.1777674
49	0x3f6c960b	0.9241645
50	0xbfd1c012	-1.638674
51	0xbf391595	-0.72298557
52	0xbd51ada3	-0.051190984
53	0x3ebb97f4	0.3663937
54	0xbe0d298a	-0.13785377
55	0xbf5db75b	-0.86607903
56	0x3d1126f9	0.035437558
57	0xc029e080	-2.6543274
58	0xbf7504d7	-0.9571051
59	0x4011c1e9	2.2774603
60	0xbfb16114	-1.3857751
61	0xbf9b0cc8	-1.2113276
62	0xbf28fce5	-0.66010886
63	0xbf8952ac	-1.0728354
64	0xc03de902	-2.9673467
65	0x3ef15c6f	0.47140834
66	0xbf960c18	-1.1722441
67	0x3fb4ecda	1.4134781
68	0xbfc546c1	-1.5412217
69	0x3f087b5b	0.53313226
70	0xbefff71b	-0.49993214
71	0xbf62320f	-0.88357633
72	0xc05efac2	-3.484055
73	0xbf4d4b65	-0.8019317
74	0x3fdd3c94	1.7284112
75	0xc0063ce1	-2.0974658
76	0x3e630174	0.22168523
77	0xc040528a	-3.0050378
78	0xbf517d53	-0.81831855
79	0xbff6f206	-1.929261
80	0xbf1e0291	-0.61722666
81	0xbc8db1d5	-0.017296711
82	0xbfee8ce5	-1.8636748
83	0xbf605e9a	-0.8764435
84	0xbe05e6be	-0.13076302
85	0x3f1f89c8	0.6231961
86	0x3fb9251a	1.4464447
87	0x3f705f25	0.9389518
88	0x405283db	3.2892978
89	0x3f1cda5a	0.6127068
90	0xc04655b2	-3.0989804
91	0xbfdaaa3a	-1.7083199
92	0x3fd5b20e	1.6694963
93	0xbf072bbf	-0.52801126
94	0xc0198fba	-2.3993974
95	0xbfc90bbc	-1.5706706
96	0xbfccaa12	-1.5989401
97	0x3f327739	0.6971317
98	0x3fad84a4	1.3556104
99	0xbf46007c	-0.7734449
100	0xc067362b	-3.6126812
101	0xbdbbfc31	-0.09178961
102	0xbf503fec	-0.8134754
103	0xbf6dd189	-0.9289785
104	0x3e44cfc1	0.19219877
105	0xbecc39e1	-0.39887908
106	0x3f43d444	0.76495767
107	0xbfc94560	-1.5724297
108	0xbea3a0e4	-0.31958687
109	0xbe00b0a1	-0.12567379
110	0x3f18d300	0.5969696
111	0x3f35e87a	0.71057856
112	0x3f70cca3	0.9406225
113	0xc028cceb	-2.6375072
114	0xbf8dc037	-1.1074284
115	0xbfe23447	-1.7672204
116	0xbea892c5	-0.32924476
117	0xbfa94d39	-1.3226691
118	0xbfab93b7	-1.3404454
119	0xbfd6d3c4	-1.6783376
120	0x3e162b07	0.14664851
121	0xbf86c674	-1.0529313
122	0xbea77070	-0.3270297
123	0xbf33b706	-0.70201147
124	0xc023e704	-2.560975
125	0x3f6f6ed9	0.93528515
126	0xbf8d6eb5	-1.104941
127	0xbd18fc2d	-0.03734987

fc_hidden.norms.0.running_var f4 [128]
0	0x3e35b3ca	0.17744365
1	0x3e1f5158	0.15558374
2	0x3e4f566b	0.2024781
3	0x3e065d28	0.13121474
4	0x3e2f702f	0.17132638
5	0x3dc567b5	0.09638921
6	0x3e4f8e1b	0.20269053
7	0x3e31f3e8	0.17378199
8	0x3d9a5625	0.07535962
9	0x3e53b24b	0.20673482
10	0x3d84124b	0.064488016
11	0x3f0411eb	0.5158984
12	0x3e89a4df	0.268836
13	0x3dcd4544	0.10022977
14	0x3ddd6ba8	0.108115494
15	0x3deff8db	0.11717387
16	0x3e4baccf	0.1989014
17	0x3e075e0f	0.13219474
18	0x3e9135df	0.28361413
19	0x3debd908	0.11516005
20	0x3e405a59	0.18784465
21	0x3e83c1dd	0.25733843
22	0x3f27c105	0.655289
23	0x3d813fc6	0.06310992
24	0x3e0be880	0.1366291
25	0x3e37a431	0.17933728
26	0x3e304a45	0.17215832
27	0x3e0c9b99	0.13731231
28	0x3d948369	0.07251627
29	0x3e3d3e6d	0.18480845
30	0x3e394323	0.18092017
31	0x3dd13a6e	0.10216223
32	0x3f10690b	0.5641028
33	0x3e439a09	0.19101728
34	0x3e06e688	0.13173878
35	0x3da0ce51	0.07851852
36	0x3dda2c76	0.106530115
37	0x3e4e417a	0.20142165
38	0x3e460781	0.193388
39	0x3de22045	0.11041311
40	0x3e2294ea	0.15877119
41	0x3e07b91c	0.13254207
42	0x3dd55358	0.10416287
43	0x3e1d084b	0.15335195
44	0x3e1ec1d8	0.15503633
45	0x3e61f866	0.22067413
46	0x3e34cb0f	0.17655586
47	0x3eb83baa	0.3598302
48	0x3e1221d1	0.14270712
49	0x3e887828	0.26654172
50	0x3e0d9b51	0.1382878
51	0x3db6bbd6	0.089225456
52	0x3e6657ec	0.22494477
53	0x3dc3084d	0.095230676
54	0x3e96460d	0.2935032
55	0x3e7cc55d	0.24684663
56	0x3e000e30	0.12505412
57	0x3e241284	0.16022688
58	0x3e07d1e8	0.13263667
59	0x3d5b3294	0.053515032
60	0x3e025183	0.12726407
61	0x3f4479c6	0.7674831
62	0x3e261338	0.16218269
63	0x3da74181	0.08166791
64	0x3dd53141	0.10409785
65	0x3e4d7a14	0.200661
66	0x3d8993a5	0.06717614
67	0x3e1e276f	0.1544473
68	0x3e0da7c2	0.13833526
69	0x3db9b7fd	0.09068296
70	0x3e4a6e43	0.19768624
71	0x3e4cd0b0	0.20001483
72	0x3dc1aa2f	0.09456288
73	0x3e25a865	0.16177519
74	0x3e2903d5	0.16505368
75	0x3dbb5983	0.091479324
76	0x3e9fbc2f	0.3119826
77	0x3e51ffaa	0.20507684
78	0x3e11d18d	0.14240094
79	0x3d94cf71	0.07266129
80	0x3e24f566	0.16109237
81	0x3e17f5cd	0.1483986
82	0x3e67ef0f	0.22649787
83	0x3e2d9b63	0.16953807
84	0x3e16bf5b	0.14721434
85	0x3da368a7	0.07978945
86	0x3e1c8901	0.15286638
87	0x3e3bf5c1	0.18355466
88	0x3e8307a5	0.2559177
89	0x3e666f00	0.2250328
90	0x3ddc972f	0.107710235
91	0x3e241c06	0.16026315
92	0x3dde8ee8	0.10867101
93	0x3dcd62f1	0.10028637
94	0x3dbbaf4f	0.09164297
95	0x3dd6bd02	0.10485269
96	0x3e4515af	0.19246553
97	0x3d6c3b7f	0.057673927
98	0x3deb244b	0.11481532
99	0x3e638f7d	0.22222705
100	0x3ec29715	0.3800589
101	0x3e998e47	0.29991361
102	0x3dffe2c8	0.12494427
103	0x3e684f07	0.22686397
104	0x3dea408e	0.11438094
105	0x3e0e93c5	0.13923557
106	0x3de4b228	0.11166793
107	0x3e18f6e6	0.14937934
108	0x3d885603	0.066570304
109	0x3db4831c	0.0881407
110	0x3e30adaa	0.17253748
111	0x3dbf47ff	0.09339904
112	0x3def3072	0.11679162
113	0x3de487ea	0.11158736
114	0x3d9e72e2	0.07736756
115	0x3e58b941	0.21164419
116	0x3d1d153c	0.03835033
117	0x3dee2ea6	0.11629991
118	0x3e78a6cd	0.2428238
119	0x3e08acb3	0.1334713
120	0x3e2e7b38	0.17039192
121	0x3e02ed8d	0.12785931
122	0x3df93325	0.12167958
123	0x3e767178	0.24066722
124	0x3e025bb4	0.12730294
125	0x3ef401c7	0.47657606
126	0x3e3a419e	0.18189093
127	0x3dcd8c53	0.1003653

fc_hidden.norms.1.weight f4 [64]
0	0x3fabc8db	1.3420671
1	0x3fa0e7ca	1.2570736
2	0x3fa71552	1.3053381
3	0x3fd3261f	1.6496009
4	0x3fa37eb0	1.2773037
5	0x3faf3dd6	1.3690746
6	0x3fee527e	1.8618925
7	0x3fc87baf	1.5662745
8	0x3fb6b30a	1.4273388
9	0x3fc8eff2	1.5698225
10	0x3f9f76ff	1.245819
11	0x3f95edfa	1.171325
12	0x3fb8ab21	1.4427224
13	0x3fa7929d	1.3091618
14	0x3fc82d3f	1.5638808
15	0x3faa6e76	1.331496
16	0x3fa25447	1.268197
17	0x3facaf82	1.3491061
18	0x3fc6f31a	1.5542939
19	0x3fb6d8ac	1.4284873
20	0x3fb344b3	1.400534
21	0x3fc2c783	1.5217136
22	0x3fc13fb9	1.5097572
23	0x3fb1b798	1.3884153
24	0x3fc7102c	1.555181
25	0x3fa78933	1.3088745
26	0x3fa09a44	1.2547078
27	0x3fcd7d91	1.6053945
28	0x3f9d53f4	1.2291245
29	0x3fc10fef	1.5082988
30	0x3fa84cef	1.3148478
31	0x3f96edaf	1.1791285
32	0x3fc7c554	1.5607095
33	0x3fa6efed	1.304197
34	0x3fb47a9b	1.4099916
35	0x3fb06352	1.378031
36	0x3fa969fa	1.3235466
37	0x3fc2f976	1.523238
38	0x3fbcfc58	1.4764509
39	0x3fa831e4	1.3140225
40	0x3fa5172f	1.28977
41	0x3f8c3da7	1.0956315
42	0x3faf7334	1.3707032
43	0x3faeb211	1.3648092
44	0x3fbdca97	1.482745
45	0x3f8cf669	1.1012698
46	0x3f8d7e4c	1.1054168
47	0x3fc7fb01	1.5623475
48	0x3fad1e54	1.352488
49	0x3fb70432	1.4298155
50	0x3fc0d950	1.5066319
51	0x3fa84b73	1.3148025
52	0x3fce7ae0	1.6131248
53	0x3fa3f0e8	1.2807894
54	0x3f9e2a8a	1.2356732
55	0x3fa30ff2	1.2739241
56	0x3f9fe547	1.2491845
57	0x3fdead20	1.7396584
58	0x3fb08bbf	1.3792647
59	0x3fb9494e	1.4475496
60	0x3f9eac33	1.2396301
61	0x3fb9678a	1.4484723
62	0x3fd22dd6	1.6420238
63	0x3fbf5c51	1.4950048

fc_hidden.norms.1.bias f4 [64]
0	0x3df0b08b	0.11752423
1	0x3a48dff8	0.00076627685
2	0xbe0ea8dd	-0.13931604
3	0x3bc68960	0.006058857
4	0xbd926709	-0.07148559
5	0xbdd03463	-0.10166242
6	0xbf365a3f	-0.71231455
7	0xbd961bab	-0.07329496
8	0xbe32c861	-0.17459251
9	0xbdd666e7	-0.10468846
10	0xbd9e35c7	-0.07725101
11	0xbce7075e	-0.028201755
12	0xbebdb90f	-0.3705525
13	0xbe67f0ef	-0.22650503
14	0xbe85736c	-0.26064622
15	0xbe90d2d8	-0.2828586
16	0xbd033c2f	-0.032039817
17	0xbeb3ad56	-0.35093182
18	0x3d033453	0.032032322
19	0x3ca487a2	0.020084206
20	0xbe24272c	-0.16030568
21	0xbec00cf1	-0.37509874
22	0xbe2f5c35	-0.17125018
23	0xbea79337	-0.32729504
24	0xbeb4bdee	-0.35301155
25	0xbe1395bd	-0.1441259
26	0xbea7084d	-0.3262352
27	0x3902fb75	0.00012491441
28	0xbe2f7fed	-0.17138644
29	0xbe5d45a2	-0.21608594
30	0xbe82dad9	-0.25557593
31	0xbe3ab4f2	-0.18233088
32	0xbdcdab87	-0.10042482
33	0xbdae5516	-0.085123226
34	0xbe55145c	-0.20808548
35	0xbd4b4147	-0.0496228
36	0xbcde4ec0	-0.02713716
37	0xbe12cf37	-0.14336859
38	0xbe0fe383	-0.14051633
39	0x3e8475d2	0.2587114
40	0x3e13855c	0.14406341
41	0xbdae6e9a	-0.08517189
42	0xbe221ce3	-0.15831332
43	0x3ccfcc65	0.025366018
44	0x3d8ea25d	0.06964562
45	0xbca7a1b0	-0.02046284
46	0xbe0c1ca4	-0.136828
47	0xbdd6c198	-0.10486144
48	0xbebd432a	-0.36965305
49	0xbe18f88b	-0.14938562
50	0xbe828c42	-0.25497633
51	0xbe39f619	-0.18160285
52	0xbeb964a0	-0.36209583
53	0xbe139c6a	-0.14415136
54	0x3b95a944	0.004567297
55	0xbe933ded	-0.28758183
56	0x3dd05aa5	0.10173539
57	0xbf031313	-0.5120098
58	0xbd8da8aa	-0.06916936
59	0xbeb5bb14	-0.35494292
60	0xbe8db3bc	-0.2767619
61	0x3dad7193	0.08468928
62	0x3d8a9252	0.0676619
63	0x3e2571db	0.16156714

fc_hidden.norms.1.running_mean f4 [64]
0	0xbe908203	-0.2822419
1	0xbe0d71f4	-0.13813001
2	0xbfaae12f	-1.334997
3	0xbf19bcc0	-0.60053635
4	0xbf58f112	-0.84742844
5	0xbecf8174	-0.40528452
6	0xbe634a9e	-0.22196433
7	0xbf44f15b	-0.7693078
8	0x3eb5b838	0.3549211
9	0x3edde5ea	0.43339473
10	0xbf877933	-1.0583862
11	0xbf78dfcc	-0.97216487
12	0x3f49bdff	0.78805536
13	0xbf6492f1	-0.89286715
14	0xbee20a5e	-0.44148535
15	0xbeabe43a	-0.3357256
16	0x3e19931c	0.14997524
17	0xbfb44214	-1.4082665
18	0xbf22fcb7	-0.6366686
19	0xbe76148c	-0.24031276
20	0x3e1cecb9	0.15324678
21	0x3e1c521c	0.15265697
22	0x3ef45518	0.4772117
23	0x3fc59c23	1.5438274
24	0xbf470548	-0.77742434
25	0xbed55a2b	-0.41670355
26	0x3f6f32fe	0.9343718
27	0x3f8e46ff	1.1115416
28	0xbf87f2b7	-1.0620946
29	0xbefc5c5c	-0.49289215
30	0xbf07570f	-0.52867216
31	0xbeae03f7	-0.339874
32	0x3e932240	0.28737068
33	0x3e9be3ca	0.30447227
34	0x3f3a3fa5	0.72753364
35	0xbf313453	-0.69220465
36	0xbf254717	-0.645616
37	0xbed2c142	-0.4116307
38	0xbf252e98	-0.6452422
39	0xbf0f779d	-0.5604189
40	0x3ed7d8e2	0.42157656
41	0xbda639f2	-0.08116521
42	0x3f6ae51e	0.91755855
43	0xbfa5945b	-1.29359
44	0x3eab4386	0.33449954
45	0x3f064227	0.5244469
46	0xbe169c7f	-0.14708136
47	0xbf33e333	-0.70268553
48	0x3f1d520d	0.61453325
49	0xbfd26b4f	-1.6438998
50	0xbda5f0a2	-0.08102538
51	0x3f020634	0.50790715
52	0xbf6bb4c4	-0.920727
53	0xbee7857d	-0.4521903
54	0x3f8d0817	1.1018094
55	0xbf3be192	-0.7339107
56	0x3eaf2b6e	0.34212822
57	0xbf2c85ab	-0.6739146
58	0x3e57805b	0.21045057
59	0xbf83819e	-1.0273931
60	0xbf0d694f	-0.55238813
61	0xbf97436a	-1.1817448
62	0xbe865769	-0.26238564
63	0xbfaddb17	-1.3582486

fc_hidden.norms.1.running_var f4 [64]
0	0x3fc31530	1.5240841
1	0x4004caa7	2.074869
2	0x4018a326	2.3849578
3	0x404a078e	3.156711
4	0x3fe6bf31	1.8027097
5	0x402cfad9	2.7028105
6	0x4066c006	3.6054702
7	0x401dd59a	2.4661622
8	0x3ffb1805	1.9616705
9	0x40336e13	2.8035934
10	0x40334037	2.8007944
11	0x3ff51d34	1.9149537
12	0x402a6ac2	2.662766
13	0x4001200c	2.017581
14	0x405e9010	3.4775429
15	0x40211340	2.5168
16	0x3fe2ee1a	1.7728913
17	0x40147cc7	2.3201158
18	0x4032ac82	2.791779
19	0x4034a8c1	2.8228
20	0x401af3c2	2.4211278
21	0x4047c492	3.1213727
22	0x402221a3	2.533303
23	0x406a6d4d	3.6629212
24	0x4041f70a	3.030703
25	0x3fd3d60f	1.65497
26	0x3fe7ca71	1.8108655
27	0x40840bdb	4.126447
28	0x4012fe50	2.296772
29	0x40328fcf	2.7900274
30	0x4029fc1a	2.656012
31	0x3fef23a8	1.8682756
32	0x406ba2f7	3.6818216
33	0x3fd0215b	1.6260179
34	0x3fdca1aa	1.7236836
35	0x40461e8b	3.0956142
36	0x4039b98e	2.9019504
37	0x4016edd1	2.3582652
38	0x4007565e	2.1146464
39	0x3ffdc612	1.9826071
40	0x400a904b	2.165057
41	0x3f798abf	0.97477335
42	0x3ffd4f61	1.978985
43	0x4098e79f	4.778274
44	0x409052a0	4.510086
45	0x403d2e79	2.9559615
46	0x3fddd64e	1.7331026
47	0x4087d0d0	4.24424
48	0x3ffe185a	1.9851182
49	0x40279e75	2.6190464
50	0x405b9126	3.4307342
51	0x3ff3e96f	1.9055613
52	0x40b83646	5.756625
53	0x40037750	2.0541573
54	0x4053c403	3.3088386
55	0x3fdbd3ec	1.7174048
56	0x400a3948	2.1597462
57	0x4056bb2e	3.3551745
58	0x4032cdfe	2.7938228
59	0x3ffee0a5	1.9912306
60	0x40833e18	4.10133
61	0x40250221	2.578255
62	0x402adc30	2.6696892
63	0x406f3c42	3.7380528

fc_out.weight f4 [10, 64]
0	0xbe3ad75e	-0.18246219
1	0x3e56e0ea	0.20984235
2	0xbcf95366	-0.030435275
3	0xbf4884ca	-0.7832762
4	0xbf00580f	-0.50134367
5	0xbe3ccbf6	-0.1843718
6	0x3f05e81e	0.5230731
7	0xbf30f065	-0.6911681
8	0x3d9ffce1	0.07811905
9	0x3cb90a1a	0.022587825
10	0xbf39c819	-0.7257095
11	0xbe7b8c81	-0.24565317
12	0x3d022543	0.031773817
13	0x3e9ecd24	0.31015885
14	0x3ed06299	0.40700224
15	0x3eaf1618	0.34196544
16	0xbf271589	-0.65267235
17	0xbe8b6b63	-0.27230367
18	0xbe97c8eb	-0.29645476
19	0x3de75259	0.112950034
20	0x3e73846f	0.23780988
21	0xbcb385d7	-0.021914406
22	0x3e49b940	0.19699574
23	0xbca5235d	-0.020158464
24	0xbe13348c	-0.14375514
25	0x3d114e30	0.035474956
26	0xbeb460d5	-0.35230127
27	0x3ecacedd	0.3961095
28	0x3e9dcfdd	0.3082265
29	0x3e50393b	0.20334332
30	0xbd34a67c	-0.044104084
31	0x3f07ceb0	0.53049755
32	0x3e8732cb	0.2640594
33	0x3c4a2156	0.0123370495
34	0xbe6384f4	-0.22218686
35	0x3d79b732	0.060965724
36	0xbf810930	-1.0080929
37	0xbf1994ea	-0.5999285
38	0x3e94b59c	0.29044807
39	0xbe4522d4	-0.19251567
40	0x3e2032a0	0.15644312
41	0xbebadcf5	-0.36496702
42	0xbed16d39	-0.40903643
43	0xbdfc918e	-0.1233245
44	0xbeac32b6	-0.3363244
45	0x3dbfd66d	0.0936707
46	0x3e16277b	0.14663498
47	0xbf803d5c	-1.0018725
48	0xbed8b3d7	-0.42324707
49	0x3acc5b08	0.0015591094
50	0xbac58090	-0.0015068222
51	0x3ea7c726	0.32769126
52	0xbf24ca88	-0.6437154
53	0x3e956407	0.29177877
54	0x3e446467	0.19178925
55	0x3bdd809a	0.0067597153
56	0x3e5f289b	0.21792834
57	0x3e883321	0.26601508
58	0xbf2bba0e	-0.6708077
59	0x3e8021c4	0.2502576
60	0x3e5631bd	0.20917411
61	0xbe3500e3	-0.1767612
62	0xbea66939	-0.32502154
63	0xbdc60db8	-0.096705854
64	0x3e3df209	0.1854936
65	0xbd9752b5	-0.07388822
66	0x3efec4cf	0.49759528
67	0x3f043bcd	0.5165375
68	0x3e3d7021	0.18499805
69	0xbec08f4e	-0.37609333
70	0xbde3c3e4	-0.111213475
71	0xbe2e387b	-0.17013733
72	0x3d5e3d89	0.054257903
73	0x3e0621f9	0.13098897
74	0x3d7e5ead	0.06210201
75	0xbeee0c0d	-0.4649357
76	0x3e8e6a20	0.27815342
77	0xbf257d2d	-0.6464413
78	0x3d95de56	0.07317798
79	0xbde4aca0	-0.11165738
80	0xbdb19d12	-0.08672537
81	0x3e2be74d	0.16787453
82	0xbd6a4204	-0.057191864
83	0xbefd565d	-0.49479952
84	0xbf3a0f78	-0.72679853
85	0x3e2cc12f	0.16870569
86	0xbef64252	-0.48097473
87	0x3f08d92c	0.5345638
88	0xbdb409b8	-0.08790916
89	0xbea81237	-0.32826397
90	0x3e901dfb	0.28147873
91	0x3f5ca3e8	0.861876
92	0xbf32bc1e	-0.69818294
93	0xbe4491ac	-0.19196194
94	0xbedb5abf	-0.4284267
95	0x3e0b1b32	0.13584593
96	0xbf86eee5	-1.0541655
97	0x3c343200	0.010998249
98	0x3e3f7b99	0.18699493
99	0xbedd2d39	-0.43198565
100	0xbe7ae28f	-0.24500488
101	0xba723e9c	-0.0009240897
102	0xbed8f644	-0.42375386
103	0x3e88da46	0.2672903
104	0xbd4c9862	-0.04995001
105	0xbe89f720	-0.26946354
106	0x3e36f6a5	0.17867525
107	0xbf8cecee	-1.1009805
108	0xbf78c1ca	-0.971707
109	0xbee98dcb	-0.45615992
110	0xbf015e41	-0.50534445
111	0x3e794db7	0.24346052
112	0x3f3ce445	0.7378581
113	0x3e12bec1	0.1433058
114	0x3e76e042	0.24108985
115	0xbccb9dbe	-0.02485549
116	0x3e370923	0.17874579
117	0xbd2a35e7	-0.04155531
118	0xbf989e65	-1.1923338
119	0xbf05dbf8	-0.5228877
120	0xbecc3ce0	-0.39890194
121	0xbe0abe47	-0.13549148
122	0x3a67eb13	0.00088469795
123	0x3e308ffc	0.17242426
124	0x3e81f74e	0.2538399
125	0x3ead8292	0.3388868
126	0xbf330c46	-0.699406
127	0xbe1bc11b	-0.15210383
128	0x3e29be38	0.16576469
129	0x3eb448c2	0.3521176
130	0xbeb11a6f	-0.3459048
131	0x3e54a672	0.20766619
132	0x3e3b8128	0.18310988
133	0x3d927c31	0.07152594
134	0x3e21503f	0.15753268
135	0xbd063882	-0.032768734
136	0x3d399cb9	0.045315478
137	0xbeca40ab	-0.39502463
138	0x3d90f008	0.07077032
139	0x3dcd0a9c	0.10011789
140	0x3d303dbe	0.043027632
141	0x3da0ff4d	0.07861195
142	0x3f06a195	0.52590305
143	0xbebdcc45	-0.37069908
144	0xbf05b60c	-0.52230906
145	0xbeea1aaa	-0.45723468
146	0x3db7ae6a	0.08968814
147	0x3e0a57c2	0.1351004
148	0xbdb96fac	-0.09054503
149	0x3ef71220	0.48256016
150	0x3e5d2baf	0.21598695
151	0xbea97f12	-0.3310476
152	0x3e6cda8f	0.23130248
153	0xbeedfd19	-0.4648216
154	0x3e8beb24	0.27327836
155	0xbe997105	-0.2996904
156	0x3d4cca31	0.049997512
157	0xbe097b2c	-0.13425893
158	0xbead22a5	-0.33815494
159	0x3d491770	0.049094617
160	0xbddbc5ee	-0.107311115
161	0x3d6015b3	0.054708194
162	0xbe2913c5	-0.16511448
163	0x3e6a5d39	0.22887124
164	0xbcdd897d	-0.027043099
165	0xbc7c6e9e	-0.015407233
166	0xbe18aaba	-0.14908877
167	0x3ecd2a71	0.40071443
168	0x3ea90057	0.33008072
169	0x3ef830e8	0.48474813
170	0x3d16927a	0.036760785
171	0x3de5072b	0.11183008
172	0xbe286502	-0.16444781
173	0xbe329bfd	-0.17442317
174	0xbd1c3ef3	-0.03814597
175	0xbd82c6aa	-0.063855484
176	0x3e62dbfb	0.22154228
177	0xbd1bbd19	-0.038022134
178	0x3e3ecbeb	0.18632476
179	0xbea80150	-0.328135
180	0x3bcd7ff2	0.006271356
181	0x3e898b0b	0.26863894
182	0x3d3c0b8d	0.045909453
183	0x3d30ceb9	0.043165896
184	0x3d10466c	0.03522341
185	0xbebbc139	-0.36670855
186	0xbdcae78a	-0.09907444
187	0xbf4995c5	-0.78744155
188	0xbef85109	-0.48499325
189	0x3e5f27ed	0.21792574
190	0x3ec73079	0.3890417
191	0xbee2fcf9	-0.44333628
192	0xbf107dba	-0.56441844
193	0xbd12556e	-0.035726003
194	0xbe7dc49a	-0.24782029
195	0x3de7128c	0.112828344
196	0xbebf870a	-0.37407714
197	0xbe0df587	-0.13863192
198	0x3e24764c	0.16060752
199	0x3c69f4a1	0.0142795155
200	0x3e1c47a8	0.1526171
201	0x3dcd5071	0.100251086
202	0x3e8da53a	0.2766512
203	0xbe882feb	-0.26599059
204	0xbdc60aef	-0.09670054
205	0x3dfb50d1	0.12271274
206	0xbed761a6	-0.42066687
207	0xbeeb66a1	-0.45976737
208	0x3e9d50a6	0.30725592
209	0xbd646997	-0.05576476
210	0x3e6bb8f8	0.23019779
211	0x3e9096f8	0.2824018
212	0xbed687fe	-0.4190063
213	0x3c947154	0.018120445
214	0x3e472d8e	0.19450971
215	0xbd176f12	-0.03697116
216	0x3d9b93aa	0.07596524
217	0x3ea0c6a0	0.3140154
218	0xbe2d1f36	-0.16906437
219	0xbef7cfbe	-0.48400682
220	0xbe0832f2	-0.13300684
221	0x3d150296	0.03637942
222	0xbd132e10	-0.0359326
223	0xbd8e2504	-0.06940654
224	0xbe821346	-0.2540533
225	0xbdd00d79	-0.1015882
226	0xbe34d2a4	-0.17658478
227	0x3e559746	0.20858487
228	0x3e03949b	0.12849657
229	0xbbc179dc	-0.0059044193
230	0xbc8f3640	-0.017481923
231	0xbf350618	-0.70712423
232	0xbd4dfbbf	-0.050288912
233	0xbeb8184e	-0.35956043
234	0x3e5430b7	0.20721708
235	0x3e5e1726	0.21688518
236	0x3e776e1c	0.24163097
237	0xbdb9c69a	-0.09071083
238	0xbd8a6873	-0.06758203
239	0xbe4828ec	-0.1954686
240	0x3e00fa8b	0.12595575
241	0xbe962f4b	-0.29332957
242	0x3d256e5f	0.04038846
243	0xbe662d1c	-0.22478145
244	0x3e26ed50	0.16301465
245	0xbf159a41	-0.584385
246	0x3e192c1f	0.14958237
247	0x3e573d60	0.21019506
248	0x3d144de7	0.036207106
249	0xbe5be9df	-0.21475933
250	0x3e3075cd	0.17232437
251	0xbce81b33	-0.028333282
252	0xbe402fa8	-0.1876818
253	0x3db886f2	0.09010114
254	0xbe9e09cc	-0.3086685
255	0xbec63508	-0.38712335

fc_out.bias f4 [10]
0	0xbe7cb53a	-0.24678507
1	0xbe1f23f0	-0.15541053
2	0xbd62c189	-0.05536035
3	0xbd9e8c1f	-0.0774157
4	0xbd340d75	-0.043958146
5	0x3dbbb1ae	0.09164749
6	0x3e29e9c9	0.16593088
7	0xbd2b67cf	-0.041847046
8	0x3da694d3	0.08133855
9	0x3d407599	0.04698715
