saved_models/GCN2_clus-false_BN_ELU.pt (torch, 223147 bytes, 40 tensors)

fc_in.weight f4 [64, 1]
00000000: 85cb dcbe 2193 08bf 1a1a 46bf d878 843f
00000010: 0d86 4ebf a3a8 c33e 5a32 9b3e 5f2d 173f
00000020: 904c 453e 2637 7b3f f2df 66be 7c67 9bbf
00000030: 15e9 1dbf 16ab 663f b34f ba3d a820 8bbe
00000040: af92 833f 5acf 843f 9b02 503f 9f37 643f
00000050: 15a6 16bf d031 59bf 35c9 463d 110e 7abc
00000060: 7a29 23bf 2ebe cfbe d17f f93e 89dc 1abe
00000070: 47ec d33e d09f 793f 923b 3e3f 4c09 2cbf
00000080: fdf1 b1be c961 753f 0166 6fbf 7de3 6fbf
00000090: 6ca4 0d3f 0a61 b2be a13e d9bc ad88 5c3f
000000a0: 3fcf 0bbf aa1d d7be f3ba 5c3f 7fc0 8d3d
000000b0: b678 8abf bdb0 633f 7e55 3f3f 0b22 91bf
000000c0: 86d5 42bd 990c 1fbf 4044 723e f87c 91bf
000000d0: f327 70be 100c 1abe 8779 b6be 5e66 73bf
000000e0: b47d b33e 434d 473f a9ec 4ebf fb4b 8abf
000000f0: 14cc aabe cfdb c2be af27 1cbe ef7f 5ebf
-0.43124023 -0.533495 -0.7738358 1.0349379 -0.80673295 0.38214597 0.30311853 0.59053606
0.19267488 0.98131025 -0.22546366 -1.2140956 -0.6168378 0.90104806 0.09097233 -0.27173352
1.0279139 1.0375779 0.81253976 0.8914737 -0.5884717 -0.8484163 0.04853173 -0.015262143
-0.63735163 -0.40574783 0.4873033 -0.1512319 0.41391203 0.9750948 0.7430965 -0.67201686
-0.34754935 0.95852333 -0.9351502 -0.93706495 0.5532901 -0.3483966 -0.026519122 0.8614605
-0.5461311 -0.4201482 0.8622276 0.06921481 -1.0818088 0.88941556 0.74739826 -1.1338514
-0.047566913 -0.621286 0.23658848 -1.1366262 -0.2345274 -0.15043664 -0.35639593 -0.95078075
0.3505684 0.7785227 -0.80829865 -1.0804437 -0.33358824 -0.38058326 -0.15249513 -0.8691396

fc_in.bias f4 [64]
00000000: 689b a13e 3189 82bf 2d97 3d3f a9b4 e33e
00000010: d306 fdbe 683f b63f 3b31 51bf a76a 823f
00000020: f163 ed3d 3ff0 b4be dfc3 38bf f72d 423e
00000030: 3e01 2cbe ac9e 4e3c 5abf 773f 4fd4 69bf
00000040: 5527 86bc c426 c73d f500 b7be c6b9 2fbf
00000050: 40b3 46bf dec7 a33e 3c7d c7bf 26ed 193f
00000060: 7202 a53d 91d7 4b3d 8592 f4be 179f ef3e
00000070: 5053 b43f f620 0a3f 8a5f bdbe e07e 2a3f
00000080: dabd 25bf 025d 63be ff30 543e 44e9 6dbf
00000090: 4d9e 383e f879 90bf 367f 9bbf 7943 f93e
000000a0: 96c7 9abf 69c7 aebf c76a 2c3e e12d 623e
000000b0: 9229 513f b0a5 3cbf 2071 89bf e702 b63e
000000c0: ea30 b1bf f84a 81be 2cfd 073f 56b9 363f
000000d0: 31aa 763e b017 a5bf 6f96 3bbf 83d6 65bf
000000e0: d251 b4bf 6ddb 453f 9faf 223f 4d82 84bd
000000f0: c60e 723f 4822 52bf a611 d7bf 29b1 3e3f
0.31563878 -1.0198117 0.740588 0.4447377 -0.4941927 1.42381 -0.81715745 1.0188798
0.11591328 -0.35339543 -0.72173876 0.18962847 -0.16797349 0.0126110725 0.96776354 -0.9133958
-0.016376177 0.09724191 -0.35742918 -0.6864284 -0.77617264 0.31988424 -1.5585093 0.60127485
0.08057107 0.049766127 -0.47768036 0.46801063 1.4087925 0.53956544 -0.36986953 0.66599846
-0.64742815 -0.22203448 0.20721816 -0.9293406 0.18029137 -1.1287222 -1.2148197 0.4868429
-1.2092159 -1.3654605 0.16837607 0.22087814 0.81704056 -0.7369032 -1.0737648 0.3554909
-1.3843052 -0.2525251 0.53120685 0.7137655 0.2408836 -1.2897854 -0.7327642 -0.89780444
-1.408747 0.7728794 0.63549227 -0.064701654 0.9455379 -0.8208356 -1.6802261 0.74489075

fc_hidden.lin_in.weight f4 [128, 64]
00000000: 01bf aa3e c307 493d 292d 173e 80ba f1bd
00000010: 5f74 f63d 9f80 653e 135d 713e 0be8 40be
00000020: 6b83 493e cb21 18bd 02f0 a0bd ab55 1abe
00000030: a113 c4bc 7716 803d 52f8 0dbe e1bc 573e
00000040: 8c8a 9f3e cff7 04bd 7564 63be 8046 80be
00000050: 65bc 3cbe 88ae a43d 79a9 95be a0dd 153e
00000060: 9a9d 80be eb40 1d3e 55c8 39be 34d8 ed3d
00000070: a4bd 043e 847e 933e fa5f 5d3c b8ba 73bd
00000080: cd4e 133e 0fae bfbe 4111 513e e6f1 953e
00000090: 29c5 793e e7c1 153c e173 af3d 5f15 edbe
000000a0: fa2d 163e 8583 263e d10e 71be e171 203e
000000b0: 3d55 d33d 4ad2 b43e c395 863e a87a 613d
000000c0: 82c5 53bd dca1 233d 8070 323e ecd5 90be
000000d0: 4227 8ebc b1d4 b3bc c1c5 623d f2e1 703e
000000e0: e15d 90be 06be 2cbf b067 7e3d 67f8 db3e
000000f0: a351 89be 3a83 0bbd e901 373c 635c bfbe
00000100: 7f17 e9bd 2597 95be 6992 14be 8a0d 54be
00000110: ed13 0abe 1a00 ddbd 698d dbbc 96f6 313e
00000120: 8f50 26be cbe6 0b3d fc17 8dbe a900 193e
00000130: 56da e9bc fa7a 75be 49a8 c0bd 1b2a 323e
00000140: e139 733c 3a51 1f3e bf9b 7ebd 5b5b 7d3d
00000150: 096a be3d a360 3c3e 375c e9be 471c 60be
00000160: 1b4a 103f 89c0 cf3c 3e23 25be 6495 bcbd
00000170: d98a f4bc 83b2 113e fbd6 113e 7390 793c
00000180: e3fc ba3d 6173 af3d 30ea a3bd 529d 753e
00000190: d8e4 e5bd 9ded 2bbf 622b 043e 3624 a63b
000001a0: 2464 8b3e 66d9 01bf af41 4b3d 2ab5 143d
000001b0: 4436 c0bc ecd3 9ebb 029d 683e d7fb f8bd
000001c0: 0e51 25be 0c03 033f 2b02 0b3e c846 19bd
000001d0: 5c00 cebd 014e d2be d904 0a3e bb63 8cbe
000001e0: ea87 55bc affd 44bd c865 dcbd d5ab e7be
000001f0: 915f fd3b 734c 0f3d 6f01 173f 15ca d73d
00000200: 9d6b 953d 7174 a23e 0a09 803e 1709 29be
00000210: 40f0 84bd 1b5b c13c a68b d43e 146e 743d
00000220: 8f4e fbbd 8ef8 cb3e 7d3f 4e3e f21f 15be
00000230: b69c 0bbe 4973 833e fb0d 463e 17fd 713e
00000240: 00e4 353e 3b14 273a 5938 f93e e8d6 853e
00000250: 7424 653b 0f46 2bbe 64f1 b63e 4cf9 33be
00000260: 8ed1 81be 3c24 0f3e 3e62 6f3e 9a79 18bd
00000270: f42b c8bc 9f89 0a3c e456 733e 2497 843e
00000280: 8970 43be f8ac 41be 137a 983d 1c79 0c3e
00000290: 40f4 2e3e 9871 2d3e 7c0a 09bd e666 ad3e
000002a0: db60 d43d fb6f 55bd ef3c 343e 90ed 27bd
000002b0: 139c 153e 9dea 82bc 05d0 f0be f6cb b93d
000002c0: 8b1c a53d e348 c9be 0a79 963e b69a 8e3e
000002d0: 4157 e4bd 2f37 893e fa81 623e 07fe 0b3e
000002e0: 26f7 933b d629 273e 910b c73e f014 a23e
000002f0: 5fef 253e 950c 22bc 0153 86bd 1759 603e
00000300: 4ebf a43c 6a0b 5b3c bb7d 14be 5e6a ddbd
00000310: 134d 493e dd5f c6bd d2d2 4cbe 345f 47be
00000320: b38d ecbd fb15 6fbe 3c8e 0fbe 7d03 22be
00000330: 50d6 463d 3b76 1fbe c9f8 6ebe 83df d13e
00000340: 2290 04be 33ae d73d 0963 69be 5061 16be
00000350: 95d9 cc3e 4b47 553d 052c 503e a8fc c33d
00000360: 7f57 2c3e 2962 403d fca3 e6bc 2d4d 71be
00000370: d30b 6ebe 868f 56be 7de6 9d3e 1d96 b1be
00000380: f592 f5bd ddf6 f2be c72e 683d 708b 9ebe
00000390: 473a 7d3e bdba 173e 1bae 383e 342b 62bd
000003a0: f071 81bb 9d5d 843e 756b bfbd dc68 ed3c
000003b0: 143c 0e3e 3f48 6b3d 1f46 b53e 5ae7 47be
000003c0: 868f 9a3d faab cebd 2c4e d53e 8c62 8bbe
000003d0: 26c6 6dbd 282b 923e de9d cc3d eca0 d1bd
000003e0: c01e 013e ee4f 6bbe 2363 6abe 982f e13e
000003f0: 246d fb3d 35e9 1bbc 090a 71be e342 b2bd
0.3334885 0.049079668 0.14763321 -0.1180315 0.12033915 0.22412346 0.23570661 -0.18838517
0.19679038 -0.037141602 -0.07858278 -0.15071742 -0.023935141 0.06254285 -0.13864258 0.21068145
0.3116039 -0.03246289 -0.2220629 -0.25053787 -0.18431242 0.08041102 -0.2923086 0.14635324
-0.2512024 0.15356795 -0.18142827 0.11613503 0.12962967 0.2880746 0.013511652 -0.05950424
0.14385529 -0.37437484 0.20416738 0.29286116 0.24391617 0.009140468 0.08567024 -0.46305367
0.14665976 0.16261108 -0.23540808 0.15668441 0.10318992 0.35316688 0.26286134 0.055048615
-0.05170203 0.039949283 0.17425728 -0.2828821 -0.017352704 -0.021952005 0.055364374 0.23523691
-0.28196624 -0.6747745 0.062110603 0.42962953 -0.26820096 -0.034060694 0.011169889 -0.37375173
-0.11381435 -0.29216877 -0.14508976 -0.2070829 -0.13484164 -0.10791035 -0.026800828 0.17379221
-0.16241668 0.03415565 -0.2755736 0.14941658 -0.028546494 -0.23972693 -0.09407098 0.17398874
0.014845342 0.15558329 -0.06216025 0.0618547 0.09297568 0.18396239 -0.45578167 -0.21885787
0.56363076 0.025360363 -0.16126725 -0.092081815 -0.029851364 0.14228253 0.14242165 0.015232193
0.091302656 0.08566929 -0.08003652 0.23985794 -0.11225289 -0.67159444 0.12907174 0.0050702346
0.2722484 -0.5072235 0.049623188 0.036305584 -0.023463376 -0.0048470404 0.22716144 -0.1215741
-0.16144201 0.51176524 0.13575046 -0.037421018 -0.10058662 -0.41075137 0.13478412 -0.27419838
-0.013032893 -0.048093494 -0.10761601 -0.45248285 0.0077323397 0.034985017 0.5898656 0.10536591
0.07295916 0.31729463 0.25006896 -0.16507374 -0.064911366 0.023603013 0.41512793 0.05967529
-0.12270843 0.3983807 0.20141406 -0.14562967 -0.13633999 0.25673893 0.1934127 0.23631702
0.17762756 0.0006373559 0.48675802 0.26140523 0.0034964355 -0.16725944 0.3573104 -0.17575568
-0.2535519 0.13978666 0.2337732 -0.037225343 -0.024435021 0.008455663 0.23763615 0.2589656
-0.19085898 -0.18913639 0.07445159 0.13718075 0.17085361 0.16937864 -0.033457264 0.33867568
0.10370036 -0.052108746 0.1760137 -0.04099804 0.14610319 -0.015981013 -0.47033706 0.090721056
0.08062085 -0.3931342 0.2938922 0.2785241 -0.11149455 0.26799914 0.22119895 0.13671122
0.0045155464 0.16324553 0.38876012 0.316566 0.16204594 -0.009890695 -0.065588005 0.21908985
0.020110752 0.013369421 -0.14501087 -0.108113036 0.19658308 -0.09686253 -0.20002297 -0.19469911
-0.115504645 -0.23348229 -0.14019102 -0.15821643 0.048544228 -0.15572445 -0.23337092 0.40990838
-0.12945607 0.10531273 -0.22791685 -0.1468556 0.40009752 0.052069943 0.20329292 0.09569675
0.16830252 0.046968613 -0.028154366 -0.23564596 -0.23246698 -0.20953187 0.3083991 -0.3468484
-0.119909205 -0.47453967 0.056685235 -0.30965757 0.24729262 0.14817329 0.18035166 -0.055216983
-0.00395035 0.2585267 -0.09346668 0.028980665 0.13890105 0.057441946 0.3540506 -0.19521847
0.07546906 -0.10091396 0.41661203 -0.27223623 -0.058050297 0.2854855 0.09991048 -0.102357715
0.12609386 -0.2297971 -0.2288938 0.43981624 0.12276676 -0.00951605 -0.23538984 -0.08704164

fc_hidden.lin_in.bias f4 [128]
00000000: bd0e 433e 725f 9ebb 964b 0cbe 5126 4c3d
00000010: 1f5f 013c b09e 093e 38d8 323d b78d 75bd
00000020: 914c 93bd 4e37 263e 4ad8 14bd 4a36 80bc
00000030: 6c90 54be da87 63bd 69c3 23be 1b61 f6bd
00000040: fa3c 15be 9b67 7cbd bb12 0fbe 3397 cabd
00000050: d997 ddbd d25c 22bd cd3b 4c3c 281c 523e
00000060: b08b c1bd f343 76bd 19e2 19bd 1537 503d
00000070: 8284 f03c ffcc 5fbd 5db4 b5bd 01f8 58be
00000080: 4696 1bbe c7f7 2cbe a294 373d dabd 81bd
00000090: c384 1dbd 935d 333d ccc4 48be 5a04 213e
000000a0: ee3f a73d f8bf 6e3d 8f25 e1bd 6e59 353c
000000b0: d73b eb3e 63ed 213e 1c90 b1bd 6744 38bd
000000c0: 31fb 243e c998 793e 8096 0abe c2dc 003c
000000d0: ea9e bebc e9e6 3fbe 529a f7bd 2dc1 a6bd
000000e0: 646f 0c3e e2ef 95bd ac47 45bc e343 d83e
000000f0: 7e32 97bd d7d7 013e 2e3a dd3c 60e6 593e
00000100: 6089 563d b4a0 a8bd 2764 b63d 3ee1 643d
00000110: f144 2a3e b77b 213e 69b7 473d f55a 65be
00000120: d24e 273e 7ea2 88bd c164 07be 8cc3 8c3c
00000130: d322 2dbd 332b 55bd fbf8 1cbe 3442 343e
00000140: 07f3 ce3d 277d 51bd f109 aebd 2563 a93d
00000150: 05dd c4bd 1606 43be abe8 4b3e 3bb3 24bb
00000160: 63c6 86bc c0ee ab3d 3f4e 17bd 9267 e03d
00000170: ea29 1cbc 68f6 9dbd 4638 fa3c 1e22 203e
00000180: a5c0 5b3e 19c0 d73d c6e4 40bd 31d6 6bbd
00000190: 3a07 b6bd 841b b0be 51bb 8abe 397b a73d
000001a0: a24d 3e3d 8ecc 68bc 9108 92bd 80a7 263b
000001b0: dd2b 88bd 8b95 e4bc 6dd7 3e3e d8b3 693e
000001c0: 4730 93bd 1396 00be 338c ba3d 7705 89bd
000001d0: d6d7 97bd 71e3 023e f451 383d 466f 54be
000001e0: 9c8f 433d ce87 3f3d 27a6 1a3e 5ddd 513d
000001f0: 0787 3f3e e606 7bbe 859a ab3d c315 243e
0.19048591 -0.0048331553 -0.13700709 0.04984123 0.007896214 0.1343944 0.043663234 -0.059949603
-0.07192338 0.16232035 -0.03633908 -0.015650887 -0.20758218 -0.05554948 -0.15992512 -0.1203024
-0.14574042 -0.061622243 -0.13971989 -0.0989212 -0.10819978 -0.0396393 0.0124654295 0.20518553
-0.094504714 -0.060123395 -0.03756914 0.05083378 0.02936006 -0.05463886 -0.08872292 -0.21188356
-0.15194044 -0.16891395 0.04481948 -0.063350394 -0.03845669 0.04379041 -0.19606322 0.15724316
0.081664905 0.058288544 -0.10993492 0.011068685 0.45944092 0.15813212 -0.08670065 -0.04498711
0.16111447 0.24374689 -0.13533974 0.007865133 -0.023269136 -0.18740429 -0.12089981 -0.08142314
0.13714367 -0.07321145 -0.012041014 0.42239293 -0.073826775 0.12679993 0.027005281 0.21279287
0.052377105 -0.08233777 0.08905821 0.05587887 0.16627862 0.1576985 0.048758898 -0.22397979
0.16338661 -0.06671618 -0.13222028 0.017183088 -0.04226954 -0.05204315 -0.15329354 0.1760338
0.101049475 -0.051144745 -0.0849799 0.082708634 -0.09612469 -0.1904529 0.19912975 -0.0025131244
-0.01645202 0.08395147 -0.036939856 0.109572545 -0.0095314775 -0.07713014 0.030544411 0.15638015
0.21460207 0.105346866 -0.047093175 -0.057577316 -0.08888097 -0.34395993 -0.27096036 0.081778
0.046460755 -0.014208926 -0.0713054 0.0025429428 -0.06648991 -0.027903339 0.18636866 0.22822511
-0.071869425 -0.12557249 0.09108772 -0.066904955 -0.07414214 0.12782075 0.04500003 -0.20745572
0.04774438 0.046760373 0.15102445 0.0512365 0.18703853 -0.2451435 0.08379082 0.16023926

fc_hidden.lin_out.weight f4 [64, 128]
00000000: b3a3 5fbe 48fa 5e3e becb 103e dd65 7fbd
00000010: 5510 84bd 8ce9 8ebd 0569 623e 4f3a 553e
00000020: e9f2 2f3d 2ff9 333e 5fd2 00be a5ba 5abe
00000030: 6e32 53be 4a3c bebd 4b0c d33d 5cbe e33d
00000040: 017e 2f3e 1a66 fcbd 5cb2 673d 1695 9a3d
00000050: 7e86 183e 0143 81be 397b 76be b14b 1d3e
00000060: de1e c43d 4988 38be 9c35 353e c2d2 fa3b
00000070: f08e 7c3e 4a41 bbbd 7bc9 6dbe e3ff b0be
00000080: 3c71 f23e 7f03 31be 1b19 933d 6554 29be
00000090: 28a1 ad3d 1aa0 793d 39b4 7cbe 4a28 873e
000000a0: ea4e cb3c 6e93 51bd 0966 0bbe b4b6 7e3d
000000b0: c167 3a3e 5a9d ddbd 3259 523d 9dea 1dbe
000000c0: b314 93bd 8ccd 173e 641c 87be 33bc 403e
000000d0: c398 6fbe abe6 2bbd 284d 77be 297d 2dbe
000000e0: f4a5 6d3e 1a52 89be d407 d43d 9f3b d5be
000000f0: fc37 f23d bc98 2e3d 8b4f 30bc 0649 733e
00000100: 8121 a13e c034 0a3d a835 bebd e459 fb3c
00000110: 5855 c83d ef41 6abe de25 f83d b6fe ebbc
00000120: 53db d23d 8790 8b3e f228 773e 7d0b 283e
00000130: af41 bcbc bc1b bebd 898f 06be f118 84bc
00000140: c10f 803d 8fc3 b13d 1502 7f3d 04aa e2bd
00000150: 7269 0d3e 2723 b4bd 75a4 1bbe 05fc 393e
00000160: 9884 56bd aff7 453e 320f 5fbe c302 c03d
00000170: a0aa 8d3d a751 b4bd 059d fcbc 5a98 89bd
00000180: 2e86 e1bc 44ea 9c3d 6a0b 803d 61aa 803d
00000190: 8b2e d73c f483 06bd ddde 9a3d 79ef ba3e
000001a0: 6b9d 013f 2a16 303d f551 b3be cef4 f03c
000001b0: e125 cebd 531f 1b3e e1ca 43be cf56 2fbe
000001c0: 08e7 93bc ad93 1d3e f3e0 80bd 313d 2e3d
000001d0: 8d32 b9bc 4215 c43e 6865 70bb 50cf 473e
000001e0: 0150 bdbb 057e af3e 5aac 8c3e 1a2e 60be
000001f0: d8b5 c7bd a450 d7bd 0777 5fbe 4936 583e
00000200: 513a a4be dd20 153e 84bc 2f3e 2785 b73e
00000210: 4c67 6a3d 32bd 9f3e 9609 52bc 1306 483e
00000220: c174 843d fa10 4d3d 9c23 e73d af3e b23d
00000230: b51b a43e 6d6c ac3d 97a3 af3d 7b84 adbd
00000240: b15e 6abe 31e2 2f3d 3b9a da3d 4499 f43d
00000250: b203 bcbd ff87 03bd 1569 113e b414 bcbe
00000260: 8bdb a53d 339a 5abd 610d f9bc 791c 6abe
00000270: a990 3ebe 8e96 803d d434 7b3d 42fe 933b
00000280: 06c1 bc3c 6590 35be a99e a8be adea 2fbe
00000290: ba4b 9fbd 9e20 f23d a92d 9ebc ecab 1bbe
000002a0: d8ce 75be 49fd 133d 8947 a5bd e4e6 61be
000002b0: 3cb1 803d 1e74 a5bd a624 103e 4eb6 ca3e
000002c0: 58f1 0cbf 4634 a9bd 3362 dc3d 89fa b7bd
000002d0: e2ba f2bc 4fad 903e 7156 903d df53 34be
000002e0: 76c1 b43d 9a7c 563e 2039 91be c763 97bd
000002f0: 0a48 483d 6689 ec3e 4b91 9abd 273d c9be
00000300: 0888 a7bd 8493 b8be aab6 acbe ead1 0cbc
00000310: 0fae 56bd 53b7 4fbe 26f9 85be 5e00 edbc
00000320: 535b 92bd 5df0 86bd 6fa3 a7bd 80e1 ee3c
00000330: 427b 0a3e 2a8a 82bc 8feb 123e d1b1 f4bc
00000340: cfb0 62be 1321 9c3d 29b2 343d 27d5 0e3d
00000350: 116f 7b3c 5420 b13d 6cea 913e 6127 033e
00000360: b31e b63d 48a6 3cbe 3834 6fbd b040 863c
00000370: be4e abbe 1903 a93d 8621 f9bd 27d8 0b3e
00000380: 6c80 c7be 636b 9abe 029b 34be a9d4 61be
00000390: 6080 413d f5fb 373e 8a71 9b3e 66a3 71be
000003a0: 5309 dcbd b57a 3cbe 9577 823d b3e1 963d
000003b0: c3d5 45be de18 68be aa58 c7bd fbc2 193d
000003c0: 94cf 0c3e ff5b bebe 3101 87be c75b 9abe
000003d0: 69b4 473d 0f2a 4d3b e6ce dbbd 0fb8 7fbd
000003e0: 35cb 8dbb 4b78 433e ee07 913e d9c4 ed3d
000003f0: af01 a3bd e846 82be 9913 5dbe 304b b1bd
-0.2183979 0.21775162 0.14140221 -0.062353004 -0.064484276 -0.06978139 0.22110374 0.20823024
0.042956267 0.17575525 -0.1258025 -0.21360262 -0.20624706 -0.09288843 0.10305079 0.111202925
0.1713791 -0.12324162 0.05656658 0.07547967 0.14895055 -0.25246432 -0.24070443 0.15360905
0.095762 -0.18020739 0.17696232 0.007654519 0.24663901 -0.09143312 -0.2322139 -0.34570226
0.47352016 -0.1728649 0.07182523 -0.165361 0.08478004 0.0609437 -0.24678124 0.26397926
0.024817903 -0.05116599 -0.13613142 0.062185958 0.18203641 -0.10821028 0.051354595 -0.15421529
-0.071816824 0.14824504 -0.26388848 0.18821792 -0.23398118 -0.04196803 -0.24150527 -0.16942276
0.23207837 -0.2682045 0.103530556 -0.4164705 0.118270844 0.042626128 -0.010761152 0.23758325
0.31470874 0.033741713 -0.09287578 0.030682512 0.09781903 -0.22876714 0.121165976 -0.02880798
0.10295739 0.27258703 0.24136713 0.16410632 -0.02298054 -0.09282634 -0.13140692 -0.016125174
0.06253005 0.08679878 0.062257845 -0.11067584 0.13809755 -0.08795767 -0.15199454 0.18162544
-0.052372545 0.19332765 -0.2178314 0.09375527 0.0691731 -0.088046364 -0.030836591 -0.06718512
-0.027529802 0.0766187 0.06252177 0.06282497 0.02626731 -0.032840684 0.07562039 0.36510828
0.50630826 0.042989887 -0.35023466 0.029413607 -0.100658186 0.15148668 -0.19120361 -0.17122959
-0.0180545 0.15388365 -0.06292906 0.042538825 -0.022607112 0.38297468 -0.0036681537 0.19512677
-0.0057773595 0.34275833 0.27475244 -0.21892586 -0.09751481 -0.10513428 -0.21822749 0.21114458
-0.32075742 0.14563318 0.17161757 0.35843775 0.057227418 0.31199032 -0.012819668 0.19533567
0.064675815 0.05006502 0.11286089 0.08703362 0.3205239 0.08419118 0.08576124 -0.08472534
-0.22887684 0.042940322 0.106739484 0.119432956 -0.09180392 -0.032112118 0.14200242 -0.36734545
0.08098515 -0.053369712 -0.030401887 -0.22862424 -0.18609871 0.06278716 0.061329678 0.004516394
0.02304126 -0.17730863 -0.32933548 -0.17179365 -0.077781156 0.118226275 -0.019308882 -0.15202302
-0.24004686 0.036130223 -0.08070285 -0.22060734 0.06283805 -0.08078788 0.1407648 0.39592212
-0.5505576 -0.082619235 0.107609175 -0.08983333 -0.029630128 0.28257224 0.070477374 -0.1761012
0.08825962 0.20945969 -0.28363895 -0.07392078 0.048896827 0.46198577 -0.07547244 -0.39304468
-0.08180243 -0.36050045 -0.33733112 -0.008594969 -0.05241209 -0.20284776 -0.26166648 -0.02893084
-0.07146325 -0.065888144 -0.08185469 0.029160261 0.13523582 -0.015935022 0.14347671 -0.029869946
-0.2213776 0.07623496 0.04411522 0.034871247 0.0153463045 0.08648744 0.28499162 0.1280799
0.08892574 -0.18422806 -0.05839941 0.016388267 -0.33458513 0.08252544 -0.12164597 0.13656674
-0.38965166 -0.30160055 -0.17637256 -0.2205378 0.04724157 0.17967208 0.3036006 -0.23597488
-0.10743966 -0.18406184 0.06370465 0.073672675 -0.19319825 -0.22665736 -0.09733708 0.037539463
0.1375106 -0.37179562 -0.26368096 -0.30148146 0.048756037 0.0031305586 -0.10732822 -0.06243139
-0.0043272027 0.19088857 0.28326362 0.11609811 -0.079593055 -0.25444722 -0.21589507 -0.08656919

fc_hidden.lin_out.bias f4 [64]
00000000: 89fa b6bd 7802 6b3d 0618 293c e6d7 e03c
00000010: ef8a 1d3d 101d 923c ece1 a93d a4ec dfbd
00000020: 5601 eb3c b0b9 96bd e0c0 acbc 4482 76bc
00000030: ab25 9ebb c69b 1bbd ef80 3ebd 564a 4fbd
00000040: d533 993d b809 f33c 774a cb3d 7519 363d
00000050: 1fc2 803d a02a 1abd f902 02bd 1a80 ba3c
00000060: 96b8 58bd 2994 94bd e250 97bc 0bc9 9b3c
00000070: 8217 90bb 5883 f8bc 682b 76bd 0832 02bc
00000080: 4240 28bc 8017 2e3d 1258 60bc cce2 8a3c
00000090: 570a a43d 826d d3bd 3b9b f9bc e298 743c
000000a0: a69e 20bd aa95 b33c bb13 333c 6bb6 4e3c
000000b0: 51af c2bb 4ee5 863d b739 afbd 9e9a 86bd
000000c0: e0fb 60bd 38ca 94bd e505 2fbd 51d4 ae3d
000000d0: 9ecf 82bd 45d0 debc 8cb8 8f3d ee4c 56bc
000000e0: fc39 38bd 8adb 693d 15e8 14bd abf9 653b
000000f0: 5e0a 9e3c dc17 7ebd 0f49 5bbd 8eea a8bd
-0.089345045 0.0573754 0.010320669 0.027446698 0.038462576 0.017836124 0.08295044 -0.109338075
0.02868716 -0.07359636 -0.021088064 -0.015045706 -0.0048262677 -0.037990354 -0.04650968 -0.050608
0.07480589 0.02966772 0.099263124 0.04445787 0.06287026 -0.037638307 -0.031741116 0.022766162
-0.05291041 -0.07254822 -0.018471185 0.019016763 -0.0043973336 -0.030336067 -0.06009999 -0.007946499
-0.0102692265 0.04250288 -0.013692873 0.016953848 0.08009785 -0.10323621 -0.030469527 0.014929028
-0.0392138 0.021921951 0.010929997 0.012616734 -0.0059413095 0.06586705 -0.0855593 -0.0657246
-0.054927707 -0.07265133 -0.04273023 0.0853659 -0.06387256 -0.02719892 0.070176214 -0.013079865
-0.044977173 0.057094134 -0.036354143 0.003509144 0.019292053 -0.062034473 -0.05353647 -0.08247863

fc_hidden.norms.0.weight f4 [128]
00000000: 0b8e 663f 37ba d23f f726 7a3f 1c85 a43f
00000010: 29b8 553f 8f63 983f 3550 df3f 9233 333f
00000020: 1835 a13f 0bf1 a73f cb3d a53f 28c7 943f
00000030: 64a5 7b3f 2131 c03f 3ec9 933f 4c2e 833f
00000040: f21d b63f 8ee9 8b3f 5683 763f 8660 7f3f
00000050: 89bd 933f 9645 823f 46e0 983f 45b1 963f
00000060: 8063 aa3f 8647 633f 75b9 883f f500 a53f
00000070: 3cf9 7e3f 9e9e 5e3f 1543 893f 86da 963f
00000080: 835a 9e3f 08f5 8f3f 7f64 bf3f f615 6b3f
00000090: 9a30 843f d930 5b3f 9b90 8b3f adb8 7a3f
000000a0: 4bd3 a73f 8b4a 753f c45f 683f d3f0 9b3f
000000b0: d88b b63f e0b2 733f 55ab 6d3f c3ed 8a3f
000000c0: d0aa 763f 7b0a 973f d510 823f 85e1 b83f
000000d0: 343a 863f c809 8a3f 4aba 663f df9d 563f
000000e0: 5b32 803f 0162 843f b909 8a3f 1500 863f
000000f0: aeca 893f 595f b23f 68e8 cb3f 91eb a63f
00000100: 6538 983f 16ff a63f 7a37 853f 66f5 6a3f
00000110: 9c59 653f 51ed 5f3f 5c21 053f e145 883f
00000120: 7381 963f 731b 3a3f 3aec a93f 5460 6e3f
00000130: 0bc2 843f 3697 b23f bf2a 843f 4c56 bc3f
00000140: 61d3 8b3f 9d5c 9a3f eae7 853f f81e 983f
00000150: 5553 8d3f ea84 8d3f cc00 7a3f dbcd 873f
00000160: a818 b03f ee38 a93f 00f4 853f fbf5 9e3f
00000170: 3836 9a3f 328a c23f c7c8 9c3f 6162 973f
00000180: c8ed a63f dfc5 783f 9fb6 5c3f e2f5 a33f
00000190: 393d 883f b962 893f b94e 6d3f 1ce2 933f
000001a0: c3c9 923f 1987 693f 2082 943f 1649 433f
000001b0: 278f 9d3f 4392 493f 4a41 ad3f 29b1 9c3f
000001c0: d1bd 883f 2d8b 963f db20 813f 9cae 883f
000001d0: e02a 903f 129e 8a3f f138 a83f 84f9 a13f
000001e0: 3c6e 803f 3b86 813f 3183 883f ab03 3d3f
000001f0: 24cc 7d3f 98aa 8f3f cdc8 953f b4c7 8a3f
0.9006049 1.6463078 0.97715706 1.2853122 0.8348413 1.1905383 1.7446352 0.70000565
1.2594328 1.3120435 1.2909483 1.1623278 0.9829924 1.5014993 1.1545789 1.0248504
1.4227889 1.093065 0.9629415 0.9975666 1.1542217 1.0177486 1.1943443 1.1772848
1.3311615 0.8878101 1.0681597 1.2890917 0.9959905 0.8696078 1.0723597 1.1785438
1.2371372 1.1246653 1.4952544 0.91830385 1.0327332 0.8562141 1.0903505 0.9793804
1.3111356 0.9581687 0.90771127 1.2182869 1.4261427 0.95194817 0.92839557 1.0853809
0.9635439 1.1800073 1.0161387 1.4443823 1.0486512 1.0784235 0.90128005 0.8383464
1.0015367 1.0342408 1.0784217 1.0468775 1.0764978 1.3935348 1.59303 1.3040639
1.189221 1.3046596 1.0407555 0.917807 0.8958986 0.8747149 0.5200403 1.0646325
1.1758255 0.72698134 1.3275216 0.93115735 1.0371717 1.3952396 1.0325545 1.4713836
1.0923883 1.2059513 1.04614 1.1884451 1.1041056 1.1056187 0.97657466 1.0609697
1.3757524 1.3220499 1.0465088 1.2418817 1.2047796 1.5198424 1.2248772 1.1826898
1.3041315 0.9717693 0.8621616 1.2809412 1.0643684 1.0733253 0.92698246 1.1553378
1.1467823 0.9122177 1.1602211 0.76283395 1.2309312 0.787388 1.353555 1.2241565
1.0682927 1.1761223 1.0088152 1.0678287 1.1263084 1.0829489 1.3142377 1.2654271
1.0033641 1.0119089 1.0665036 0.7383372 0.9913962 1.1223936 1.1701905 1.0842195

fc_hidden.norms.0.bias f4 [128]
00000000: c111 563e 85b1 19bf fc04 3fbf 7f57 f7be
00000010: 49a5 ae3b 85fa 2bbf 4510 d2be 5ca7 68bf
00000020: fabe c4be c028 44bf 7d64 f0be a8a9 02bf
00000030: 150a 583c 8c2e 9fbf 5b8b 373d f7de b9be
00000040: d341 5bbf 4782 fbbe 98f7 0abf 0273 f9be
00000050: 0451 fabe fbc3 29bf a80e dfbe b729 aebe
00000060: d3af 0fbf 89f1 08be eaac 01bf 375b 53bf
00000070: 0578 09bf 16e3 43bf aceb 44bf c579 4abf
00000080: 9df2 17bf 9ff2 07bf 4f5f 8fbe ae46 79bf
00000090: d95c debe 45a5 01bf 5fb1 1fbf fc7d d9be
000000a0: 5f1a 39bf eeee c8be 96b9 84be 26c3 54bf
000000b0: 7f81 46bf 4c57 07bf 3030 1ebf 19b6 c9be
000000c0: 50c0 2fbe 009e 01bf 3085 98bc f976 a9be
000000d0: 1af9 0dbf 3e6f 3fbf 7c96 d8bd 210d 02bf
000000e0: 5c70 4dbf 1843 32be d791 68bf 3f05 acbe
000000f0: 653c d2be 428d eebe d4d8 59bf 92e5 3ebf
00000100: 9dbf 4abf 0189 acbe eab7 ebbe 78f4 f6be
00000110: dc99 08bf 4d3d 76bf 4d3d 45bf d59d 3ebe
00000120: 9072 1abe 23ac 53be b605 fabe 47a1 07bf
00000130: 5f75 15bf 1a14 c2be a281 31be 5f38 a6bf
00000140: 70ad 02bf ff30 e1be cf8a 28be 78fa b8be
00000150: 3c83 50bf 5849 dabd e6ce edbe 5ba8 18bf
00000160: 9162 37bf fdb5 63bf a463 dcbe 31d3 ffbe
00000170: fb55 1fbf a4c1 f5be 460f 4ebf 8395 49bf
00000180: abbc 48bf 1ac8 0bbf f764 a9be a92c 2fbf
00000190: aed1 d2be 7ee9 abbe 8d0f abbd b0cd 8ebd
000001a0: 0732 9d3e 0dbf 4dbf 2b8b 4ebf a3a2 38bf
000001b0: c15a 2fbf af0f a3be 9c8f 47bf 94fc 1bbf
000001c0: 3e6f 3fbf f4c8 0dbf 0d3f f7be 044a 33bf
000001d0: eb9e 45bf 168d 1bbf 9707 70bf af5e 33bf
000001e0: ff12 5dbf f948 3abf f74d 07bf b33a a0be
000001f0: 6afc 72bf b040 13bf a5d5 31bf 4a33 d4bc
0.2090521 -0.600365 -0.7461698 -0.48308942 0.005329762 -0.6717914 -0.41028038 -0.9088037
-0.38426954 -0.7662468 -0.46951666 -0.51040125 0.0131859975 -1.243608 0.044810634 -0.3630292
-0.85647315 -0.4912283 -0.5428405 -0.48720556 -0.48889935 -0.6631467 -0.4356587 -0.340162
-0.5612766 -0.13373388 -0.5065447 -0.8256106 -0.5369876 -0.7651838 -0.76922107 -0.79092056
-0.59354573 -0.53104585 -0.28002402 -0.97373474 -0.43430212 -0.50642806 -0.6238002 -0.4247893
-0.72305864 -0.3924479 -0.2592284 -0.8311027 -0.77541345 -0.5286758 -0.6179228 -0.39396742
-0.17163205 -0.50631714 -0.018618196 -0.3309858 -0.55458224 -0.7477912 -0.105755776 -0.50801283
-0.8024957 -0.17408407 -0.90847534 -0.33597752 -0.41061702 -0.46592146 -0.8509648 -0.74569046
-0.7919863 -0.33698276 -0.46038753 -0.4823339 -0.5335977 -0.9618729 -0.7704666 -0.18614896
-0.15082765 -0.20671134 -0.48832482 -0.52980465 -0.5838222 -0.3790596 -0.17334607 -1.2985953
-0.51045895 -0.43982694 -0.16459201 -0.36128592 -0.8145025 -0.106585205 -0.46446913 -0.5963189
-0.71634775 -0.8894957 -0.4304477 -0.49965814 -0.6224057 -0.479993 -0.80492055 -0.7874376
-0.78412884 -0.54602206 -0.33084843 -0.6842752 -0.41175598 -0.33576578 -0.083525755 -0.069728255
0.3070223 -0.80369645 -0.80681103 -0.72123164 -0.68497854 -0.31847903 -0.77953506 -0.6093228
-0.7477912 -0.55384755 -0.4829029 -0.70034814 -0.77195615 -0.60762155 -0.9376158 -0.7006635
-0.8635711 -0.727676 -0.5285334 -0.31294784 -0.94916403 -0.5752058 -0.6946662 -0.025903363

fc_hidden.norms.0.running_mean f4 [128]
00000000: a7a9 ccbe 5234 e23e 9470 6240 e24e 33c0
00000010: 7664 393f fba1 bcbd 3d28 5c3e 6250 da3e
00000020: b2bf bebf 9fe2 32bf 9adf f1be 2cf6 02bd
00000030: 3bfd 1dc0 daea c7bf b15f 35bf 0442 acbf
00000040: 9d4d 703e ba21 04c0 c045 343f df40 c3bf
00000050: 230a 01c0 d14d 87be c5f6 523f a1e8 68bd
00000060: d691 17bf 63ec c7bf dded 1840 776f 1cbf
00000070: a72c 9a3f 607c 40c0 bf76 8f3f 1c36 6ec0
00000080: 80a1 be3f f63c f3bf 44e8 babf a139 fe3d
00000090: a079 f8bf 7747 07c0 1ca4 b63f 9a00 e8bb
000000a0: 551c 19c0 f43f 2740 f44f 14c0 5b07 f7bf
000000b0: 1b60 a6bf 6222 59c0 987e 9d3d 5956 123c
000000c0: 9578 a0be e841 193e 4e58 6ebf 0794 57c0
000000d0: 866c 04be e682 c6bf 95cd b5bd e9cc 9abe
000000e0: 7004 eebc 6161 31c0 cc07 97be 771b 17bf
000000f0: d0e8 533f 7428 71bc 3dd9 f0bd 3f15 9dbe
00000100: 2363 3fbf 7238 bdbe 5ba8 90bf becf acbf
00000110: 584f 68bf cf49 3dbf 65a5 973f 4f44 bfbf
00000120: bf5d 933f ec54 37bf 30df f13e 70c3 50bf
00000130: 3f63 1b3e 2cf5 2240 339f ecbf 681c 33bf
00000140: 4661 d33e bbf1 c3bf e61d 28bf a817 58bf
00000150: cc58 1a40 46f9 70be f56b 7fc0 397f fe3f
00000160: d401 0840 6fa3 50be 078c 10bf c8bf 01c0
00000170: d2f0 01c0 9ee9 ac3e 67c8 fdbf 5a26 bf3f
00000180: 0b2c 92be 3fee 703d 21db 173f 3076 be3f
00000190: 7c71 2f3f 2921 e03f 5fd7 15bf 644c 4e3f
000001a0: a320 38bf 467c 5dc0 9482 1b40 bf20 ca3f
000001b0: 992e ecbf 2746 0c40 d239 0fc0 522a 10bd
000001c0: 3322 efbe 65c0 eebf 51c1 3b40 cc41 91bf
000001d0: f0d8 7240 479b 85bf 3647 5cbe 7a29 873f
000001e0: 997c c9be f6a6 7a3f 5518 76bf ad84 56bf
000001f0: e820 26c0 203c fdbe 9c6c dabe dbcc 6f3c
-0.39973184 0.44180542 3.5381212 -2.8016896 0.72418916 -0.09210583 0.21499725 0.42639452
-1.4902251 -0.69877046 -0.47240907 -0.03197305 -2.468581 -1.5618546 -0.7084914 -1.3457646
0.23467107 -2.0645585 0.7041893 -1.5254172 -2.0162437 -0.26426557 0.8240779 -0.056862477
-0.59206903 -1.5619015 2.389518 -0.6110758 1.2044877 -3.0075912 1.1208113 -3.7220526
1.4893036 -1.9002979 -1.4602132 0.124133356 -1.9412117 -2.1137369 1.4268832 -0.00708015
-2.3923542 2.6132784 -2.31738 -1.929912 -1.2998079 -3.3927236 0.076901615 0.00893172
-0.31341997 0.14966547 -0.9310349 -3.3684099 -0.12932023 -1.5508697 -0.08877102 -0.3023446
-0.02905485 -2.7715685 -0.29498136 -0.59026283 0.8277712 -0.014719117 -0.11760185 -0.30680272
-0.74760646 -0.36957127 -1.1301378 -1.3500898 -0.9074607 -0.7394075 1.184735 -1.4942721
1.1512984 -0.71613955 0.4724059 -0.81548214 0.15174578 2.546214 -1.8486084 -0.6996522
0.4128515 -1.5308145 -0.6567062 -0.84411097 2.4116697 -0.2353259 -3.9909642 1.9882575
2.1251116 -0.20374845 -0.56463665 -2.0273304 -2.0303235 0.33771986 -1.9826783 1.4933579
-0.28549227 0.05882096 0.5931874 1.4879818 0.6853254 1.751012 -0.58531755 0.8058531
-0.719248 -3.46071 2.4298449 1.5791243 -1.845172 2.1917818 -2.237904 -0.03519661
-0.4670578 -1.8652464 2.933674 -1.1348205 3.7944908 -1.0438012 -0.2151154 1.0559533
-0.39352873 0.9791101 -0.9613088 -0.837962 -2.5957584 -0.49459934 -0.42660987 0.014636244

fc_hidden.norms.0.running_var f4 [128]
00000000: 8c8a 8f3d 007c c93d f7f1 323e 102d a73d
00000010: 6d28 823d 0bc3 9b3d f2ad 823e e8df 6e3d
00000020: f94a e03d 3969 aa3c 8d53 943e 7270 e13d
00000030: b5de 053d e9aa 523d c375 3e3d e5f2 3d3d
00000040: c33d 713d bb6b c53d b333 513d e75a 363d
00000050: 11ba 173d f43f 063d de95 243d 93eb 953d
00000060: 85e7 a23d 8011 a43d c65a d73d 6647 633d
00000070: f32d c73d f0d7 2f3d a2c0 bb3d 27d2 353d
00000080: fed1 4b3d 72ea 903c 7175 e43d 6e55 9a3c
00000090: a38f 793d 08e0 5a3d a7c3 eb3c cb93 013d
000000a0: a2c2 8a3d b8c2 3b3d f90b 273d 99e3 003e
000000b0: 8b1d 173d 1022 3a3d 4400 a73d 6c6d 5c3d
000000c0: 9cd4 8a3d 62d8 823d d5a4 823d 7756 aa3e
000000d0: 3d5e 353d 6071 ed3c fcfa 6b3d d5f5 e43d
000000e0: 69e0 d63c 1321 ce3c fc53 5f3e b4fe 6a3d
000000f0: e7d4 953d 93ba 7b3d 6d70 3e3e d6c4 4c3d
00000100: eb9c 9b3d 3e8a 143d 7c49 033e 6c1a 1a3e
00000110: 1431 a23d be27 833d d6f4 2d3e 2125 1a3d
00000120: 0955 9c3d 0a6a 593d 5799 913d 1d5c 3a3d
00000130: bcd8 463d 1b53 543e c547 193d 832b ed3d
00000140: b029 4c3c 1a97 1d3d 9967 773d e13f 113e
00000150: 2b47 033e d180 353d 95e2 2a3d 7362 803d
00000160: 0a88 6f3d 9aa4 953d 7424 eb3d b1d1 243d
00000170: 610b 893d e6d4 a53d 2543 6b3d ef6c cc3c
00000180: 025f 1d3e 8a49 553d 9762 a63c 6327 b63d
00000190: 045f f63c d321 903c 76e2 353d 7282 bf3c
000001a0: 2169 1c3d 2908 773e 1324 ed3d 6f90 d33e
000001b0: 2fb2 a23d 7077 253d 0ebe 5b3d 72c4 193d
000001c0: ef7a 4c3e 6b9e 753d 0066 1c3d a32b 6c3d
000001d0: e290 133e 0a36 e53c bfde 133e 9199 0f3e
000001e0: 23b6 433d 277a 293d 68e0 733d 012a 023d
000001f0: 389e f13d 4ec9 213d 621b 1b3d a7db 1c3d
0.070088476 0.09838104 0.17475115 0.08162892 0.06355367 0.07605561 0.25523335 0.058319002
0.109518 0.020802127 0.28969994 0.11007775 0.032683093 0.051432524 0.046499025 0.04637422
0.05889679 0.096396886 0.051074695 0.044520285 0.03704268 0.032775834 0.040181987 0.07320323
0.07954315 0.0801115 0.105153605 0.055488013 0.09725561 0.042930543 0.09167601 0.04438987
0.04976081 0.017689917 0.11155213 0.018839564 0.060928 0.05343631 0.028779818 0.031635087
0.067754045 0.045839995 0.040782902 0.12586822 0.03689341 0.04544264 0.081543475 0.05381529
0.06778833 0.06388928 0.063790955 0.33269092 0.044279326 0.028984725 0.057612404 0.11179701
0.026230054 0.025162255 0.21809381 0.05737181 0.073159985 0.061457228 0.18597575 0.049992405
0.07598289 0.03626465 0.12821001 0.15049142 0.07919517 0.064040646 0.16987929 0.037633065
0.07633407 0.053079642 0.071093254 0.045498002 0.048546538 0.20734827 0.03742196 0.11580565
0.012461111 0.03847418 0.060401533 0.14184524 0.12820117 0.044312302 0.04171999 0.06268778
0.058479346 0.07306786 0.11481562 0.04023904 0.066916235 0.08097248 0.05743708 0.024954287
0.15368274 0.052072085 0.020310683 0.08894231 0.030074604 0.017594254 0.044405423 0.02337763
0.038186196 0.24124207 0.11579146 0.41321132 0.07944142 0.040397108 0.053648047 0.03754086
0.1996877 0.059965532 0.038183212 0.057658803 0.14410737 0.02797987 0.1444044 0.14023425
0.04778112 0.04137626 0.059540182 0.03177834 0.11797756 0.03949862 0.03786791 0.038295414

fc_hidden.norms.1.weight f4 [64]
00000000: 4b8a c13f 52f2 953f ce9a 853f cd4d ef3f
00000010: 02f4 d33f c648 7f3f 7c16 9b3f 6a24 b63f
00000020: 873f ca3f c2b9 933f 6f5d f13f 04ee 0c40
00000030: 3ed2 e23f 6d8a e73f 21b8 833f c3ae e03f
00000040: b4f5 ae3f 71d6 eb3f 23c4 a13f 7b77 e23f
00000050: 706c b83f d550 ea3f 3b10 be3f 7516 bd3f
00000060: 3869 b83f b43a a93f 4317 a43f fe8f c43f
00000070: d931 c53f a810 813f 8080 ca3f 8ed4 983f
00000080: e357 e03f f6ae 0040 9a20 873f c80d a73f
00000090: ad34 a83f 03f6 d43f cd99 f83f aee9 d13f
000000a0: c5d0 f43f 6113 dc3f 585d b23f e22d d73f
000000b0: 87f1 9f3f 8eeb c23f 5345 cf3f 1217 903f
000000c0: 95e0 db3f 1d26 da3f c394 7f3f b319 813f
000000d0: 6fad d33f a0e5 bd3f edc8 0040 d950 ad3f
000000e0: 00ad fa3f 289a e23f 6876 cd3f 38ea d33f
000000f0: 6570 a03f 83c8 b03f ec7e dc3f e3aa 643f
1.5120329 1.1714575 1.0437868 1.8695618 1.655884 0.9972042 1.2116237 1.4229863
1.5800637 1.1541064 1.8856639 2.2020273 1.7720411 1.8089119 1.0290567 1.7553333
1.3668733 1.8424817 1.2637981 1.7692713 1.4408092 1.8305918 1.4848703 1.4772478
1.440711 1.322104 1.2819599 1.5356443 1.5405837 1.0083208 1.5820465 1.1939867
1.7526821 2.0106788 1.0556824 1.3051081 1.3141075 1.6637577 1.9421936 1.6399438
1.9126211 1.7193414 1.3934736 1.6810877 1.2495583 1.5228136 1.6193031 1.125704
1.7177912 1.7042881 0.9983637 1.0085968 1.6537303 1.4835701 2.0122635 1.3540298
1.9584045 1.7703295 1.605176 1.6555853 1.25343 1.3811191 1.7226233 0.8932325

fc_hidden.norms.1.bias f4 [64]
00000000: b5f0 dfbe 6ca5 95be 2dc0 c7bd 2881 89be
00000010: 9095 8ebe 298d 8abe 88e9 e3be 8a82 82be
00000020: b10a 6bbe 8e50 b7bd bd84 9abe 2551 95be
00000030: 2575 1bbf 4c8e a2be 4bbd f9bd 1276 89be
00000040: b2c5 9bbd 0e8f a6be a293 cfbd 60e7 dabd
00000050: 711d 5cbe e06e 1abf f8ce 89be 7c39 87be
00000060: 8d1e 13bd 30df 7ebe a81c 86be 5f26 bbbe
00000070: fffe 22be c327 d63b 5dbf c6be a3ab dbbe
00000080: c423 b6bd 5fd2 9abd b684 2cbe 14c5 3abe
00000090: dcd7 1cbe 177a e5be cec5 1bbf 578c 10bf
000000a0: d03e 49bf ba70 5fbe f03a bcbd ab8f 5bbe
000000b0: 7eed 8abe da9d bbbe 9fc4 06bf d230 36be
000000c0: 75e8 f1be ed68 a2be 586b 9fbe d384 1dbe
000000d0: d05d 5abe 06a6 dbbe 1525 2dbf 9f09 9dbe
000000e0: 0ddb 89be 71c1 06bf b86a b1be aa17 8abe
000000f0: 90a9 38be 0571 a1be 4aa0 cbbe e8b8 61be
-0.43738332 -0.2922777 -0.097534515 -0.2685635 -0.27848482 -0.27060822 -0.44514108 -0.25490218
-0.22953297 -0.089509115 -0.30179396 -0.2916347 -0.60725623 -0.3174919 -0.12194308 -0.26847893
-0.07606067 -0.32531017 -0.101355806 -0.106886625 -0.21495606 -0.6032543 -0.26915717 -0.26411045
-0.035917807 -0.24889827 -0.26193738 -0.36552712 -0.15917586 0.0065355017 -0.38817874 -0.42904386
-0.088935405 -0.07559656 -0.168475 -0.18239242 -0.15316719 -0.4481971 -0.608487 -0.5646414
-0.7861147 -0.21820346 -0.09190929 -0.21441524 -0.27134317 -0.3664387 -0.5264377 -0.17792061
-0.47247663 -0.31720677 -0.31136584 -0.153827 -0.21324849 -0.42900103 -0.6763471 -0.30671403
-0.26924935 -0.5263892 -0.34651732 -0.2697118 -0.18033433 -0.3153154 -0.39770728 -0.22043192

fc_hidden.norms.1.running_mean f4 [64]
00000000: e171 2fbe a3cd 5e3f 3c33 21bf 9d59 6d3f
00000010: 290c 223f 3af8 5d3e ef15 5d3f d1ba a1bd
00000020: e54d b83e fa8c 2e3f 0fc4 eabe 70b4 323f
00000030: 0ced 1dbf f2e1 f73f 5570 3b3f 39a7 c83e
00000040: 072f d2be abbd e33f 7fee 813e fbec cb3f
00000050: 1ee4 403f 36d6 09bf e05a cebe 5264 443f
00000060: 941d 28bf 2944 bd3d 5cd2 cdbe 2d07 d1bf
00000070: 4e85 903f 23d3 abbc e585 debe b6cb 3dbf
00000080: de92 d23e 94db 7a3e 4a46 7a3f 504a 003f
00000090: 2b95 97be 8e46 b53f 4024 bdbf 8c80 5b3f
000000a0: 3165 93be 3829 6b3f f75b a13f 1426 23bf
000000b0: a483 f23f dde1 b43f 5ac5 7fbf 1d6b 8f3f
000000c0: b241 c93d 3f9c 8abf bf0b 693e 6c3e 663c
000000d0: fe6c 543f f784 87be cba3 28bd cff1 9ebf
000000e0: 7463 29bf 91d5 28bf aa55 ea3f 02a3 ee3e
000000f0: 56dc 7a3f 316a 8e3f 2ed0 cfbe d52c 8d3f
-0.17133285 0.87032527 -0.629688 0.92714864 0.63299805 0.21676722 0.86361593 -0.078969605
0.3599693 0.68183863 -0.45852706 0.69806576 -0.6168983 1.9365828 0.7321828 0.3919008
-0.41051504 1.7792257 0.2537727 1.5931696 0.7534808 -0.53842485 -0.40303707 0.76715577
-0.6567013 0.09241516 -0.40199554 -1.6330315 1.1290681 -0.020974701 -0.43461528 -0.74138963
0.41127676 0.24497825 0.977635 0.5011339 -0.29605994 1.4162157 -1.4776688 0.8574302
-0.2878814 0.9185977 1.260619 -0.6372998 1.8946424 1.4131428 -0.9991051 1.1204563
0.098269835 -1.0828933 0.22758387 0.0140529685 0.8297881 -0.26468632 -0.04117183 -1.2417544
-0.6616738 -0.65950876 1.8307393 0.4660874 0.97992456 1.1126157 -0.40588516 1.1029307

fc_hidden.norms.1.running_var f4 [64]
00000000: b1f1 bf40 1899 4e41 d4e1 9340 2f95 e940
00000010: 3721 1341 c4cb 0841 8fff ce40 7044 7440
00000020: 4d7a 9440 550b 7640 91d4 9740 8683 dc40
00000030: d5ab 7a40 04ae 8240 4b10 1341 5902 1141
00000040: 4bde 9c40 704a 8d40 57ce e040 3ad2 c140
00000050: 467c 2641 09be f140 0daa e440 5042 d440
00000060: 7974 8540 59d1 d640 9f63 f340 364b e240
00000070: 4785 0141 78c9 1541 d57a b440 65f9 0141
00000080: 3632 1f41 70a0 3041 40fd 4941 1673 f740
00000090: cebc 0941 ed5b 9540 63d1 9040 102e b340
000000a0: 3cd3 c040 8f84 9040 753e ce40 dbaf 8740
000000b0: e1cf 3441 4d0e fe3f 0006 0c41 d3a4 0241
000000c0: 00f6 d240 a24c 1140 eebc 3740 829e b340
000000d0: 1ca1 0141 af75 0f41 5d8d aa40 fc74 8140
000000e0: 695a 0f41 43a5 a940 e39e 8540 5aa6 c840
000000f0: 5973 d540 eea0 bc40 70bb 9e40 5da0 8840
5.9982533 12.912376 4.621317 7.299461 9.195609 8.549747 6.468696 3.816677
4.6399293 3.8444417 4.744698 6.891055 3.9167378 4.083742 9.191478 9.063073
4.9021354 4.4153366 7.025188 6.0569124 10.40534 7.5544477 7.145758 6.633095
4.170468 6.713055 7.605911 7.071681 8.095038 9.361687 5.639994 8.123387
9.949759 11.039169 12.624329 7.7327986 8.608595 4.6674714 4.52556 5.599373
6.0257854 4.5161815 6.445124 4.2402167 11.300752 1.9848114 8.751465 8.16524
6.5925293 2.2703023 2.8709064 5.613099 8.101833 8.966231 5.3297563 4.0455303
8.959573 5.3014235 4.1756454 6.2703066 6.6703305 5.8946447 4.9603806 4.2695756

fc_out.weight f4 [10, 64]
00000000: 5361 9fbe 999a 073d b4e9 05be 9831 1ebe
00000010: 0a44 133e e14f b6bd 2966 94be 77de 6c3d
00000020: 4287 f33d 7859 e3be eb65 85bd 21b5 0ebf
00000030: b6ed 173e 9cd5 863e 059c 46be fce9 8fbf
00000040: 89a3 e4be 7876 26be 9b1d 4c3e 4545 813d
00000050: bde7 d9be 62c9 573e daeb ad3e d022 d23e
00000060: ba83 3abe 3e33 6cbe e405 bfbe 8434 85be
00000070: 5b5f 3a3e 0c00 81be 94d1 933e dfe3 453d
00000080: fca6 523e 98dc 4f3e 1355 10bf 8b0a 63be
00000090: 042e 323d b554 213e 4f81 9c3e cc1c 673e
000000a0: 7b49 853e 1b4b 673d 497d 883e cb1b 153f
000000b0: 525d bcbd ec6c 873e 81e9 e53e 2b0c 09be
000000c0: 4c10 f43d 8347 903d 6985 c83d 18d7 20be
000000d0: 8977 3bbf 0cc7 5f3e 104a 913d 22c8 01bf
000000e0: 670a b0be 7c9b cb3c 4075 6ebf f3dc d6bc
000000f0: 2409 c3be 27d8 1fbe 2948 233e b9f4 7fbe
00000100: 78ef 273d aae9 f1be ee50 bebd f91a a13e
00000110: 379f 99be b3a3 0abf 7cc0 8bbd 57f3 e0bd
00000120: d106 03bf edd7 f1bd 2eca babd af47 75bd
00000130: 903a c5bd 6744 203d af98 89bd 7139 df3e
00000140: 0bcf d03e 0abd 8e3d da16 94be 061c 35bf
00000150: 6033 3b3e 4bf4 2dbe 7dd0 133e 5cb8 913e
00000160: b732 84be d7e5 d7be f5ce 783e 92e7 9c3e
00000170: 866a 76bf 5129 18bf e584 883c de38 2e3d
00000180: e139 a2bd 43cc 95be e093 353e bee8 abbd
00000190: 4a78 1fbf 003d afbd a8bc 0c3f 937c 213e
000001a0: e22b 23bc bac3 1fbe 7790 99be efdb c53e
000001b0: f337 0dbf abb3 0abf f0ed 2c3f f7c2 6cbe
000001c0: f2dd c73d d62e bcbe 7917 11bf 666b 86be
000001d0: 9d11 933e 973f 8bbe c76e 3b3e e853 a7bc
000001e0: 5774 1a3f 05d2 c73e 4a67 693e 1f46 b03e
000001f0: ca48 a5be 697b 4f3e 63fb 8e3e 7451 ef3c
00000200: 25d4 a23c 2e8b d13c 5fa4 aebc 70a5 bbbe
00000210: 6144 3a3e ee1f 5e3d c7e2 733d 8a72 b2be
00000220: 393b 32be 3538 b3bd 2d18 053f dbac c73d
00000230: 4cda 933e 0701 6d3d c85a 15be 72bc 7b3e
00000240: 6ab9 8d3e 66af 703e 45b6 963d c718 c23e
00000250: 18ab 0d3e e7e8 513e 2900 d3be 0f4f 32be
00000260: 1922 00be b5aa 363e a733 6a3e 6b81 7abe
00000270: f9d6 4e3b cd38 8ebc 71e4 783e 6c96 8bbd
00000280: eb55 27bd 933f 903e cf2e 063e 47dd 8d3e
00000290: a40f 8ebe 55b0 623c 8a5c 8a3e 7916 873c
000002a0: f311 e4bd 9339 debe ef04 1abe 5656 01bf
000002b0: 168e b43d e5d1 95be f61b a5be cff8 833c
000002c0: c4a0 34be 35fd 793e cf63 0f3d 20ab c43d
000002d0: 8b29 323e 89d8 6dbe c08d 1d3e e95d c4bd
000002e0: 88c1 823e f780 963e 1154 a93d 0b94 a93c
000002f0: c989 67bd 8579 1ebe 148c 833e c575 91bb
00000300: 44e1 cbbe 4e6c a6bd 9c10 423e 23a5 a3be
00000310: 0835 b03d 8060 d33d 1412 8dbe 8b0a 073e
00000320: cb17 9f3d dec5 e639 32f5 54be 54ca 953e
00000330: 27c2 a0be 0c3d 47bd be94 b73d 6e1f ce3d
00000340: 8b8e febc bffe 923d 7811 1e3e 9397 d2be
00000350: b9bc f93d e567 7dbe 1f5a 993d 22d1 acbd
00000360: 3785 adbe fd07 d0bd 4200 89ba 301b 5d3d
00000370: 6908 ff3d c7c0 843d f8c3 07bd 15d3 7bbe
00000380: c155 7e3e a178 843e 8d3f 9f3d 9e31 b63d
00000390: dbc2 3d3e 95cf 62be 9e79 a3bc 549b f5bd
000003a0: b3e1 e73c f28c 8a3e 2047 14be 156c 24bd
000003b0: 6ecc 6b3b 6fd7 2abe 917e 2bbd ace6 84bd
000003c0: 25df d9be 02f1 a5ba d6c0 523d 9a74 6b3e
000003d0: 9ae5 753e d567 1f3d 52db 743d 6a5a a13b
000003e0: 1727 77be c6d4 41be de38 31be cbc6 a33c
000003f0: b117 493e 760a bdbe 1a51 243e dab5 dbbd
-0.3112894 0.03310642 -0.13077432 -0.15448606 0.14381424 -0.089019544 -0.28984192 0.057829347
0.11891033 -0.44404197 -0.0651358 -0.5574513 0.14836773 0.26334846 -0.19395454 -1.1243281
-0.44656017 -0.1625613 0.19933169 0.0631204 -0.42559615 0.21072915 0.33969003 0.41042185
-0.18214312 -0.23066422 -0.37309182 -0.2601663 0.18200438 -0.25195348 0.28870833 0.048313018
0.20571512 0.20298994 -0.5637981 -0.2217199 0.043500915 0.1575497 0.30567405 0.22569579
0.26032624 0.05646811 0.26658085 0.58245534 -0.09197487 0.26450288 0.44904712 -0.13383548
0.11917171 0.0704489 0.09791071 -0.15707052 -0.7322927 0.21853274 0.070942044 -0.50696003
-0.34382936 0.024854414 -0.9314766 -0.026228404 -0.3809291 -0.156098 0.15945496 -0.24995698
0.04099986 -0.47248584 -0.0929278 0.3146589 -0.30004284 -0.54156035 -0.06823823 -0.109839134
-0.51182276 -0.11808763 -0.09120594 -0.059882816 -0.096303105 0.039127734 -0.06718575 0.43598512
0.4078296 0.0696965 -0.28923684 -0.70745885 0.18281317 -0.16987722 0.14435 0.28460968
-0.25819942 -0.4216754 0.24297698 0.30645424 -0.9625629 -0.59438044 0.016664932 0.0425347
-0.07921196 -0.29257402 0.17732191 -0.083940014 -0.6229292 -0.08556557 0.54975367 0.15770178
-0.009959193 -0.15602008 -0.2999303 0.3864436 -0.55163497 -0.541804 0.67550564 -0.23121248
0.097591296 -0.36754483 -0.5667644 -0.26253814 0.28724375 -0.27196953 0.18303977 -0.020425752
0.6033377 0.3902742 0.22793308 0.34428498 -0.32282096 0.20261921 0.27926168 0.029213645
0.019876549 0.025579061 -0.021318613 -0.36649656 0.18190147 0.05422967 0.059542444 -0.3485301
-0.17405404 -0.08750955 0.51990014 0.097497664 0.28877485 0.057862308 -0.14585412 0.24583605
0.27680522 0.23504409 0.07358984 0.3790953 0.13834798 0.20499001 -0.4121106 -0.17412971
-0.12513007 0.17838557 0.22871266 -0.24463432 0.003156124 -0.01736107 0.24305893 -0.068158
-0.040853422 0.28173503 0.13103794 0.27707884 -0.27746308 0.013835986 0.27023727 0.016490208
-0.11136236 -0.434033 -0.15040945 -0.50522363 0.08816163 -0.292617 -0.32247895 0.016109852
-0.17639452 0.24412997 0.035007294 0.09602952 0.1739866 -0.23227133 0.15386105 -0.095882244
0.25538278 0.29395267 0.082679875 0.020700475 -0.056527887 -0.15476044 0.2569281 -0.004439088
-0.39820302 -0.08126126 0.18951648 -0.31961927 0.08603865 0.1032114 -0.27552855 0.13187616
0.0776821 0.0004401644 -0.2079666 0.29255927 -0.31398126 -0.048642203 0.08963917 0.100645885
-0.03107383 0.07177495 0.15436351 -0.41131267 0.12194199 -0.24746664 0.07487892 -0.084383264
-0.33890697 -0.10157774 -0.0010452347 0.053981006 0.12452776 0.06482082 -0.033145875 -0.2459224
0.248374 0.25873283 0.07775793 0.088961825 0.18531363 -0.22149499 -0.019955453 -0.11992517
0.028305864 0.27060658 -0.14480257 -0.040142138 0.0035980004 -0.16683744 -0.04186875 -0.0648931
-0.42553058 -0.0012660327 0.051453434 0.22993699 0.24013367 0.03891738 0.059779473 0.0049241083
-0.24136005 -0.18928823 -0.1730685 0.019992253 0.19637944 -0.36922044 0.16046563 -0.10728045

fc_out.bias f4 [10]
00000000: 3222 fdbd 12f8 efbd dbaf e13c 47b1 8dbd
00000010: 5355 ec3c 5e92 493e 9bc3 193e 507a 0abe
00000020: c93e ebbd 2290 cc3d
-0.12360038 -0.117172375 0.027549675 -0.069185786 0.02884928 0.19684741 0.15016024 -0.13523221
-0.11486585 0.09988429
