saved_models/GCN2_clus-false_BN_RELU.pt (torch, 223195 bytes, 40 tensors)

fc_in.weight f4 [64, 1]
0	0x3f04b4e2	0.51838505
1	0xbf1d656b	-0.61482877
2	0xbf4b4972	-0.79408944
3	0xbd100b05	-0.03516676
4	0x3dcfa6f6	0.10139267
5	0xbf3e59dd	-0.7435587
6	0xbf49674a	-0.7867323
7	0xbe42f863	-0.19040065
8	0x3f3760d1	0.71632105
9	0xbf4ed970	-0.80800533
10	0x3cc99a61	0.024609746
11	0xbf56cd14	-0.83906674
12	0x3ed92ff1	0.4241939
13	0xbe3edd22	-0.18639043
14	0xbd7f3a37	-0.062311377
15	0xbf61bf18	-0.8818221
16	0xbf28b8d9	-0.65907055
17	0x3e12606e	0.14294598
18	0xbeeea18e	-0.4660763
19	0x3e38da13	0.18051939
20	0x3ed2ae42	0.41148573
21	0xbeac8745	-0.33696952
22	0x3f41c310	0.75688267
23	0xbf4554f7	-0.7708277
24	0x3f594313	0.8486797
25	0x3f5c1cc5	0.859814
26	0xbea40a71	-0.32039216
27	0xbe46a9ef	-0.19400762
28	0x3dcac667	0.099011235
29	0x3f471add	0.77775365
30	0x3ecf80d2	0.4052797
31	0x3f0e3171	0.5554419
32	0x3f54cb2c	0.83122516
33	0x3da283a2	0.07935263
34	0x3ecc97bb	0.3995951
35	0xbcafe288	-0.021470323
36	0x3cf9d569	0.03049727
37	0xbdac5ce9	-0.08416159
38	0x3e9009d3	0.28132495
39	0xbf6122be	-0.8794364
40	0x3e4ed854	0.2019971
41	0x3e45e1df	0.19324444
42	0x3dcb5618	0.099285305
43	0x3e51bc73	0.20482044
44	0x3f2c4091	0.6728602
45	0xbf5c1b03	-0.85978717
46	0xbf7e6770	-0.99376583
47	0xbf2f506c	-0.6848209
48	0xbdcc5416	-0.099769756
49	0xbeef6e57	-0.4676387
50	0xbef818ab	-0.4845632
51	0xbee10f1f	-0.4395685
52	0x3d932fa8	0.07186824
53	0xbf1de280	-0.61673737
54	0xbf80643c	-1.0030589
55	0xbee3e24a	-0.44508582
56	0xbf16988f	-0.58826536
57	0xbed8d178	-0.42347312
58	0xbf15499c	-0.58315444
59	0xbf456653	-0.7710926
60	0xbeeaebd9	-0.45883062
61	0x3ec19eaf	0.37816378
62	0xbf445398	-0.76690054
63	0xbed39d5b	-0.4133099

fc_in.bias f4 [64]
0	0xbf6d5e4f	-0.9272203
1	0xbf554178	-0.8330302
2	0xbf51d17a	-0.8196026
3	0x3f19013b	0.597675
4	0x3f32f80e	0.6990975
5	0x3f0fbb3e	0.56145084
6	0x3f6c5069	0.92310196
7	0x3e9e0bf8	0.30868506
8	0x3ec33858	0.38128924
9	0xbe81b10f	-0.25330397
10	0x3f0edd68	0.5580659
11	0x3ecbb6ca	0.39787894
12	0x3f6ed337	0.9329104
13	0x3eff57ec	0.49871767
14	0xbf779019	-0.9670425
15	0xbeb1d9eb	-0.3473657
16	0xbf5b6597	-0.8570189
17	0x3f6c8905	0.92396575
18	0xbf6abb21	-0.91691786
19	0x3f3a7828	0.72839594
20	0xbeaa1c93	-0.33224925
21	0x3e941e10	0.28929186
22	0x3eb7d103	0.3590165
23	0x3f058aba	0.52164805
24	0x3f23df52	0.64012635
25	0x3d279db8	0.040921897
26	0x3de518cd	0.11186371
27	0x3ee2be9f	0.44286057
28	0x3f64858c	0.89266276
29	0xbf0dc531	-0.55379015
30	0xbe2798d5	-0.16366895
31	0xbca67066	-0.020317268
32	0xbcdb0192	-0.026734147
33	0xbf5b9331	-0.8577147
34	0x3ec915a3	0.3927432
35	0xbe611b4b	-0.21983068
36	0x3ef29406	0.47378558
37	0x3f362230	0.71145916
38	0xbf30ef6b	-0.6911532
39	0xbe536997	-0.20645748
40	0x3f2b3ca8	0.6688943
41	0x3f6ba37f	0.9204635
42	0xbeaeb9c9	-0.34126118
43	0xbe5cfdc3	-0.21581177
44	0xbf72992b	-0.94764966
45	0x3ee555d5	0.44792047
46	0x3ef0c122	0.4702235
47	0x3edb0b15	0.42781892
48	0x3e39c3d9	0.18141116
49	0x3f4909b7	0.7853045
50	0xbe9b2ec2	-0.3030911
51	0xbe523d22	-0.20531133
52	0xbf66320a	-0.89920104
53	0x3f388a20	0.7208576
54	0x3ebba056	0.36645764
55	0x3ec070e8	0.3758614
56	0x3efc6bf8	0.49301124
57	0xbe7b7a87	-0.24558459
58	0x3f52cac5	0.8234065
59	0xbddfb79d	-0.10923693
60	0x3e975f7e	0.29565042
61	0x3f5db9b1	0.8661147
62	0x3e59082a	0.2119452
63	0xbf1dd187	-0.6164784

fc_hidden.lin_in.weight f4 [128, 64]
0	0xbd657110	-0.056016028
1	0x3d97fb42	0.074209705
2	0x3d77eb63	0.060527217
3	0x3df98274	0.12183085
4	0xbdbdad61	-0.09261585
5	0xbe087fd2	-0.1333001
6	0xbcd8758e	-0.026423242
7	0xbd0fb230	-0.035082042
8	0xbd856a95	-0.065144695
9	0xbdfc59cd	-0.12321816
10	0xbdd47daf	-0.10375535
11	0xbb949140	-0.0045339167
12	0x3d8b5c28	0.06804687
13	0xbe1087c6	-0.14114293
14	0xbcc56afb	-0.024098864
15	0xbe79e718	-0.24404562
16	0xbbe430ff	-0.0069638486
17	0x3d0582e8	0.032595545
18	0xbd48a4ae	-0.048985176
19	0x3d7c7c59	0.061642025
20	0x3e391420	0.18074083
21	0x3d238266	0.03991928
22	0x3e1955b9	0.14974107
23	0xbd7baf05	-0.06144621
24	0x3ded6374	0.11591235
25	0xbdf08cef	-0.11745631
26	0x3ccde27d	0.025132412
27	0xbd627155	-0.055283863
28	0x3db6be57	0.08923023
29	0x3d5227b9	0.051307414
30	0xbdae6cf6	-0.085168764
31	0xbd21b3e1	-0.039478187
32	0xbd90c17a	-0.07068153
33	0x3bd360c2	0.0064507434
34	0xbdec6f76	-0.11544697
35	0x3e280422	0.16407827
36	0xbdd6d3a2	-0.104895845
37	0xbadd4cbb	-0.0016883829
38	0x3dc80bc3	0.09767868
39	0x3c0dab80	0.008646846
40	0xbbb973bd	-0.005659549
41	0xbdf1bdc2	-0.118037716
42	0x3e054766	0.13015518
43	0x3c90fcb4	0.017698623
44	0xbc66ea3a	-0.01409393
45	0x3de67195	0.11252133
46	0x3d824f26	0.063627526
47	0x3e262086	0.16223344
48	0x3bcced8c	0.0062539037
49	0x3e1872d6	0.14887556
50	0xbda7b9e2	-0.08189751
51	0x3d9c3058	0.07626408
52	0xbdbb5587	-0.091471724
53	0x3c165841	0.009176315
54	0x3d6c83e8	0.057742983
55	0xbd6b9f13	-0.057524752
56	0x3c2be4b3	0.010491538
57	0x3cb060ac	0.021530472
58	0xbd00087f	-0.031258103
59	0x3d7e5afc	0.06209849
60	0xbddbcc5a	-0.10732336
61	0xbd397b1c	-0.045283422
62	0xbd782708	-0.060584098
63	0x3bfbfea8	0.0076902695
64	0xbcec56e4	-0.028850026
65	0x3d8ebac2	0.06969215
66	0xbe250d37	-0.16118322
67	0x3c2a86ea	0.010408143
68	0xbd8a0680	-0.06739521
69	0xbe087cda	-0.13328877
70	0x3e15d3e0	0.14631605
71	0x3b2a62ee	0.0025998908
72	0xbdd54744	-0.104139835
73	0x3e284cac	0.16435498
74	0xbda3057a	-0.07960029
75	0x3da6f588	0.081523
76	0xbde75014	-0.112945706
77	0x3decdcb0	0.1156553
78	0xbd6b0ea9	-0.057387028
79	0x3ccbfc26	0.024900507
80	0xbdaaecdf	-0.08345961
81	0xbce17d5f	-0.027525602
82	0xbe13a3e6	-0.14417991
83	0x3d29a710	0.04141909
84	0xbdcd50b1	-0.10025156
85	0xbc9774f6	-0.018488389
86	0xbdf4f046	-0.11959891
87	0x3d119fb9	0.035552714
88	0xbc1780b6	-0.009246996
89	0x3c974096	0.018463414
90	0x3d5db733	0.05412979
91	0xbacc5d5a	-0.0015591786
92	0x3da3808e	0.07983504
93	0x3d98edb4	0.07467213
94	0x3d028183	0.031861793
95	0xbd830d70	-0.063990474
96	0xbcff3bf0	-0.03115651
97	0xbccd3768	-0.025050834
98	0xbd9ff3be	-0.07810162
99	0x3e81f54d	0.25382462
100	0x3dd182ab	0.10230001
101	0x3dcfaebf	0.10140752
102	0xbd1d2e72	-0.03837437
103	0xbd8810a9	-0.06643803
104	0xbdd569ee	-0.10420595
105	0xbd0c8037	-0.034301963
106	0x3d222d5f	0.03959405
107	0x3c3bef92	0.011470692
108	0xbd6adcbe	-0.057339422
109	0x3e3b0b35	0.18265994
110	0xbdade929	-0.084917374
111	0xbe0c698a	-0.13712135
112	0x3daabe21	0.083370455
113	0x3e199357	0.14997612
114	0xbd81ebaa	-0.063437775
115	0x3caed13a	0.021340001
116	0xbd2271a2	-0.03965915
117	0xbe1e238d	-0.15443249
118	0x3dfcde9a	0.123471454
119	0x3d440010	0.047851622
120	0x3dea42c2	0.11438514
121	0x3be7bc1f	0.0070719863
122	0xbc5ab3ba	-0.013348514
123	0x3d31821e	0.04333698
124	0x3de3b843	0.111191295
125	0xbdfec5cc	-0.124400705
126	0x3d0898d2	0.033348866
127	0x3c466829	0.012109795
128	0x3d098131	0.033570472
129	0xbd89b579	-0.06724066
130	0xbc1b15d7	-0.009465656
131	0x3d482dfb	0.048871975
132	0xbd1302d0	-0.035891354
133	0x3de5802c	0.112060875
134	0xbc59d290	-0.013294831
135	0x3d1e692c	0.03867452
136	0xbdf53f02	-0.119749084
137	0x3debcd10	0.11513722
138	0x3ce618a6	0.028087925
139	0x3d8bb4e3	0.06821611
140	0x3c81a6cb	0.015826603
141	0xbd10e549	-0.035374913
142	0x3e090079	0.13379087
143	0x3d12d3aa	0.03584639
144	0xbcebac83	-0.028768783
145	0x3dba0071	0.090821154
146	0x3e03fd08	0.12889493
147	0x3d640bd7	0.055675354
148	0xbcdf5767	-0.027263356
149	0xbe07c870	-0.13260055
150	0x3cd334e5	0.025782058
151	0x3d947306	0.072485015
152	0xbdb7bd6c	-0.08971676
153	0xbe34dec6	-0.17663106
154	0xbc8dfc1a	-0.017332125
155	0x3e6dc64d	0.23220177
156	0x3d7e5fc4	0.062103048
157	0xbccfae88	-0.025351778
158	0xbd858243	-0.06518986
159	0x3d0f6130	0.035004795
160	0x3db0e648	0.08637673
161	0x3de02f89	0.109465666
162	0x3dc2a596	0.09504239
163	0x3e23b8e6	0.15988502
164	0xbcf372b6	-0.029717784
165	0x3bcc85ca	0.006241535
166	0x3dec9525	0.115518846
167	0x3bf3ea9d	0.0074437396
168	0xbdacf2f1	-0.08444775
169	0x3d02cd89	0.031934295
170	0xbdb162e7	-0.08661442
171	0xbe4eec83	-0.2020741
172	0x3d8c9af2	0.06865491
173	0x3cb7ba42	0.022427682
174	0x3e6070f5	0.2191809
175	0xbe0e9f9e	-0.13928077
176	0xbd223d4d	-0.039609242
177	0x3b6d32ba	0.0036193565
178	0x3d417c07	0.047237422
179	0xbdd27ae8	-0.10277349
180	0x3dab9e37	0.083797865
181	0x3ca9e24f	0.020737795
182	0x3e43b4a4	0.19111878
183	0x3d8201f0	0.06348026
184	0xbd88ea2c	-0.0668529
185	0xbe2fc1b8	-0.17163742
186	0xbd118ec5	-0.035536546
187	0x3e0f2646	0.13979444
188	0x3e1babd9	0.15202273
189	0xbd94d03d	-0.07266281
190	0xbdbeab6e	-0.09310041
191	0x3da9d31c	0.08292219
192	0x3cb47329	0.022027569
193	0x3d96ab85	0.073569335
194	0xbd8d939d	-0.069129206
195	0xbd7dbf4f	-0.061950024
196	0x3c6a38f8	0.014295809
197	0x3cf56d4b	0.029959342
198	0x3cbcdb58	0.02305381
199	0x3cef6e21	0.029227318
200	0xbd0477b6	-0.032340728
201	0x3e1bc046	0.15210065
202	0xbdf8338d	-0.121192075
203	0x3c91b72b	0.017787537
204	0x3c97a597	0.018511577
205	0x3db03985	0.08604721
206	0xbdc4e463	-0.09613874
207	0xbd10c57c	-0.035344586
208	0xbd0f42d2	-0.034975834
209	0x3da54230	0.08069265
210	0xbc692a62	-0.014231296
211	0x3dc9a06b	0.098450504
212	0xbcf22c4b	-0.029562136
213	0xbe0db615	-0.1383899
214	0x3dd0268b	0.101636015
215	0x3dcb0498	0.099129856
216	0x3cdc501c	0.026893668
217	0xbdde6a6d	-0.10860143
218	0xbdbcb2f3	-0.09213819
219	0xbcdf4f2d	-0.027259434
220	0x3d00d329	0.031451378
221	0xbe103124	-0.14081246
222	0xbd1731d4	-0.036912754
223	0x3ce094c5	0.027414689
224	0xbd9ceeb8	-0.076627195
225	0xbad4fa16	-0.0016248848
226	0x3d3dc931	0.04633445
227	0xbe3df199	-0.18549193
228	0x3e155331	0.14582516
229	0xbd8ed77a	-0.06974693
230	0xbc6a74a1	-0.014310033
231	0x38a29838	7.753115e-05
232	0xbb871f93	-0.004123637
233	0xbdb0f41e	-0.08640312
234	0x3d60b7a7	0.054862645
235	0x3e2e1848	0.1700145
236	0x3cff3b22	0.031156126
237	0xbd53c14f	-0.051698025
238	0xbd662a6b	-0.056192797
239	0xbda958ec	-0.082689136
240	0x3d59dec7	0.053190973
241	0xbe0a4927	-0.13504468
242	0x3db696bf	0.08915471
243	0x3e767ed6	0.24071822
244	0xbe0f5595	-0.1399749
245	0x3d44923a	0.047991015
246	0x3d186ced	0.037213255
247	0xbd15d145	-0.036576528
248	0x3da061a2	0.07831122
249	0xbbff880f	-0.007798202
250	0x3e03334f	0.12812541
251	0xbe16d773	-0.14730625
252	0xbdaf9024	-0.085724145
253	0xbbc41998	-0.0059844963
254	0xb95575a7	-0.00020357092
255	0x3d244538	0.040105075

fc_hidden.lin_in.bias f4 [128]
0	0x3d1ef347	0.038806226
1	0x3d9ea517	0.07746332
2	0xbc01ea1f	-0.007929354
3	0x3c5085fb	0.012727256
4	0x3d67ef1a	0.05662451
5	0x3dc2ca52	0.09511246
6	0xbdd2888f	-0.10279953
7	0xbd9948f0	-0.07484615
8	0x3db3798d	0.08763418
9	0x3c5e7d30	0.013579652
10	0xbde86e91	-0.11349214
11	0x3e260263	0.16211848
12	0x3c230328	0.009949483
13	0xbdf76ee3	-0.12081697
14	0xbc8f8339	-0.017518627
15	0x3d5c47fe	0.053779595
16	0xbe4dfba3	-0.20115523
17	0xbd6bd65d	-0.05757748
18	0x3e0b06d8	0.1357683
19	0x3d8f50bd	0.069978215
20	0xbdf7344a	-0.1207052
21	0xbdc09bd2	-0.0940472
22	0x3dc47a65	0.095936574
23	0x3d50d78e	0.05098682
24	0xbd188775	-0.037238557
25	0x3d914761	0.070936926
26	0x3d9cf147	0.076632075
27	0xbe062530	-0.13100123
28	0x3daee2d2	0.08539356
29	0x3dbfecfe	0.093713745
30	0xbd419d84	-0.04726936
31	0xbd428d6f	-0.047498163
32	0x3d975a95	0.07390324
33	0xbdf5e117	-0.12005823
34	0x3d9af66f	0.07566535
35	0xbd022ef6	-0.031783067
36	0xbda78f75	-0.08181659
37	0x3dbeb754	0.09312311
38	0xbda9c952	-0.08290352
39	0x3c56b7d9	0.013105356
40	0x3da9096b	0.082537495
41	0xbda2f4de	-0.07956861
42	0x3d00aa9f	0.031412717
43	0xbdca4ccf	-0.09877931
44	0xbd3813e5	-0.044940848
45	0xbdae12f3	-0.08499708
46	0x3ceb97cb	0.028758904
47	0x3cb761d6	0.022385519
48	0x3c58c042	0.013229432
49	0x3a3209ac	0.00067916024
50	0x3db9888b	0.09059247
51	0x3cd45b02	0.025922302
52	0xbd205a15	-0.03914841
53	0xbd97230f	-0.07379734
54	0x3dd2e3ba	0.10297342
55	0x3cabfd0a	0.020994682
56	0xbc4c331d	-0.012463358
57	0xbd9cda5d	-0.07658837
58	0xbc08cc51	-0.008349494
59	0xbdf6f6d6	-0.12058799
60	0x3dc6a019	0.09698505
61	0xb971ad29	-0.00023048058
62	0x3d14e972	0.036355443
63	0xbd91fe9e	-0.071286425
64	0xbc5b7dfe	-0.013396738
65	0xbd13110e	-0.035904936
66	0x3d68b33c	0.056811556
67	0xbd77be4e	-0.060484223
68	0xbccfb54b	-0.025355002
69	0xbd71c7c7	-0.059028413
70	0x3c0d411d	0.008621481
71	0x3da1a3b4	0.07892552
72	0x3d6dd8a8	0.058067948
73	0xbe096d98	-0.13420713
74	0x3d82cfde	0.06387304
75	0xbcce612f	-0.025192825
76	0xbd9ca448	-0.07648522
77	0xbd8ae91b	-0.067827426
78	0xbcf8c79c	-0.030368619
79	0xbd6497f8	-0.05580899
80	0x3b940830	0.0045175776
81	0x3d979934	0.07402268
82	0x3c6e9abe	0.014563261
83	0xbdda315d	-0.106539465
84	0xbc713b3a	-0.014723593
85	0xbd89bd1b	-0.06725522
86	0x3e36b3fb	0.17842095
87	0x3d1d1d80	0.03835821
88	0xbe11c4ff	-0.14235304
89	0x3d57d8ee	0.052697115
90	0xbb09af06	-0.0021008863
91	0x3cf680ef	0.030090777
92	0x3da7d9c4	0.08195832
93	0xbcd5c8cb	-0.026096722
94	0xbd13d120	-0.03608811
95	0xbdcd3adf	-0.100209944
96	0x3dfc3f3f	0.12316751
97	0xbde07bba	-0.10961099
98	0x3db26f30	0.087126136
99	0xbd12eabd	-0.035868395
100	0xbd8028b7	-0.06257766
101	0x3b6354c1	0.0034687968
102	0xbdee3c2e	-0.11632572
103	0x3e03ffea	0.12890592
104	0xbd313db5	-0.04327174
105	0xbd626c31	-0.05527896
106	0x3dfad3d6	0.12247436
107	0x3d888ae1	0.06667114
108	0xbb775a6e	-0.003774311
109	0xbd063ea7	-0.032774594
110	0xbd9faa17	-0.07796114
111	0x3bcc01da	0.0062258067
112	0x3de4690a	0.11152847
113	0x3d7a0e20	0.061048627
114	0xbd1f8849	-0.03894833
115	0xbe01edcb	-0.12688367
116	0xbc961096	-0.018318456
117	0xbcdf5cf4	-0.027266003
118	0x3dd5b896	0.104355976
119	0xbd7380c1	-0.05944896
120	0xbc936dc2	-0.017996673
121	0x3d554db9	0.052076075
122	0xbd8f37b4	-0.069930464
123	0x3d7055e7	0.058675673
124	0xbdae9db0	-0.0852617
125	0xbda7f8c5	-0.08201746
126	0xbcd69568	-0.02619429
127	0xbdf909a7	-0.12160044

fc_hidden.lin_out.weight f4 [64, 128]
0	0xbddb42d1	-0.107061036
1	0xbc9f0d1b	-0.019415429
2	0x3a36e596	0.000697696
3	0xbd275d10	-0.040860236
4	0xbd0a5d54	-0.03378041
5	0x3d2f5df4	0.04281421
6	0xbd8118d4	-0.06303564
7	0xbc9a0397	-0.01880054
8	0xbbbc869f	-0.005753353
9	0x3cd21873	0.025646424
10	0x3d85ea59	0.06538839
11	0x3df244a6	0.118295
12	0x3d850462	0.064949766
13	0x3d3cd025	0.04609694
14	0xbdbd2d17	-0.09237116
15	0xbd72bc45	-0.05926158
16	0xbe0cee37	-0.13762747
17	0xbe053ad0	-0.13010716
18	0xbd9c3fe8	-0.07629377
19	0x3d409cfc	0.047024712
20	0xbdc55705	-0.09635738
21	0x3e18a9a1	0.14908458
22	0x3d0df317	0.034655657
23	0xb9aefa1f	-0.0003337422
24	0x3dc2c8b2	0.09510936
25	0x3dccb9a4	0.09996346
26	0x3dc6f19a	0.097140506
27	0xbce6d0db	-0.028175762
28	0xbd848aca	-0.064717844
29	0xbe1b9acc	-0.15195769
30	0xbdf0228d	-0.1172534
31	0x3df376c1	0.11887885
32	0xbdc5f492	-0.09665789
33	0xbbe5f851	-0.007018127
34	0xbdc0b313	-0.09409156
35	0xbd05dc47	-0.032680776
36	0xbe0e3d12	-0.13890484
37	0x3c7dd375	0.01549231
38	0x3d8a4ec6	0.06753306
39	0x3e236cfc	0.15959543
40	0x3df90585	0.12159256
41	0x3d1e5d58	0.03866324
42	0xbdacba28	-0.08433944
43	0x3d82a399	0.0637886
44	0xbdaafb26	-0.08348684
45	0x3d388a0e	0.045053534
46	0xbd8ea244	-0.069645435
47	0x3b06b95d	0.0020557262
48	0x3b18a0cd	0.0023289204
49	0xbd398b20	-0.045298696
50	0xbcda4b42	-0.026647214
51	0x3be093fc	0.0068535786
52	0xbd153aa5	-0.03643288
53	0xbdb2f6aa	-0.08738454
54	0xbcda8c77	-0.026678307
55	0x3da95527	0.08268195
56	0x3d55142a	0.052021183
57	0x3c14c8f1	0.009081111
58	0xbd4cde3e	-0.050016634
59	0xbca94bb8	-0.020665988
60	0xbd9e5372	-0.0773076
61	0xbda2477c	-0.07923791
62	0xbcd15f78	-0.025558218
63	0xbd0dcf60	-0.034621596
64	0x3b43d1ea	0.0029879757
65	0xbb359ba2	-0.0027711173
66	0xbdd26575	-0.10273258
67	0x3cf33cdc	0.029692106
68	0xbdc4c51a	-0.09607907
69	0x3cc21d5d	0.023695642
70	0x3dab1f11	0.08355535
71	0xbd7b4e0a	-0.06135372
72	0x3c6c1bee	0.014410956
73	0xbd06106f	-0.032730516
74	0x3dadccad	0.084863044
75	0x3b89b5c0	0.0042025745
76	0xbe1c5696	-0.15267405
77	0xbd85d973	-0.06535616
78	0x3de848aa	0.113419846
79	0x3d5365fd	0.051610935
80	0x3c93f332	0.0180603
81	0xbd9327cd	-0.07185326
82	0xbd3ea530	-0.046544254
83	0xbd076ef9	-0.033064816
84	0xbba5bfbf	-0.0050582583
85	0xbe2c3671	-0.16817643
86	0xbe053069	-0.13006748
87	0xbca84eda	-0.020545412
88	0x3c6e94b4	0.014561821
89	0xbc62d7b0	-0.013845369
90	0x396e4094	0.00022721506
91	0xbd7b8fd1	-0.06141645
92	0x3e0ee35b	0.13953917
93	0xbd28a57c	-0.041173443
94	0x3d60815a	0.05481086
95	0xbd0d82e9	-0.034548674
96	0x3d50cf3b	0.05097888
97	0x3ce985f7	0.028506262
98	0x3c83bff8	0.016082749
99	0xbe408c23	-0.18803458
100	0x3e188b2a	0.14896837
101	0x3d72ad1d	0.059247125
102	0x3ddc06b3	0.10743465
103	0x3d0d7652	0.034536667
104	0x3c128bff	0.0089445105
105	0x3dfa4da5	0.12221841
106	0x3d4ca6cd	0.04996376
107	0xbc6da1e3	-0.014503929
108	0xbe1b2654	-0.1515134
109	0xbbb68e5a	-0.005571169
110	0xbc283830	-0.010267302
111	0xbd84f73d	-0.064924695
112	0xbd5b3194	-0.05351408
113	0xbd03ef02	-0.032210357
114	0xbd0264a7	-0.03183427
115	0x3c47fd03	0.012206319
116	0xbd19da33	-0.037561607
117	0xbc492f7d	-0.0122793885
118	0xbd0a5d0b	-0.03378014
119	0xbe6bb199	-0.23016967
120	0xbe2dd57e	-0.16975972
121	0x3caa2447	0.020769252
122	0x3d08526a	0.03328172
123	0x3d21eff1	0.039535467
124	0x3e19b337	0.15009771
125	0xbdb15c97	-0.08660238
126	0x3d7d5bd4	0.061855152
127	0xbd302f18	-0.043013662
128	0x3d779398	0.06044349
129	0x3d77d5b0	0.060506523
130	0xbb163ef6	-0.0022925711
131	0xbd89b404	-0.067237884
132	0xbdbb752b	-0.091532074
133	0xbd54fbb3	-0.05199785
134	0xbd47ea69	-0.048807535
135	0xbe6267a0	-0.22109842
136	0x3c24b420	0.010052711
137	0xbdf5dea1	-0.12005354
138	0x3db5529a	0.088536456
139	0x3c1e63a9	0.0096673155
140	0xbd704ee3	-0.058668982
141	0x3d900e2b	0.07033952
142	0x3d5580fa	0.052124955
143	0x3c8dc146	0.017304074
144	0xbd92bd1f	-0.07164978
145	0xbcf040df	-0.029327808
146	0x3b559ea4	0.0032595778
147	0xbd876b95	-0.066123165
148	0x3cd13577	0.02553819
149	0x3c523733	0.012830543
150	0xbdf9ad66	-0.12191276
151	0xbdc98ab4	-0.09840909
152	0xbe215701	-0.15755846
153	0xbd903e95	-0.070431866
154	0x3d56d7b1	0.052451793
155	0xbe044ec5	-0.12920673
156	0xbdd31c1a	-0.10308094
157	0xbd397617	-0.045278635
158	0xbc593f4d	-0.013259721
159	0xbd1c3571	-0.038136903
160	0xbd6b47df	-0.05744159
161	0xbdaaf0f6	-0.08346741
162	0xbe76c71f	-0.24099396
163	0x3c89fc3a	0.016843904
164	0xbe09db14	-0.13462478
165	0x3ccc3c1c	0.024931006
166	0x3b0eae5d	0.002177141
167	0x3d9ac80f	0.075576894
168	0x3c9e4c00	0.019323349
169	0x3ca54e80	0.020179033
170	0xbd32c0cb	-0.043640893
171	0xbd85b6de	-0.0652902
172	0x3d82fa03	0.06395342
173	0x3a8750ee	0.0010323802
174	0xbd9a2c7a	-0.075280145
175	0xbc05d303	-0.008167985
176	0x3cd3355f	0.025782285
177	0xbda8f596	-0.08249967
178	0x3daa2c1e	0.08309196
179	0xbe0a1780	-0.13485527
180	0xbe0b44f3	-0.13600521
181	0xbe3dbc9f	-0.18528984
182	0x3d44f96d	0.048089433
183	0xbd028f2f	-0.03187483
184	0xbc2b307b	-0.01044857
185	0xbd65b44f	-0.05608016
186	0x3db882ac	0.09009299
187	0xbdae5579	-0.08512396
188	0xbe23f983	-0.1601315
189	0xbdbadda8	-0.09124309
190	0xbb70d91b	-0.0036750499
191	0xbd802ecd	-0.062589265
192	0xb94cc689	-0.00019528916
193	0x3d938983	0.07203963
194	0x3ce5d8c9	0.028057473
195	0x3d8f38cd	0.06993256
196	0xbd862f8c	-0.065520376
197	0x3df9ebca	0.12203176
198	0xbe1141fd	-0.14185329
199	0xbd5dd46f	-0.05415767
200	0x3d840b90	0.06447518
201	0xbe28ecfa	-0.1649665
202	0x3d97040c	0.07373819
203	0x3c8160ee	0.01579329
204	0xbd096ac4	-0.033549085
205	0xbaeca1ef	-0.0018053631
206	0xbd98829b	-0.07446786
207	0x3da23151	0.079195626
208	0xbe10a61d	-0.14125867
209	0x3d009016	0.03138741
210	0x3d1acc71	0.037792627
211	0x3be8d6c2	0.0071056793
212	0x3c95f7e2	0.018306676
213	0xbdecedd8	-0.115688026
214	0xbd611256	-0.054949127
215	0xbd925a17	-0.071460895
216	0x3cc524d1	0.024065407
217	0x3caf865b	0.02142637
218	0x3806cc5c	3.2138414e-05
219	0xbd450ef1	-0.048109952
220	0x3e14f370	0.14545989
221	0xbd683447	-0.05669048
222	0xbbe57318	-0.0070022456
223	0xbcdbc5dc	-0.026827745
224	0x3cea7b86	0.028623354
225	0xbdb0685e	-0.086136565
226	0xbd26da0f	-0.0407353
227	0xbde695a0	-0.112590075
228	0xbd1de855	-0.038551647
229	0xbd8044a2	-0.06263091
230	0xbc11981f	-0.008886366
231	0xbd4da047	-0.05020168
232	0xbe14f56b	-0.14546745
233	0xbd405fd6	-0.046966396
234	0xbc36dea0	-0.011161476
235	0x3d577dce	0.05261021
236	0x3d7c4bfe	0.06159591
237	0x3d5ebaf1	0.0543775
238	0xbdb02b47	-0.086020045
239	0x3b1cbd50	0.002391655
240	0x3bead934	0.007167006
241	0x3d1d496a	0.03840009
242	0xbdc0cea3	-0.09414413
243	0xbcf74cf7	-0.030188067
244	0xbcc78921	-0.02435738
245	0xbc1a693b	-0.009424503
246	0xbdaab414	-0.083351284
247	0xbe0b8942	-0.13626578
248	0x3d9c98d9	0.07646341
249	0xbe093254	-0.13398105
250	0xbd40bacb	-0.04705314
251	0xbc7aaad9	-0.015299522
252	0xbd90eec9	-0.07076795
253	0x3d9e81b6	0.07739584
254	0x3da74642	0.081676975
255	0x3cdc88e1	0.026920738

fc_hidden.lin_out.bias f4 [64]
0	0x3dcfcf53	0.10146966
1	0xbbd835b0	-0.006598197
2	0x3d3e2a3f	0.046427008
3	0x3c11dcfe	0.008902786
4	0x3c9fc330	0.019502252
5	0xbcf2060d	-0.0295439
6	0x3d469488	0.048481494
7	0x3d9809cd	0.07423744
8	0xbd047d23	-0.032345902
9	0xbcea8f16	-0.028632682
10	0xbd39151c	-0.045186147
11	0xbc86cf02	-0.01645613
12	0x3c58834d	0.013214898
13	0xbd8b1315	-0.06790749
14	0xbd9c7b9a	-0.076407626
15	0x3d5f3c1d	0.054500688
16	0xbdb315be	-0.08744381
17	0x3cab1651	0.020884665
18	0xbd96f405	-0.07370762
19	0x3d37e4b3	0.04489584
20	0xbd290114	-0.041260794
21	0x3cccd661	0.025004568
22	0x3d50ebae	0.05100601
23	0xbcdee226	-0.027207445
24	0x3d91fdc0	0.07128477
25	0xbd2b19f0	-0.041772783
26	0x3d125030	0.035721004
27	0xbcd1f8dc	-0.02563136
28	0x3cf6d54c	0.030131005
29	0x3d8c5b2a	0.06853326
30	0x3bb92d8d	0.005651182
31	0xbdb2c35e	-0.087286696
32	0xbd948ad1	-0.0725304
33	0x3cbf5ac9	0.02335872
34	0x3d92ed16	0.07174127
35	0xbd8614f6	-0.06546967
36	0x3a44aee4	0.00075028674
37	0xbd0a3123	-0.033738267
38	0xbc85f69e	-0.016352948
39	0xbd51b11c	-0.051194295
40	0xbd85f3f0	-0.06540668
41	0x3bf2d6af	0.007410846
42	0xbd295f8a	-0.04135088
43	0x3ce190ca	0.027534861
44	0xbd95eae7	-0.07320195
45	0x3c0bbfac	0.008529585
46	0x3da33a19	0.079700656
47	0xbb63a66d	-0.0034736649
48	0xbb06605e	-0.0020504217
49	0x3d9eb132	0.07748641
50	0xbbf6bf7c	-0.007530151
51	0x3bbbf0ac	0.0057354774
52	0x3d78772f	0.060660537
53	0x3c52cb8d	0.012865913
54	0xbd9ad33c	-0.07559821
55	0x3d56b988	0.05242303
56	0x3d98415b	0.074343406
57	0xbdac6b35	-0.084188856
58	0x3d990085	0.07470802
59	0x3c82998f	0.015942363
60	0x3db02a53	0.08601823
61	0x3dace22f	0.084415786
62	0x3aebd370	0.001799209
63	0xbd811c73	-0.063042544

fc_hidden.norms.0.weight f4 [128]
0	0x3f7cfdf2	0.9882499
1	0x3f69b9d4	0.91299176
2	0x3f5f6144	0.8725779
3	0x3f804330	1.0020504
4	0x3f6c7c8d	0.9237755
5	0x3f88e339	1.0694343
6	0x3f575ac8	0.84122896
7	0x3f899cc3	1.0750965
8	0x3f73cdef	0.95236105
9	0x3f6d1c27	0.9262108
10	0x3f79d42e	0.97589386
11	0x3f86c771	1.0529615
12	0x3f71e9a4	0.9449713
13	0x3f779577	0.9671244
14	0x3f7b148a	0.98078215
15	0x3f718064	0.94336534
16	0x3f88eca0	1.0697212
17	0x3f850a33	1.0393738
18	0x3f743394	0.953912
19	0x3f739bf8	0.95159864
20	0x3f59fd78	0.8515239
21	0x3f8e4152	1.1113684
22	0x3f835d04	1.0262761
23	0x3f840799	1.0314819
24	0x3f89574e	1.0729768
25	0x3f6fd35b	0.9368188
26	0x3f805238	1.0025091
27	0x3f8d98a9	1.1062213
28	0x3f8d3ed4	1.1034799
29	0x3f76dff9	0.96435505
30	0x3f70f4c1	0.94123465
31	0x3f6cf944	0.9256785
32	0x3f7d086d	0.9884098
33	0x3f7d7495	0.99006015
34	0x3f971aaf	1.1805018
35	0x3f8041d4	1.0020089
36	0x3f7737ee	0.96569717
37	0x3f79236a	0.9731966
38	0x3f649d94	0.89302945
39	0x3f85dd9f	1.0458258
40	0x3f87f177	1.0620564
41	0x3f8aef66	1.0854309
42	0x3f86b84f	1.0524997
43	0x3f6e34b0	0.93049145
44	0x3f67b870	0.90515804
45	0x3f81e374	1.0147538
46	0x3f7ca0e9	0.9868303
47	0x3f7975ea	0.9744555
48	0x3f8b54fb	1.0885309
49	0x3f875a26	1.0574386
50	0x3f668f8f	0.90062803
51	0x3f85c39d	1.0450321
52	0x3f7076db	0.9393136
53	0x3f80299b	1.0012697
54	0x3f5f0468	0.871161
55	0x3f5f919d	0.87331563
56	0x3f4d2e98	0.8014922
57	0x3f83e8f6	1.0305469
58	0x3f7719d6	0.965238
59	0x3f65959a	0.896814
60	0x3f893550	1.0719395
61	0x3f81c306	1.0137641
62	0x3f5fab65	0.873709
63	0x3f713494	0.9422085
64	0x3f829973	1.0203079
65	0x3f78dcf1	0.9721213
66	0x3f74f773	0.9569008
67	0x3f68fac5	0.91007644
68	0x3f8171ce	1.0112855
69	0x3f5cb223	0.86209315
70	0x3f88a25e	1.067455
71	0x3f6d21ea	0.92629874
72	0x3f7d1c41	0.9887124
73	0x3f74974c	0.9554336
74	0x3f8244c3	1.0177234
75	0x3f57c4e0	0.8428478
76	0x3f872d7b	1.0560755
77	0x3f6db8db	0.9286019
78	0x3f86ea5c	1.0540271
79	0x3f7d191e	0.9886645
80	0x3f8ac3ec	1.0841041
81	0x3f6fae47	0.936253
82	0x3f85f0bd	1.0464092
83	0x3f8a6368	1.0811586
84	0x3f5ab225	0.85428077
85	0x3f8c7941	1.0974504
86	0x3f8afc4e	1.0858247
87	0x3f7f09d0	0.9962435
88	0x3f6b8bc3	0.92010134
89	0x3f80bfae	1.0058496
90	0x3f7230c0	0.94605637
91	0x3f992f02	1.1967471
92	0x3f8a11f0	1.0786724
93	0x3f68a63b	0.9087865
94	0x3f6d39ba	0.9266621
95	0x3f8a83ac	1.0821433
96	0x3f7a42ef	0.9775838
97	0x3f7f2307	0.9966282
98	0x3f7e2a36	0.9928316
99	0x3f913f24	1.1347394
100	0x3f86ed80	1.0541229
101	0x3f5ee6b3	0.8707077
102	0x3f78a1e7	0.97122043
103	0x3f5b309e	0.8562106
104	0x3f88ea6a	1.0696537
105	0x3f714326	0.94243085
106	0x3f585ad6	0.84513605
107	0x3f64c355	0.89360553
108	0x3f8a6266	1.0811279
109	0x3f74b988	0.955956
110	0x3f70ed10	0.9411173
111	0x3f79c312	0.9756328
112	0x3f6a0529	0.91414124
113	0x3f53c6fa	0.8272549
114	0x3f756165	0.9585174
115	0x3f85d5dd	1.0455891
116	0x3f7702d9	0.9648872
117	0x3f52f9d6	0.8241247
118	0x3f8337a9	1.0251361
119	0x3f98f6a9	1.1950275
120	0x3f6d6f2d	0.92747766
121	0x3f7e57b0	0.9935255
122	0x3f694c5a	0.9113213
123	0x3f908b4b	1.1292509
124	0x3f77cbb4	0.967952
125	0x3f74b142	0.95582974
126	0x3f7cefdf	0.98803514
127	0x3f7c2f8d	0.98510057

fc_hidden.norms.0.bias f4 [128]
0	0xbc8bc5c8	-0.017062083
1	0xbdd1e5a1	-0.10248876
2	0xbdceb0bf	-0.100923054
3	0x3d47f818	0.048820585
4	0xbd498d2e	-0.049206905
5	0x3e4ee3c4	0.20204073
6	0xbd940599	-0.0722763
7	0x3e55b422	0.20869496
8	0xbdedc85a	-0.1161048
9	0xbd694be5	-0.056957144
10	0xbdfc8672	-0.12330331
11	0x3d89947c	0.06717774
12	0xbab11d04	-0.0013512676
13	0xbe067787	-0.13131534
14	0x3df42267	0.11920624
15	0x3d21fc0f	0.039547022
16	0x3e57c03c	0.21069425
17	0xbe0297af	-0.12753175
18	0x3c9980cc	0.018738173
19	0x3cf3f011	0.029777559
20	0xbe02631e	-0.12733123
21	0x3c76ed84	0.015071277
22	0x3db72195	0.08941952
23	0x3db2c324	0.08728626
24	0xbdd5c838	-0.10438579
25	0xbca2446a	-0.019808013
26	0x3d2e3fe9	0.04254142
27	0x3d1d8ed7	0.0384663
28	0x3e11b04c	0.14227408
29	0xbd6c384d	-0.05767088
30	0xbe3c2352	-0.18372849
31	0xbd977310	-0.07394993
32	0xbdd3b44d	-0.10337124
33	0xbda94f11	-0.08267034
34	0x3e83bdea	0.2573083
35	0x3d2507e8	0.040290743
36	0x3d70f87f	0.058830734
37	0x3d207081	0.039169792
38	0xbdddf294	-0.10837284
39	0xbd2e7571	-0.04259247
40	0x3e119d00	0.14220047
41	0x3d12ba2a	0.03582207
42	0x3cb34b12	0.021886382
43	0xbd083fd3	-0.033263993
44	0xbe12a40e	-0.14320394
45	0x3dbf0a66	0.09328155
46	0xbdc315e6	-0.09525661
47	0xbd875a1e	-0.06608985
48	0xbc6ea904	-0.014566664
49	0x3bd11f4c	0.0063819047
50	0xbd9da8bf	-0.076982014
51	0xbd6b2932	-0.057412334
52	0xbce4d30d	-0.027932668
53	0x3d0fedb8	0.035138816
54	0xbd70046b	-0.058597963
55	0xbd9d8a25	-0.076923646
56	0xbd811616	-0.06303041
57	0xbdb131c8	-0.08652073
58	0xbde050ff	-0.10952949
59	0xbdd22c03	-0.10262301
60	0x3d982334	0.074285895
61	0x3dcfa072	0.101380244
62	0xbdbb90f1	-0.09158505
63	0xbe0e36bd	-0.13888068
64	0x3d03568d	0.032064963
65	0xbc9786ec	-0.018496953
66	0x3d8a5209	0.06753928
67	0x3d63ab06	0.055583023
68	0xbd89c6b8	-0.06727356
69	0xbdc1a4ee	-0.09455286
70	0x3d97c846	0.07411246
71	0xbe0d7f96	-0.13818201
72	0x3d8db3a8	0.06919032
73	0xbdbf9229	-0.0935405
74	0x3ca4f837	0.02013789
75	0xbdc5ca75	-0.09657756
76	0xbda6bfc7	-0.081420474
77	0xbe087978	-0.13327587
78	0xbd2c9873	-0.042137574
79	0xbc68cd8e	-0.014209164
80	0xbd475094	-0.04866083
81	0xbd20776e	-0.039176397
82	0xbd01c4ba	-0.031681754
83	0x3bbc136e	0.005739621
84	0xbdfab2e2	-0.122411504
85	0xbd7db2cd	-0.061938096
86	0x3e9b53de	0.30337423
87	0x3e16dcd3	0.14732675
88	0xbd5675b8	-0.05235836
89	0xbdc9532d	-0.09830318
90	0xbe15fb8b	-0.14646737
91	0x3d8f2c18	0.06990832
92	0x3e03d984	0.12875944
93	0xbe5a3c5d	-0.2131209
94	0x3cf2d4d4	0.0296425
95	0xbd74396a	-0.059625067
96	0xbc693e19	-0.014235997
97	0x3d8935d4	0.0669972
98	0xbb3d7e5a	-0.0028914423
99	0xbd5e74f9	-0.054310773
100	0x3d95df73	0.0731801
101	0xbe0918d6	-0.1338838
102	0xbd4fc83d	-0.05072807
103	0xbe146d57	-0.14494835
104	0x3d13fc8f	0.03612953
105	0xbc826339	-0.015916454
106	0xbda2806a	-0.07934649
107	0xbe2427a6	-0.1603075
108	0x3e2042aa	0.1565043
109	0xbbff4ff7	-0.007791515
110	0xbe00bc96	-0.1257194
111	0x3c67fb9e	0.014159111
112	0xbd778cdf	-0.06043708
113	0xbe0336dd	-0.12813897
114	0xbd7df3b6	-0.062
115	0xbd87d73b	-0.06632849
116	0xbb92cdfe	-0.0044801226
117	0xbe16fac8	-0.14744103
118	0x3d78691e	0.060647123
119	0x3e8901d5	0.2675921
120	0xbd101e9d	-0.035185445
121	0xbe1c7494	-0.15278846
122	0xbd864a66	-0.06557159
123	0xbc903436	-0.017603021
124	0xbcf07024	-0.029350348
125	0xbdc04218	-0.093876064
126	0xbc97b29c	-0.018517785
127	0xbaf5db16	-0.0018757309

fc_hidden.norms.0.running_mean f4 [128]
0	0x3c67390e	0.014112724
1	0x3e272120	0.1632123
2	0x3e64d0ba	0.22345248
3	0x3e5e74c7	0.21724235
4	0x3faa07db	1.3283647
5	0x3dd9426e	0.106083736
6	0xbec2abc9	-0.38021687
7	0xbeed2a00	-0.46321106
8	0x3e7d288c	0.24722499
9	0xbe8e7173	-0.2782093
10	0x3ee8ce61	0.45469955
11	0xbe9c8831	-0.30572656
12	0xbe99b3e6	-0.30020064
13	0xbd1aa7eb	-0.037757795
14	0xbe9b6a06	-0.30354327
15	0xbf88c70b	-1.0685743
16	0xbf26becc	-0.6513488
17	0xbf0eeeae	-0.55832946
18	0x3f308453	0.6895191
19	0xbe7d4083	-0.2473164
20	0xbd2523aa	-0.040317215
21	0xbf227f32	-0.63475335
22	0x3bc3f8b4	0.0059805755
23	0x3ceeb934	0.029141046
24	0xbeab5d7e	-0.33469766
25	0x3f408730	0.7520628
26	0x3d8b25d8	0.067943275
27	0xbefe868b	-0.49712023
28	0x3eb11277	0.345844
29	0x3f78b74c	0.9715469
30	0x3f141fff	0.5786132
31	0xbf087d0c	-0.53315806
32	0xbf3bf575	-0.7342141
33	0x3e923ffa	0.28564435
34	0xbeecc004	-0.46240246
35	0xbe2b78b3	-0.16745262
36	0xbe1c015c	-0.15234894
37	0x3f6bc225	0.92093116
38	0xbf779bab	-0.96721905
39	0x3d023401	0.031787876
40	0x3e0baa6c	0.1363923
41	0xbdf1b55d	-0.118021704
42	0xbf08e32e	-0.5347165
43	0xbf9a00e0	-1.2031517
44	0x3f7cf737	0.9881472
45	0xbe5fe4fe	-0.21864697
46	0xbefdb445	-0.49551597
47	0x3f335fce	0.7006806
48	0x3f053b52	0.5204364
49	0xbe89a602	-0.26884466
50	0x3fa7650a	1.307771
51	0xbf5aa09a	-0.8540131
52	0x3f2a14e5	0.6643813
53	0xbf2c5428	-0.6731591
54	0x3f025d5c	0.50923705
55	0xbe5b4524	-0.21413094
56	0x3f844b63	1.0335506
57	0xbe119654	-0.14217502
58	0x3fab94ce	1.3404787
59	0xbdef7eb6	-0.1169409
60	0xbd9ea848	-0.07746941
61	0xbf1fdb2f	-0.6244382
62	0xbf1f14dd	-0.6214121
63	0xbe46fe40	-0.19432926
64	0xbf2ae27e	-0.6675185
65	0x3fa513dc	1.2896686
66	0x3f00876e	0.5020665
67	0xbef1f97e	-0.4726066
68	0xbecadb3a	-0.39620382
69	0xbdc3b58b	-0.09556111
70	0x3e0d4f8b	0.13799874
71	0xbec93d2b	-0.3930448
72	0x3ddff559	0.10935468
73	0xbf82cebf	-1.0219344
74	0x3e4645cf	0.19362567
75	0xbe6f22e9	-0.23353161
76	0xbf10e5aa	-0.5660044
77	0xbe932bfa	-0.2874449
78	0x3e464f16	0.19366106
79	0xbe0b7679	-0.13619412
80	0x3eee5e46	0.465563
81	0x3fcb8e3c	1.5902781
82	0xbf52458e	-0.8213738
83	0xbd655005	-0.055984516
84	0xbf7e2e64	-0.99289536
85	0xbe667621	-0.22506
86	0x3f668460	0.9004574
87	0xbef9a2c4	-0.48756993
88	0xbf9c2a56	-1.220042
89	0xbf18c556	-0.5967611
90	0xbe8f84e8	-0.28031087
91	0xbf2afd12	-0.66792405
92	0x3eb2a9d0	0.34895182
93	0x3e83c285	0.25734344
94	0xbd98c7c7	-0.074599795
95	0xbe9a73c2	-0.3016644
96	0x3f2ceaba	0.67545664
97	0xbeca596d	-0.3952135
98	0xbecf71ea	-0.40516597
99	0xbf1520e8	-0.58253336
100	0xbe93c3e5	-0.28860393
101	0xbe88876a	-0.26665813
102	0xbe98f6cf	-0.298758
103	0xbe6713cd	-0.22566147
104	0xbf11b7b0	-0.5692091
105	0x3dc696f7	0.09696763
106	0xbf397507	-0.72444195
107	0x3f7c7814	0.98620725
108	0xbe840888	-0.2578776
109	0xbf18bb32	-0.5966064
110	0x3d7e429f	0.062075254
111	0x3ef7019e	0.4824342
112	0x3e8f3be6	0.27975386
113	0x3f427139	0.75954014
114	0xbdf155d3	-0.11783948
115	0xbf2a6b7a	-0.66570246
116	0xbea409bb	-0.32038674
117	0xbe44892a	-0.19192949
118	0xbdf4b3ac	-0.11948332
119	0xbe220da6	-0.15825519
120	0x3f227dd7	0.63473266
121	0x3dbfdd8e	0.0936843
122	0xbf0ac384	-0.54204583
123	0xbe37dffb	-0.17956536
124	0xbf11b89d	-0.5692232
125	0x3e43daa5	0.19126375
126	0xbe53cfd8	-0.20684755
127	0xbe1460ab	-0.14490001

fc_hidden.norms.0.running_var f4 [128]
0	0x3da99f2b	0.08282312
1	0x3e6fe741	0.2342806
2	0x3e2ae0bc	0.16687292
3	0x3df5995f	0.11992144
4	0x3e67787e	0.22604558
5	0x3dbf134c	0.093298525
6	0x3de72f34	0.112883
7	0x3dd93d5a	0.10607405
8	0x3d2646e4	0.04059495
9	0x3dea6a05	0.11446003
10	0x3e06d061	0.13165428
11	0x3cf9aa01	0.030476572
12	0x3d51f1ad	0.05125587
13	0x3d3bf52f	0.045888122
14	0x3d9c7485	0.07639412
15	0x3e639c46	0.22227582
16	0x3d3bdf5b	0.045867305
17	0x3d3a704b	0.045517247
18	0x3d10ddca	0.035367765
19	0x3d926df3	0.071498774
20	0x3dc9a2ec	0.09845528
21	0x3d4c7778	0.04991862
22	0x3e023b97	0.12718044
23	0x3da3e5bd	0.080028035
24	0x3db25c0a	0.08708961
25	0x3dc7b64e	0.09751569
26	0x3d39034e	0.045169167
27	0x3cc9af2b	0.02461966
28	0x3d1eb0de	0.038742892
29	0x3dbbb5e4	0.09165552
30	0x3e8a432a	0.27004367
31	0x3dc9c61b	0.09852239
32	0x3d9697a0	0.07353139
33	0x3d416751	0.04721767
34	0x3cb3ef9f	0.021964846
35	0x3cc661c5	0.024216542
36	0x3d33cd15	0.043896753
37	0x3e41b0d5	0.18915112
38	0x3e2593ae	0.16169617
39	0x3de1d2cd	0.11026535
40	0x3dc26b64	0.094931394
41	0x3dcf35df	0.10117697
42	0x3db8c595	0.09022061
43	0x3e9ecf11	0.31017354
44	0x3e0cebfb	0.13761894
45	0x3d8bb288	0.068211615
46	0x3e2b3878	0.1672076
47	0x3dfa2867	0.122147374
48	0x3d28e76c	0.041236326
49	0x3dcd880a	0.10035713
50	0x3e6ea284	0.23304182
51	0x3d48b437	0.04899999
52	0x3e2afc3a	0.1669778
53	0x3dd04e3c	0.10171172
54	0x3d9642dd	0.07336972
55	0x3de8ae5b	0.11361381
56	0x3e3e52cd	0.18586273
57	0x3d5de31d	0.05417167
58	0x3ec77f03	0.3896409
59	0x3db59078	0.08865446
60	0x3cb5fe99	0.022216128
61	0x3d85152c	0.06498179
62	0x3e6c0787	0.23049746
63	0x3e432e7c	0.19060701
64	0x3ddb2c36	0.10701792
65	0x3d744e06	0.05964472
66	0x3e6924f7	0.22768007
67	0x3d6ed138	0.058304995
68	0x3e020da6	0.12700519
69	0x3c8f84a3	0.0175193
70	0x3d501d69	0.050809298
71	0x3d458706	0.04822447
72	0x3d779af3	0.060450505
73	0x3dcca2a8	0.09991962
74	0x3d847fd5	0.064696945
75	0x3d7a1d07	0.06106284
76	0x3d91cc4e	0.07119046
77	0x3edadf92	0.42748696
78	0x3debd51f	0.11515259
79	0x3df2e5c0	0.118602276
80	0x3d92545a	0.07144995
81	0x3e8e7b98	0.2782867
82	0x3e131417	0.14363132
83	0x3d970ff3	0.07376089
84	0x3e2489a7	0.16068135
85	0x3e4117be	0.18856713
86	0x3d90ed32	0.070764914
87	0x3d92d576	0.07169621
88	0x3ea7a686	0.32744235
89	0x3d1e595a	0.03865943
90	0x3d7e5078	0.06208846
91	0x3d34912a	0.04408375
92	0x3d1783ff	0.036991116
93	0x3e0307ae	0.12795898
94	0x3ded6da6	0.115931794
95	0x3e55ab01	0.20866014
96	0x3e55f179	0.20892896
97	0x3d5f4fbf	0.05451941
98	0x3dbfbab7	0.09361785
99	0x3d4e8dea	0.05042831
100	0x3cc733dc	0.02431672
101	0x3dac7539	0.08420796
102	0x3d85cbe6	0.06533031
103	0x3d551f13	0.052031588
104	0x3ceb630d	0.028733755
105	0x3d23a629	0.039953385
106	0x3dcea4a7	0.10089999
107	0x3e620120	0.22070742
108	0x3db05b3d	0.08611152
109	0x3e1cc2de	0.15308711
110	0x3d9d597f	0.07683086
111	0x3d8e719a	0.069552615
112	0x3dc80d3d	0.0976815
113	0x3e140aa8	0.1445719
114	0x3e16e5ff	0.14736174
115	0x3d6029ba	0.054727294
116	0x3cbfdd76	0.02342103
117	0x3e28e8c1	0.16495039
118	0x3c85079c	0.01623898
119	0x3d0f8a36	0.035043918
120	0x3d8e4126	0.0694602
121	0x3d578ed9	0.052626465
122	0x3cff17ff	0.031139372
123	0x3ddd7c92	0.108147755
124	0x3d77a538	0.0604603
125	0x3d3cf8af	0.0461356
126	0x3e0635c9	0.13106455
127	0x3d783ee9	0.06060687

fc_hidden.norms.1.weight f4 [64]
0	0x3f9c7c38	1.2225409
1	0x3fa13823	1.2595257
2	0x3f9e9e7d	1.2392117
3	0x3f97bc8c	1.1854415
4	0x3f978336	1.1836917
5	0x3f84b314	1.036715
6	0x3f9bee00	1.2182007
7	0x3f9a5c75	1.2059466
8	0x3f95da8a	1.1707318
9	0x3f95bce1	1.1698266
10	0x3f8d684f	1.1047457
11	0x3f8e064b	1.109567
12	0x3f8cc781	1.0998384
13	0x3f944fe1	1.1586877
14	0x3f9610b8	1.1723852
15	0x3f937f52	1.152323
16	0x3f990331	1.1954099
17	0x3f9d0cec	1.2269568
18	0x3f94afe8	1.1616182
19	0x3f947114	1.1597009
20	0x3fa02860	1.2512321
21	0x3f951639	1.1647407
22	0x3f978ab6	1.1839206
23	0x3f8abc5b	1.0838732
24	0x3f8d527b	1.1040796
25	0x3f973db8	1.181571
26	0x3f8c15b8	1.0944128
27	0x3f963498	1.17348
28	0x3f962dd2	1.1732733
29	0x3f7b3f37	0.98143333
30	0x3fa354e5	1.2760283
31	0x3f907608	1.128602
32	0x3f8bfde8	1.0936861
33	0x3f916f52	1.1362097
34	0x3f8bed5b	1.093181
35	0x3fa5e101	1.2959291
36	0x3f884dfb	1.0648798
37	0x3f8ffb61	1.124859
38	0x3f911b7a	1.133651
39	0x3f9c096b	1.2190374
40	0x3f8b92bd	1.0904156
41	0x3f91fb50	1.140482
42	0x3f99b2c1	1.2007676
43	0x3f9364d1	1.1515142
44	0x3f9b7c6c	1.2147346
45	0x3f916d92	1.1361563
46	0x3f8b6570	1.0890331
47	0x3f8c10d5	1.0942637
48	0x3f9b497b	1.21318
49	0x3fa29764	1.2702451
50	0x3f94afea	1.1616185
51	0x3f86f2ff	1.0542907
52	0x3f99188a	1.1960614
53	0x3f9b7ee9	1.2148105
54	0x3f8b6f70	1.0893383
55	0x3f984dd4	1.1898751
56	0x3f9b0e62	1.2113764
57	0x3f9261cd	1.1436096
58	0x3f909181	1.1294404
59	0x3f98d1a8	1.1938982
60	0x3f958a19	1.1682769
61	0x3fa61653	1.2975563
62	0x3f84d7e8	1.0378389
63	0x3f96c8e2	1.1780055

fc_hidden.norms.1.bias f4 [64]
0	0x3de0ce6e	0.10976873
1	0x3e47ba17	0.19504581
2	0x3955779c	0.00020357821
3	0x3e0159f4	0.1263197
4	0x3d326ac2	0.043558843
5	0x3c6cec60	0.014460653
6	0x3dbfa271	0.09357155
7	0xbde0c442	-0.10974933
8	0x3c6279f8	0.013823025
9	0x3d64c9f5	0.055856664
10	0x3d373eb6	0.04473754
11	0x3c2a6726	0.010400569
12	0x3dd678e8	0.1047228
13	0x3d821f42	0.06353618
14	0x3c825339	0.015908824
15	0x3e0bf30f	0.13666938
16	0x3e2a918f	0.16657089
17	0xbd418267	-0.047243502
18	0x3d800d8c	0.06252584
19	0x3bf0ee36	0.0073526157
20	0x3d36325a	0.044481613
21	0xbd3005e7	-0.04297438
22	0xbb8149f0	-0.0039455816
23	0x3d6f5b18	0.058436483
24	0x3e032ec8	0.12810814
25	0xbbcd8f0f	-0.0062731574
26	0x3e08c427	0.13356076
27	0x3e06f7f6	0.13180527
28	0x3d671404	0.056415573
29	0x3d5c6087	0.053802993
30	0x3c58efe9	0.013240793
31	0x3daff133	0.08590927
32	0x3d9255b6	0.07145254
33	0x3d31b13d	0.04338192
34	0x3d263f7c	0.040587887
35	0x3e0a95d0	0.13533711
36	0x3e1061b8	0.14099777
37	0x3d1a1de6	0.03762617
38	0x3d29f3c4	0.04149224
39	0x3e05e7db	0.13076727
40	0x3e03ac2a	0.12858644
41	0x3da9deef	0.08294474
42	0x3d7d199b	0.061791997
43	0xbd833b6e	-0.0640782
44	0x3d74017e	0.059571736
45	0x3e03cd0d	0.1287119
46	0x3d0e0171	0.034669343
47	0xbcd80b13	-0.026372468
48	0x3d3f5c33	0.046718787
49	0x3c9129a5	0.017720053
50	0x3dc230ad	0.094819404
51	0x3e063f8b	0.13110177
52	0x3d683ff5	0.05670162
53	0xbceb9e8a	-0.02876212
54	0x3dbac47b	0.09119507
55	0xbd57f11c	-0.052720174
56	0x3e243190	0.16034532
57	0x3c92b427	0.017908169
58	0x3d901a0f	0.0703622
59	0x3bdb6dcf	0.00669644
60	0x3e0b892d	0.13626547
61	0x3cb3ef38	0.021964654
62	0xbdb8fcc7	-0.090325885
63	0x3d18d210	0.037309706

fc_hidden.norms.1.running_mean f4 [64]
0	0xbf05242a	-0.52008307
1	0xbfc1ae6e	-1.5131357
2	0x40057552	2.0852857
3	0x3f27a60b	0.65487736
4	0xbf60cde4	-0.87814164
5	0x3e204119	0.15649833
6	0xbf7e5f77	-0.9936442
7	0xbe614329	-0.21998276
8	0xbe4ba9ab	-0.19888942
9	0xbefd1466	-0.49429625
10	0xbf23e906	-0.6402744
11	0xbfbf4993	-1.4944328
12	0xbfe1e685	-1.7648474
13	0xbf53455e	-0.8252772
14	0xbdf15acc	-0.11784896
15	0x3e7fabcc	0.24967879
16	0x3e9a3c64	0.301242
17	0xbf544833	-0.8292267
18	0xbe84dd21	-0.25949958
19	0x3f225bbf	0.63421243
20	0x3ef648a2	0.4810229
21	0x3d0a57df	0.033775207
22	0x3ea9cea7	0.33165476
23	0x3f0c7644	0.5486796
24	0xbf19d3fb	-0.6008908
25	0xbfa77f13	-1.3085655
26	0xbfb4d12b	-1.4126333
27	0x3de6e62e	0.11274372
28	0xbf812928	-1.0090685
29	0xbe8a7a1d	-0.2704629
30	0x3f509fbd	0.8149374
31	0x3ead0423	0.3379222
32	0xbf5ab7ae	-0.8543652
33	0x3b10b0da	0.0022078068
34	0xbe444756	-0.19167838
35	0xbf3649a8	-0.7120614
36	0x3ec11f1e	0.37719053
37	0x3ea9428d	0.33058587
38	0xbf04a9e6	-0.51821744
39	0xbf1b090f	-0.605607
40	0xbfdf5e4b	-1.7450651
41	0xbf391b53	-0.7230732
42	0xbefee003	-0.49780282
43	0x3eb323b2	0.3498817
44	0x3b8d9512	0.004320749
45	0xbd873454	-0.06601778
46	0xbe6c272f	-0.23061822
47	0x3e874c44	0.26425374
48	0xbf2b3e59	-0.6689201
49	0xbf379f25	-0.7172721
50	0xbda2904a	-0.07937677
51	0xbf4c0bb8	-0.7970538
52	0xbf5cbfad	-0.86229974
53	0xbc6b6194	-0.014366526
54	0xbf878809	-1.058839
55	0x3f020307	0.5078587
56	0x3efd5f1c	0.49486625
57	0xbf2a5b53	-0.665456
58	0xbf3c432e	-0.7354001
59	0x3f92bbf6	1.1463611
60	0x3ce42e1f	0.027854024
61	0xbeb21a38	-0.34785628
62	0xbe8ef912	-0.279244
63	0xbf795080	-0.9738846

fc_hidden.norms.1.running_var f4 [64]
0	0x3f0239b6	0.5086931
1	0x3f2b47ff	0.6690673
2	0x3f84b96d	1.0369087
3	0x3f573c77	0.8407664
4	0x3f11bcfc	0.5692899
5	0x3f2f4c8a	0.68476164
6	0x3f40b607	0.7527775
7	0x3f801d84	1.0009007
8	0x3ef4e8e8	0.47833943
9	0x3ef48180	0.4775505
10	0x3f6f209d	0.9340914
11	0x3ed93a03	0.42427072
12	0x3f2754fe	0.6536406
13	0x3fb050d7	1.377467
14	0x3f163af9	0.58683735
15	0x3f023cda	0.508741
16	0x3f254220	0.64554024
17	0x3f231a32	0.63711846
18	0x3f5438c2	0.82899106
19	0x3f2f9ab7	0.6859545
20	0x3f1ecbe7	0.6202988
21	0x3eb8a2cb	0.360617
22	0x3f0cdc2d	0.5502346
23	0x3f7ecca8	0.9953103
24	0x3f1d431a	0.61430514
25	0x3f08e875	0.534797
26	0x3f48d205	0.78445464
27	0x3ef3e1eb	0.476333
28	0x3f9d74e6	1.23013
29	0x3e51dd8d	0.20494671
30	0x3f46db10	0.7767801
31	0x3f979cc9	1.1844722
32	0x3f62846b	0.88483304
33	0x3ef8724d	0.48524705
34	0x3f172009	0.59033257
35	0x3f23d1c2	0.6399194
36	0x3f6997a2	0.91247
37	0x3ee8f438	0.45498824
38	0x3f132d2f	0.5749082
39	0x3ef1717f	0.47156903
40	0x3f0bf428	0.5466943
41	0x3f1bf1f1	0.6091605
42	0x3f5697ea	0.8382555
43	0x3f9462a1	1.1592599
44	0x3f4be652	0.79648316
45	0x3f1e3594	0.61800504
46	0x3f23153e	0.6370429
47	0x3f21f505	0.63264495
48	0x3f056f26	0.52122724
49	0x3f13a618	0.57675314
50	0x3f36fb84	0.7147753
51	0x3ef2c062	0.474124
52	0x3fb175d9	1.3864089
53	0x3ef93ca2	0.48679072
54	0x3f20eda9	0.6286264
55	0x3f4c53a7	0.79815143
56	0x3f1dce15	0.6164258
57	0x3f780b59	0.96892315
58	0x3ed457c4	0.4147321
59	0x3eb4ce2b	0.35313544
60	0x3f92d9b8	1.1472692
61	0x3f2cb270	0.67459774
62	0x3f30cd64	0.690634
63	0x3f6d609c	0.9272554

fc_out.weight f4 [10, 64]
0	0xbe325c12	-0.17417935
1	0xbe192303	-0.14954762
2	0x3e2d6d23	0.16936164
3	0x3de3f6c0	0.11131048
4	0x3e630fbc	0.22173971
5	0xbe315499	-0.17317428
6	0xbec289f1	-0.37995866
7	0xbe23787a	-0.15963927
8	0xbaa6d52e	-0.0012728327
9	0x3e8c7cee	0.27439064
10	0xbe1f52c4	-0.15558916
11	0xbead7e27	-0.3388531
12	0x3e016a7c	0.12638277
13	0xbe833381	-0.25625232
14	0xbd378aa4	-0.044809952
15	0x3e7aac5f	0.24479817
16	0xbe584936	-0.21121678
17	0x3e2665b6	0.16249737
18	0xbe8ac7f3	-0.27105674
19	0x3e187ff0	0.14892554
20	0x3e823ec5	0.25438514
21	0x3cda8710	0.026675731
22	0xbdad39b0	-0.08458269
23	0xbe96ca37	-0.29451153
24	0xbe4c6166	-0.1995903
25	0x3d211b98	0.039332956
26	0x3d085af1	0.033289853
27	0x3e713f60	0.23559332
28	0xbed6caab	-0.41951498
29	0xbe195eac	-0.1497752
30	0xbe41244d	-0.18861504
31	0xbc23add3	-0.009990173
32	0xbb4a19d6	-0.0030838153
33	0x3e7366b3	0.23769645
34	0xbe7f62fc	-0.24940103
35	0x3e5cb0d6	0.21551833
36	0xbebe39b2	-0.37153393
37	0xbe6ef245	-0.23334606
38	0xbd1b6e78	-0.037947148
39	0xbe504f0b	-0.20342652
40	0xbd65d23a	-0.05610869
41	0xbdb1195a	-0.086474136
42	0xbd7f8965	-0.06238689
43	0xbe7791a1	-0.24176647
44	0x3c868bba	0.016424049
45	0x3da9f281	0.08298207
46	0xbd92e795	-0.07173077
47	0x3e132e7e	0.14373204
48	0xbe8cbb97	-0.2748687
49	0x3e0d58d6	0.1380342
50	0xbe001853	-0.12509279
51	0xbea80066	-0.32812804
52	0xbe22e627	-0.15908109
53	0xbcbc7f71	-0.023009988
54	0xbe29524c	-0.165353
55	0x3e3749e1	0.17899276
56	0xbe98664b	-0.29765543
57	0xbe817e99	-0.252919
58	0x3df360e0	0.11883712
59	0x3e81b3f1	0.25332597
60	0xbe8bf2d7	-0.2733371
61	0x3e39549c	0.18098682
62	0x3d4fe65f	0.05075681
63	0xbdb6301e	-0.088958964
64	0xbe3be72c	-0.18349904
65	0xbd97a399	-0.07404251
66	0x3e275efb	0.16344826
67	0xbe823fbb	-0.25439247
68	0xbe6b74b8	-0.22993743
69	0x3d956ce3	0.07296159
70	0x3d97de1c	0.07415411
71	0x3e205571	0.15657593
72	0x3e5d03ee	0.2158353
73	0x3e7842d5	0.24244244
74	0x3e199065	0.14996488
75	0x3d3bd7ad	0.04585998
76	0xbebccb82	-0.36874014
77	0xbcd71481	-0.026254894
78	0x3dedf0ac	0.1161817
79	0xbea49d2f	-0.32151172
80	0xbea232fb	-0.3167952
81	0x3ccf296a	0.025288302
82	0x3a8cb6b6	0.0010735604
83	0x3e51d1fa	0.20490256
84	0xbe7d50eb	-0.24737899
85	0x3d24ed8b	0.0402656
86	0xbd021653	-0.03175957
87	0x3e10bc37	0.14134298
88	0xbe90c8f2	-0.2827831
89	0x3d7a8f0e	0.061171584
90	0xbeb3d102	-0.35120398
91	0xbe9c5dfc	-0.30540454
92	0x3e35289a	0.1769127
93	0xbe2756b1	-0.16341664
94	0x3e228c45	0.15873821
95	0xbe034848	-0.12820542
96	0xbecea95f	-0.40363595
97	0xbe125653	-0.14290743
98	0xbc607d25	-0.013701712
99	0xbe6281c5	-0.22119816
100	0x3e1775a0	0.14790964
101	0x3e5a1b1b	0.21299402
102	0xbe2ed055	-0.1707166
103	0xbe1f57f8	-0.15560901
104	0xbec9bb1e	-0.39400572
105	0xbeaa6757	-0.33281967
106	0xbe6c41a2	-0.23071912
107	0x3e2e9363	0.17048411
108	0xbd79fc97	-0.061031904
109	0xbe816673	-0.25273475
110	0x3d7633af	0.060107883
111	0xbdc6061a	-0.096691325
112	0x3df36792	0.11884989
113	0xbe0c907d	-0.13726993
114	0x3df684a1	0.12037016
115	0xbe44e4e5	-0.19227941
116	0x3d7392c8	0.059466153
117	0x3c7288c8	0.014803119
118	0xbe8897b1	-0.2667823
119	0x3e6194d3	0.22029428
120	0xbeab6987	-0.33478948
121	0x3e556a24	0.2084127
122	0xbe197023	-0.14984183
123	0xbe40adc3	-0.18816285
124	0x3e1b02fa	0.15137854
125	0xbe9bb10f	-0.30408522
126	0x3e15ffcd	0.14648362
127	0x3e51d72f	0.20492242
128	0x3d7f39fa	0.06231115
129	0x3b3795ab	0.0028012793
130	0xbdc192b0	-0.094518065
131	0x3de4f909	0.11180312
132	0xbd187a31	-0.037225906
133	0xbe054ef3	-0.13018398
134	0x3bf67a8e	0.007521934
135	0xbdbc52bb	-0.09195467
136	0xbe13c1ae	-0.14429352
137	0xbe6600bb	-0.22461216
138	0x3e12f102	0.1434975
139	0x3cf4ebcf	0.029897599
140	0x3bbd8476	0.005783613
141	0xbd5717a4	-0.05251278
142	0x3e201f55	0.15636952
143	0xbd5c29ac	-0.05375068
144	0x3d364183	0.04449607
145	0xbe52f1d4	-0.20600063
146	0x3e28167e	0.1641483
147	0x3d966e31	0.07345236
148	0x3e23a510	0.15980935
149	0x3c1fc7b8	0.0097522065
150	0x3c4db900	0.0125563145
151	0x3d8488f5	0.06471435
152	0xbe07fd9f	-0.13280343
153	0xbcf27cc1	-0.029600503
154	0xbdc126da	-0.094312385
155	0xbd443b26	-0.04790797
156	0xbe1d6a22	-0.15372518
157	0xbdb97c45	-0.09056906
158	0x3ba76ed0	0.0051096454
159	0xbe30af02	-0.1725426
160	0x3df68337	0.12036746
161	0x3da440ed	0.08020196
162	0x3dadfd1f	0.08495545
163	0xbe556626	-0.20839748
164	0x3d78b3af	0.060718235
165	0x3d6b37d7	0.0574263
166	0x3c1ba682	0.009500148
167	0x3c171c4d	0.009223056
168	0xbca5c764	-0.020236678
169	0x3d230511	0.039799754
170	0xbd10669e	-0.035254113
171	0xbe22fc8b	-0.1591665
172	0x3e11e860	0.142488
173	0xbd1bc501	-0.038029674
174	0x3d5b59ed	0.053552557
175	0x3d022e7e	0.03178262
176	0x3e03bdc6	0.12865362
177	0xbd662ed9	-0.05619702
178	0xbe05438a	-0.13014045
179	0x3ab82ece	0.0014052035
180	0x3c74632f	0.014916225
181	0x3ddbf0e6	0.10739307
182	0x3ca35031	0.0199357
183	0xbd9956a4	-0.074872285
184	0x3e0c8ad4	0.13724834
185	0xbbf61d2f	-0.007510803
186	0xbe0c7a50	-0.13718534
187	0x3e00f726	0.1259428
188	0x3e5b9fa3	0.21447615
189	0xbd9608f8	-0.073259294
190	0x3dac90ee	0.08426081
191	0x3db21c89	0.08696849
192	0xbdb4544a	-0.08805139
193	0xbea8acda	-0.32944375
194	0xbe644611	-0.22292353
195	0x3dfc72bb	0.123265706
196	0xbdcbb621	-0.09946848
197	0xbe0c0285	-0.13672836
198	0xbd45b2b7	-0.04826614
199	0xbc62d613	-0.013844985
200	0x3da969c5	0.08272127
201	0xbd00414b	-0.03131227
202	0x3e12278f	0.14272903
203	0xbd688c43	-0.05677439
204	0x3d000def	0.031263288
205	0x3d65532d	0.055987526
206	0x3e2476a6	0.16060886
207	0xbe2b3165	-0.16718061
208	0x3e096d08	0.13420498
209	0xbdbbcf4d	-0.09170399
210	0x3e049216	0.12946352
211	0x3ce03cc2	0.027372722
212	0xbd4a6bc9	-0.0494192
213	0xbdbbbe24	-0.09167126
214	0x3d0b51af	0.034013446
215	0x3d77c612	0.06049163
216	0x3d9bef46	0.07613997
217	0xbda34ac0	-0.07973242
218	0xbd9f150c	-0.07767686
219	0xbd890f47	-0.06692367
220	0xbdd5983a	-0.104294255
221	0xbd10c60f	-0.035345133
222	0xbdcc1efb	-0.099668466
223	0x3d821d27	0.063532166
224	0x3de1f110	0.11032307
225	0xbde4fa7e	-0.1118059
226	0x3cf2e66b	0.029650887
227	0xbe7575f3	-0.23970775
228	0x3d8462c6	0.06464152
229	0x3da28b72	0.07936753
230	0x3daf998b	0.08574208
231	0xbe33e1c2	-0.17566589
232	0xbd2b6ee9	-0.04185382
233	0xbc3dd206	-0.011585718
234	0xbe4f7034	-0.20257646
235	0xbd8490e9	-0.06472952
236	0x3e3bbcd3	0.1833375
237	0x3e10bb05	0.14133842
238	0x3d48a0bd	0.048981417
239	0x3da9b93d	0.082872845
240	0xbd99809d	-0.07495234
241	0xbc6cd95d	-0.01445612
242	0x3cc1686a	0.023609359
243	0x3e32dbf9	0.17466725
244	0x3dfdf4cf	0.12400209
245	0xbb00f695	-0.0019678224
246	0x3cc932d6	0.024560373
247	0xbcde7bc6	-0.02715863
248	0x3e2eb5d6	0.17061552
249	0x3d68e64f	0.056860264
250	0xbbc42561	-0.005985901
251	0xbc560ab4	-0.013064075
252	0x3da46d21	0.08028627
253	0xbe66b0a9	-0.22528328
254	0xbd092dff	-0.03349113
255	0xbe649e2f	-0.22325967

fc_out.bias f4 [10]
0	0xbd04419d	-0.032289136
1	0xbe25809b	-0.1616234
2	0x3c162f1a	0.009166503
3	0xbbd45694	-0.0064800475
4	0xbda090cd	-0.078401186
5	0x3d2ad591	0.04170758
6	0x3e034399	0.12818755
7	0x3dc157d9	0.09440584
8	0xbd459a5e	-0.04824292
9	0x3c427cfc	0.011870619
